src/logs_example/run_20250719_180017_ws10_fd1_ed16_bc8_rb1_nt50_s0.008_sw100_lr0.001_bs32_1aa9489b/model_run_20250719_180017_ws10_fd1_ed16_bc8_rb1_nt50_s0.008_sw100_lr0.001_bs32_1aa9489b.pt (torch, 35459 bytes, 32 tensors)

betas f4 [50]
000000 00 0c e5 3a 00 c3 71 3b 80 9b b8 3b 00 92 f8 3b
       0.001747489 0.003688991 0.0056337714 0.007585764
000010 00 73 1c 3c 40 db 3c 3c c0 94 5d 3c 80 ae 7e 3c
       0.0095489025 0.011526883 0.013524234 0.015544534
000020 40 1e 90 3c 80 29 a1 3c 80 82 b2 3c 80 34 c4 3c
       0.01759255 0.019673109 0.021790743 0.023950815
000030 60 4b d6 3c 40 d4 e8 3c e0 db fb 3c 10 b9 07 3d
       0.026158988 0.028421521 0.030744493 0.033135474
000040 a0 d3 11 3d e0 46 1c 3d b0 1c 27 3d b0 60 32 3d
       0.035602212 0.03815353 0.040798843 0.04354924
000050 10 1f 3e 3d 50 66 4a 3d 30 46 57 3d 80 d1 64 3d
       0.046416342 0.04941398 0.05255717 0.055863857
000060 c0 1c 73 3d 48 20 81 3d 40 2c 89 3d 90 c2 91 3d
       0.05935359 0.06304985 0.06697893 0.07117188
000070 b0 f6 9a 3d 08 df a4 3d 88 96 af 3d 18 3e bb 3d
       0.07566583 0.08050352 0.085736334 0.09142703
000080 d8 fc c7 3d 10 03 d6 3d 00 8d e5 3d 30 e6 f6 3d
       0.09765023 0.10449803 0.11208534 0.120556235
000090 04 37 05 3e 80 50 10 3e 50 11 1d 3e 5c e7 2b 3e
       0.13009268 0.14093208 0.15338635 0.16787475
0000a0 38 69 3d 3e 30 6d 52 3e 28 2b 6c 3e f8 3e 86 3e
       0.18497169 0.20549464 0.23063338 0.26219916
0000b0 50 2c 9b 3e e8 5c b7 3e 8c 58 df 3e a7 09 0e 3f
       0.30307245 0.3581307 0.43622243 0.5548348
0000c0 29 f0 3f 3f 77 be 7f 3f
       0.7497583 0.999

alphas f4 [50]
000000 7a 8d 7f 3f 3d 0e 7f 3f c9 8e 7e 3f dc 0e 7e 3f
       0.9982525 0.996311 0.9943662 0.99241424
000010 34 8e 7d 3f 93 0c 7d 3f ad 89 7c 3f 46 05 7c 3f
       0.9904511 0.9884731 0.98647577 0.98445547
000020 0e 7f 7b 3f b4 f6 7a 3f ec 6b 7a 3f 5c de 79 3f
       0.98240745 0.9803269 0.97820926 0.9760492
000030 a5 4d 79 3f 5e b9 78 3f 21 21 78 3f 6f 84 77 3f
       0.973841 0.9715785 0.9692555 0.9668645
000040 c6 e2 76 3f 92 3b 76 3f 35 8e 75 3f f5 d9 74 3f
       0.9643978 0.9618465 0.95920116 0.95645076
000050 0f 1e 74 3f 9b 59 73 3f 9d 8b 72 3f e8 b2 71 3f
       0.95358366 0.950586 0.9474428 0.94413614
000060 34 ce 70 3f f7 db 6f 3f 78 da 6e 3f ae c7 6d 3f
       0.9406464 0.93695015 0.93302107 0.9288281
000070 2a a1 6c 3f 1f 64 6b 3f 2f 0d 6a 3f 3d 98 68 3f
       0.92433417 0.9194965 0.91426367 0.908573
000080 65 00 67 3f 9e 3f 65 3f 60 4e 63 3f 3a 23 61 3f
       0.90234977 0.895502 0.88791466 0.87944376
000090 3f b2 5e 3f e0 eb 5b 3f ac bb 58 3f 29 06 55 3f
       0.8699073 0.8590679 0.84661365 0.83212525
0000a0 b2 a5 50 3f b4 64 4b 3f 36 f5 44 3f 84 e0 3c 3f
       0.8150283 0.79450536 0.7693666 0.73780084
0000b0 d8 69 32 3f 8c 51 24 3f ba 53 10 3f b2 ec e3 3e
       0.69692755 0.6418693 0.56377757 0.44516522
0000c0 ae 1f 80 3e 00 12 83 3a
       0.2502417 0.0009999871

alpha_bars f4 [50]
000000 7a 8d 7f 3f 23 9c 7e 3f ed 2c 7d 3f 46 41 7b 3f
       0.9982525 0.99456996 0.98896676 0.98146474
000010 13 db 78 3f bb fc 75 3f 13 a9 72 3f 6e e3 6e 3f
       0.9720928 0.9608876 0.94789237 0.9331578
000020 8d af 6a 3f 99 11 66 3f 2d 0e 61 3f 45 aa 5b 3f
       0.9167412 0.898706 0.87912256 0.85806686
000030 3d eb 55 3f c8 d6 4f 3f f8 72 49 3f 24 c6 42 3f
       0.8356207 0.81187105 0.78691053 0.7608359
000040 f0 d6 3b 3f 40 ac 34 3f 36 4d 2d 3f 24 c1 25 3f
       0.73374844 0.7057533 0.6769594 0.64747834
000050 8d 0f 1e 3f 16 40 16 3f 85 5a 0e 3f b3 66 06 3f
       0.6174248 0.5869154 0.5560687 0.52500457
000060 14 d9 fc 3e ec e7 ec 3e ca 09 dd 3e 79 4e cd 3e
       0.49384367 0.46270692 0.4317153 0.40098932
000070 97 c5 bd 3e 9a 7e ae 3e b5 88 9f 3e c3 f2 90 3e
       0.37064812 0.34080964 0.31158987 0.28310212
000080 47 cb 82 3e af 40 6a 3e 13 ff 4f 3e cf eb 36 3e
       0.25545713 0.22876237 0.20312147 0.17863391
000090 da 1f 1f 3e dd b2 08 3e 42 76 e7 3d f7 9a c0 3d
       0.15539494 0.13349481 0.11301853 0.09404557
0000a0 92 fa 9c 3d e5 70 79 3d 5d e9 3f 3d af 97 0d 3d
       0.0766498 0.06089868 0.046853412 0.034568485
0000b0 05 5c c5 3c a3 5b 7d 3c 68 d6 0e 3c 5f 58 7e 3b
       0.02409173 0.015463742 0.008718111 0.0038809997
0000c0 52 97 7e 3a 56 59 82 35
       0.00097118795 9.711755e-07

stat_predictor.cond_mlp.0.weight f4 [16, 32]
000000 26 0f cc bd 76 ee 52 3c b3 10 bc 3d 5a 80 d0 3d
       -0.09963827 0.012874236 0.091828726 0.10180731
000010 44 8c 70 bc 42 3c 26 3e 64 2f 0b 3e 69 bf a9 bd
       -0.014681879 0.16233924 0.13592297 -0.08288462
000020 90 f0 9a bd 76 7c b4 3d 2f d8 e5 3d e3 7d ee 3d
       -0.07565415 0.088128015 0.112228744 0.11645105
000030 91 07 37 3e 69 96 1c 3e 6b 55 a1 3d 20 71 36 3e
       0.1787398 0.15291752 0.0787762 0.17816591
000040 df 78 09 3e 30 b8 81 3b 7a 21 33 3d a4 92 14 be
       0.13425015 0.0039587244 0.043733098 -0.14509064
000050 65 58 bc 3d aa 0c 10 be e3 62 df 3d 64 ae b3 3c
       0.091965474 -0.14067331 0.10907533 0.021933742
000060 ec ba df bc 8d 6d be 3c e0 c8 cf bd ad f0 91 3d
       -0.027310811 0.023245597 -0.10145736 0.071259834
000070 8c 4f 90 3b ef 3c c1 3d 59 5b 16 3e dc 51 ab bd
       0.004404014 0.0943545 0.14683284 -0.08365223
000080 43 77 0a bd b9 1d de 3d 82 a5 d4 bd ab 09 12 be
       -0.033805143 0.10845513 -0.103831306 -0.142615
000090 64 71 9d bd 65 58 87 bd ec ad c9 3c a5 08 15 3d
       -0.07687643 -0.06608657 0.024619065 0.036385197
0000a0 28 d6 7b bd a9 22 11 be 99 27 2b be de eb 13 bd
       -0.061483532 -0.14173378 -0.16714324 -0.036113612
0000b0 4b 6d d1 bd 49 c2 11 be 79 9e a7 bc 16 76 11 3e
       -0.10225924 -0.1423427 -0.020461308 0.14205202
0000c0 6c f6 49 3c cb 7b f2 bb 8d 81 1e 3e 90 dc f8 bd
       0.012326818 -0.007400011 0.15479107 -0.12151444
0000d0 0b c9 07 be 9a 0f 1f bb 1c 75 43 bd 95 63 08 3e
       -0.13260286 -0.0024270774 -0.047719106 0.13319238
0000e0 4b be 21 3e f7 6c 04 be 98 c4 29 be 88 69 67 3d
       0.15795247 -0.12932192 -0.16578901 0.056497127
0000f0 64 de 43 3d d1 57 24 bd 71 44 eb 3b 2b 64 1c 3e
       0.04781951 -0.04012281 0.0071797897 0.15272586
000100 36 d1 93 bd 34 84 fd 3d 07 f4 95 3d 46 64 dc 3d
       -0.07217638 0.12378731 0.07321935 0.10761313
000110 80 1a 8f 3b 76 09 84 3d cc 8d 13 3e da 0a 32 bc
       0.0043671727 0.06447117 0.1440956 -0.010866845
000120 df c6 eb 3d bd 86 d0 bd d0 0f c2 bd 94 2d 93 3d
       0.11512541 -0.10181949 -0.09475672 0.07186428
000130 58 a6 5a bd 03 87 08 3e 17 2d 1a 3e ea f3 81 3b
       -0.053381294 0.13332753 0.15056263 0.0039658444
000140 70 72 c9 bc b1 0f 1f 3e 19 69 9d bb a6 4b a6 3d
       -0.0245907 0.1553333 -0.0048037884 0.081198975
000150 6c 0a 2f be 6d 49 00 3e 74 f5 9d 3d 89 e4 30 3d
       -0.1709382 0.1252801 0.07712832 0.043186698
000160 49 07 6a bd 6e 7d e4 3d 9a 8e 99 3d df 9a 07 3e
       -0.057135854 0.11156736 0.07497902 0.13242672
000170 37 c2 ea 3b a7 ae 21 3e a0 46 66 bd 7f 87 81 bd
       0.0071642655 0.15789281 -0.056219697 -0.06324672
000180 3e 0b fb 3b cd 3f a3 3d d2 1b cd 3d 81 44 2f be
       0.0076612523 0.079711534 0.10015072 -0.17115976
000190 c6 b9 c6 bd c0 5b f6 bd 50 dd f9 3c 25 3c e3 bc
       -0.09703402 -0.12029219 0.030501038 -0.02773864
0001a0 25 05 88 3d 95 10 cf bd b8 db c7 bd fd e8 cf 3d
       0.06641606 -0.10110585 -0.09758705 0.10151861
0001b0 0b 26 ff 3d 16 72 33 3e 1f 0b 80 3d fb 9a ac bd
       0.12458428 0.17523989 0.06252121 -0.08427998
0001c0 45 35 6d bd e5 5c d6 3d 77 5b 0b bd e4 da 05 3b
       -0.05791213 0.10466937 -0.034022775 0.0020424658
0001d0 d9 2b 90 3d 3d 83 d4 bd 2d 8c 1f 3e 9f b9 e0 bd
       0.07039613 -0.10376594 0.15580817 -0.109729044
0001e0 17 cc 1b 3e 5d 0d d0 3d ee 9d 2a be a7 68 f1 3d
       0.15214573 0.10158799 -0.16661808 0.11787539
0001f0 ec 54 88 bd 6b 2c b0 bd 40 f8 3d 38 a5 15 bf 3d
       -0.066568226 -0.08602222 4.5292312e-05 0.093303
000200 66 51 3b 3c 60 bf 37 be c5 c9 fd bd 21 94 83 bc
       0.011432981 -0.17944098 -0.12392 -0.016061844
000210 28 78 48 bc f3 85 c5 3d 95 0f c9 bd 1a 7f 1e be
       -0.012235679 0.096446894 -0.09817425 -0.15478173
000220 1a e4 06 bc 67 45 ac bb f6 44 ee 3d b4 ea 26 3d
       -0.008233095 -0.005257297 0.11634247 0.040751174
000230 ec 29 03 3e b0 f0 92 3c 6c 5b 93 bc 5c d1 fc 3d
       0.1280896 0.017937034 -0.01798793 0.1234462
000240 0b 97 a7 bd ae 07 37 bd b9 0f 0d bd 5f 23 8d bd
       -0.08183106 -0.04468506 -0.034438822 -0.06891512
000250 8e 06 14 3e c6 03 16 3e bd ea 96 bd f2 b9 b7 bd
       0.14455625 0.14649877 -0.073689915 -0.08971013
000260 a4 8f 80 3d ad bc cf bd 4b e9 f7 bd e9 af a0 bd
       0.06277397 -0.10143409 -0.12105044 -0.07846052
000270 e3 6f b0 bd 73 7e 30 bd 1c 8d 69 3c 2f 14 01 3d
       -0.08615091 -0.04308934 0.0142548345 0.03151339
000280 ce ac f8 3d 99 a0 dd bd 34 18 7d bc a8 23 6b bd
       0.12142335 -0.10821647 -0.015447665 -0.05740705
000290 2f 9a 73 bc f5 37 f7 bd 58 5c 59 bd d5 cd 0f 3e
       -0.014868303 -0.1207122 -0.05306658 0.14043362
0002a0 9b d2 ab 3c be 0d 05 be ee 7e 38 3e 5f 19 3f 3d
       0.020974448 -0.12993523 0.1801717 0.046655055
0002b0 7b 0d 47 bd c4 fe df 3d 5c 0b 26 be 7a 9b 1c be
       -0.04859684 0.109372646 -0.16215271 -0.15293685
0002c0 cf 99 ef bd c5 9a 1a 3e 7f ff 96 bc c2 60 56 3d
       -0.116992585 0.15098102 -0.018432377 0.05233837
0002d0 21 76 6d 3d 93 16 5b 3c fe 6d e3 3d 99 41 2b 3e
       0.057973985 0.013372081 0.11104964 0.16724242
0002e0 b3 06 97 bd 6a 73 b3 3d 16 f3 ba 3d 06 dd 14 3d
       -0.07374325 0.08762248 0.09128396 0.036343597
0002f0 70 52 32 be 59 18 ca bd 1c 19 dd bd 82 fd af 3c
       -0.1741426 -0.09867925 -0.10795805 0.021483187
000300 d0 15 1f 3e cc 62 b9 bd e5 61 f8 bd 92 dc ac bd
       0.15535665 -0.09052047 -0.12128047 -0.08440508
000310 e3 1a 84 3d 5d 89 b8 bc ed 8c 23 3c e9 17 9b bd
       0.06450441 -0.022526437 0.00998233 -0.0757292
000320 39 80 06 bd dd fc 0e bd 2b 1f ba bd cc 97 91 3d
       -0.032837126 -0.034909118 -0.09087976 0.07109031
000330 07 8d c6 3d 4a 56 9e bd ae 57 a8 bd 3c a4 3c bc
       0.096948676 -0.07731302 -0.082198486 -0.011513766
000340 40 31 79 3d 75 d9 a6 bd cf 4d 18 3e b2 d0 67 3b
       0.060837984 -0.081469454 0.14873432 0.0035372195
000350 92 aa 92 bc 99 a0 11 3e 59 d0 db bd fa 2b 60 3c
       -0.0179036 0.1422142 -0.107330985 0.01368236
000360 2a 57 b2 bd f1 95 ba 3d 58 df 20 be 87 52 12 be
       -0.087080315 0.0911063 -0.15710199 -0.14289294
000370 61 ee 35 be 79 a7 d4 3d 39 5a eb 3d 57 88 97 bd
       -0.17766716 0.103835054 0.11491818 -0.07399052
000380 d0 4b fe 3c 74 05 1d be 40 c1 80 3d f2 3f 7f 3c
       0.03104201 -0.15334111 0.062868595 0.015579211
000390 96 bc 4a 3d c0 ce d4 3d 82 28 17 be 68 e2 b6 3c
       0.049496256 0.10390997 -0.14761546 0.022324756
0003a0 46 fe 3d be 0c 08 ba 3d 5c 57 5b 3c 05 f0 24 bd
       -0.18554029 0.09083566 0.013387527 -0.040267963
0003b0 31 00 2d 3d f0 a3 c5 bc 06 32 c4 bc ad ac dc bd
       0.04223651 -0.024126023 -0.023949634 -0.10775123
0003c0 2e 4f 17 be 4e ee 08 bd f6 4d f6 3d 0e 89 20 3e
       -0.14776298 -0.03343039 0.120265886 0.15677282
0003d0 20 43 1e 3e 90 15 37 3e 70 7f dd bd 6c c6 29 3e
       0.15455294 0.17879319 -0.108153224 0.16579598
0003e0 7b 3d 45 3d b4 4f 1e 3e 44 35 03 3e 3e fb 1e 3e
       0.048154335 0.15460092 0.12813288 0.15525529
0003f0 2c ab 0d 3e 1c 4b a9 3d ac 09 2c 3e ee 72 da bb
       0.13834828 0.08266279 0.16800565 -0.0066665327

stat_predictor.cond_mlp.0.bias f4 [16]
000000 fb 9e 01 be 07 e2 5e bc 72 76 81 3c dc 63 84 bd
       -0.12658302 -0.013603694 0.01580355 -0.06464359
000010 cd 3d f0 3d d5 1d 0e 3e 0f 4b df bd c2 1e 04 be
       0.117305376 0.13878568 -0.10902988 -0.12902358
000020 ba c5 67 bd a3 9f 55 3d 0f fd fc bd f8 02 89 3d
       -0.05658505 0.052154195 -0.123529546 0.06690019
000030 53 a6 6d bd f7 0c 2a be 0b f4 f0 3b b9 3c 29 3d
       -0.058019947 -0.16606508 0.007353311 0.041317675

stat_predictor.cond_mlp.2.weight f4 [16, 16]
000000 0c 2e 44 3e a0 91 06 3e 73 9d d4 3d 1a 4f d8 3d
       0.1915819 0.13141489 0.103815936 0.105619624
000010 db 00 78 3e 98 00 70 3d 74 64 ea 3d 0b 90 4d bd
       0.24219076 0.058594316 0.11444941 -0.0501862
000020 56 2b bb 3d 93 46 0c be 17 75 68 3e ca 2a 94 bd
       0.09139125 -0.13698797 0.22700916 -0.07234724
000030 db e1 04 be 6a bc 23 be db 9b 6e be 65 33 ec bd
       -0.12976782 -0.15989843 -0.23301642 -0.1153324
000040 16 d2 14 3e 5c ea 8f 3c ab 76 9c bc 62 71 22 be
       0.14533266 0.017567806 -0.019099554 -0.15863565
000050 96 dc 19 3d 73 fd 33 3d f8 7f 8a bd 07 95 5d be
       0.037563883 0.04394288 -0.06762689 -0.2163888
000060 3f 35 68 3e c0 33 e4 3d 52 0d 28 be 37 94 66 be
       0.22676562 0.11142683 -0.16411331 -0.22517477
000070 7e 51 d6 bd 2b 92 e3 3d f8 8d dd bd b8 89 4d 3d
       -0.10464762 0.11111864 -0.10818094 0.050180167
000080 57 34 4e be 3c 23 09 be 9c bf 1a 3e 33 57 0f 3e
       -0.20137154 -0.13392347 0.15112156 0.13998108
000090 d2 ef 89 3c 9b ae 54 be be a5 7f 3e f6 bd 48 3e
       0.016837988 -0.20769732 0.2496557 0.19603714
0000a0 ad 56 b8 3d 24 c4 25 3e b6 e1 31 be 82 b2 2c be
       0.09000907 0.16188103 -0.17371258 -0.1686497
0000b0 57 3d ba 3d 76 ac ae bc ff f0 2b be 5a 1a dd 3c
       0.09093731 -0.02132247 -0.16791151 0.026990104
0000c0 1b 05 02 3d ac c5 a5 3d ad 9a 47 be c6 f0 e4 bd
       0.03174315 0.080943435 -0.19492598 -0.111787364
0000d0 c7 ed 7e 3e fc 93 dc 3d a6 82 20 be 4f 21 22 bc
       0.24895392 0.10770413 -0.15674838 -0.009895637
0000e0 1c 2b 4b bd 88 8d da bd 3c 96 36 be b8 2f 65 3d
       -0.04960166 -0.10671526 -0.17830747 0.05595371
0000f0 00 4a 7b be 14 f1 1e be 87 c3 5e 3e 2f 2f 14 be
       -0.24539948 -0.15521652 0.21754275 -0.14471124
000100 41 f8 b8 bd 6b 03 f9 bd d1 56 13 be 42 27 f1 3d
       -0.09031726 -0.12158855 -0.14388587 0.11775066
000110 20 7c 87 3d df a8 73 be 77 b2 2b 3e 05 e8 e2 bc
       0.06615472 -0.23794888 0.16767298 -0.027698526
000120 7a e6 05 3e b9 6d 70 3e d9 03 1d 3e bf c0 28 3e
       0.13076201 0.23479356 0.15333499 0.16479777
000130 04 7b 2c be 39 b5 07 3e b0 1a 2f be e6 c9 78 3d
       -0.16843802 0.13252725 -0.17100024 0.06073942
000140 95 64 49 3e 21 ee 3d 3d e1 ce 58 bd 05 a2 9b bd
       0.19667275 0.046369676 -0.05293167 -0.07599262
000150 c7 be 0a 3d 5b 67 59 3e 2e 08 4c 3e c5 23 65 3e
       0.033873346 0.21230833 0.19924995 0.22376926
000160 23 00 e5 3d ef c6 ec 3d 1d 64 ac 3d 21 dc 18 3e
       0.11181667 0.11561381 0.084175326 0.14927723
000170 54 ed 3e 3e 60 80 4d 3d 52 46 3c be 21 47 d9 bc
       0.18645221 0.050171256 -0.183862 -0.026523175
000180 cd ef 21 3e ae 8e 40 be f5 dd c4 3d aa b7 38 be
       0.15814133 -0.18804428 0.096126474 -0.18038812
000190 46 f6 04 3e f3 85 23 be 65 09 23 3e 60 f3 7d be
       0.12984571 -0.15969066 0.15921552 -0.24799871
0001a0 39 8c 7d 3e 38 87 42 3d 81 52 1c 3e 9d e9 3c 3e
       0.24760522 0.047492236 0.15265848 0.18448491
0001b0 b8 98 00 3d b0 cf d9 3d a6 5a 87 bd 3d b4 ca bd
       0.031395644 0.10635316 -0.06609087 -0.09897659
0001c0 79 e2 61 bd dc d9 e8 bd 02 a5 67 be 83 a0 6e 3d
       -0.05514762 -0.113696784 -0.22621539 0.058258545
0001d0 94 75 32 3c 05 00 41 3e 03 42 6b 3d 5c 44 94 bd
       0.010892291 0.18847664 0.057436 -0.07239601
0001e0 d3 01 71 3e f2 a2 26 be d3 31 83 3e 44 b6 76 be
       0.23535852 -0.16273096 0.2562395 -0.24092966
0001f0 a6 cf 03 be 7e bb ca bd 44 00 4a 3d ac 4b 24 3d
       -0.1287218 -0.098990425 0.04931666 0.04011123
000200 d8 ea de bd eb 2e 8a 3d 95 c3 10 bc 40 cd e4 3c
       -0.10884637 0.0674723 -0.008835693 0.027929902
000210 91 cc 26 be 45 01 94 bd 3f ef 26 3e c5 81 be 3d
       -0.16288973 -0.07226805 0.16302203 0.09302095
000220 b5 a1 31 be 38 48 02 be 4e e8 27 3e 47 c8 f7 3d
       -0.17346843 -0.12722862 0.16397211 0.12098747
000230 df f1 38 3e 30 99 07 bd 0a 76 2d 3e 79 f4 63 be
       0.18061016 -0.033105075 0.1693956 -0.22261228
000240 c4 fa 05 3e 27 e2 21 3d 93 5c c3 3d 40 bb 0a 3d
       0.1308394 0.039522316 0.095391415 0.03386998
000250 6f 39 43 be c8 19 26 be c5 19 ad bd 44 08 08 3e
       -0.19064878 -0.16220772 -0.08452181 0.13284403
000260 9b a3 c9 3d bd a9 6c 3e 83 71 a1 bd 75 a1 80 3e
       0.098456584 0.23111625 -0.07882979 0.25123182
000270 c5 93 ef bd c2 6c cd 3d f5 d8 cf 3d e0 25 4a 3e
       -0.11698107 0.100305095 0.10148803 0.1974101
000280 57 5b b0 bd 47 70 dc bd 45 47 17 3e 49 2f b5 3d
       -0.08611172 -0.10763603 0.14773281 0.088469096
000290 f1 db 58 3e cf fe 8f bd c8 08 fd bd 04 8b bc bd
       0.21177651 -0.07031023 -0.123551905 -0.092062026
0002a0 0c 2d 49 3e 22 d9 58 3d 31 fb eb bc 5e 8a 10 bc
       0.1964609 0.05294145 -0.0288063 -0.008822052
0002b0 97 00 72 3e d4 5d e8 3d bb b6 3c be 9a 02 33 bd
       0.23633038 0.11346021 -0.18429081 -0.043703653
0002c0 b1 5d 81 be 24 9b 5f 3e 5f ae 79 3d 0a c0 0c be
       -0.25266793 0.21836525 0.06095731 -0.13745132
0002d0 ef 6c 61 be 35 77 01 be dc c0 a5 3d 6e 03 20 be
       -0.22014211 -0.1264313 0.08093426 -0.15626308
0002e0 c1 0c 73 be ce 50 31 be 79 52 82 3e e0 bc 2d be
       -0.23735334 -0.17315981 0.25453547 -0.16966581
0002f0 80 4d 3d bc e8 b3 2b 3e 2f d9 1d be 4e cf 1f bd
       -0.011554122 0.16767848 -0.1541488 -0.03901606
000300 81 60 c3 3d 8e f0 49 be 9e 8a da 3d a0 d4 08 bc
       0.09539891 -0.1972067 0.106709704 -0.008351475
000310 c8 fd 3c 3c c1 76 ab bb e6 6e fb 3d cf d0 a6 bd
       0.011535116 -0.0052326624 0.122770116 -0.08145296
000320 98 f9 aa 3d e9 c5 08 3e a9 f3 30 be 11 2d 77 3e
       0.083483875 0.13356747 -0.17280449 0.24138285
000330 88 66 d3 bd 85 b2 2f 3e 30 64 55 be 40 4d 19 be
       -0.10322291 0.17157944 -0.20839 -0.14970875
000340 87 6a 3b be 3f 55 28 3e 0a b5 1a be 3a 57 7c be
       -0.18302356 0.16438769 -0.15108123 -0.2464265
000350 17 c4 72 3d e7 06 11 3e e3 6c 5c 3d 25 49 b7 bd
       0.059269037 0.1416279 0.05381478 -0.08949498
000360 06 f5 37 be 2f 84 91 bd 79 53 fb 3d 25 d9 dc 3d
       -0.17964563 -0.0710529 0.122717805 0.107836045
000370 4d bc 83 bd be 13 b6 3d 6e 51 4c be 1b b3 d0 3d
       -0.064324 0.08890484 -0.19952938 0.10190412
000380 0b 6a be 3d 99 d8 77 3e 25 cf 2a 3e 31 8a 15 be
       0.0929757 0.24203719 0.16680582 -0.14603497
000390 47 41 52 be 02 26 7b be 07 8e 06 be cd bf b9 bd
       -0.20532714 -0.24526218 -0.13140117 -0.09069786
0003a0 a5 e3 cf 3d b7 58 9b bd eb 9a 47 3d 9e 49 ea bd
       0.101508416 -0.075852804 0.048731726 -0.114398226
0003b0 13 c1 3a be 06 e0 71 3d e8 68 cb bc 6a f7 5e be
       -0.18237714 0.059051536 -0.024830297 -0.21774068
0003c0 e2 88 af 3d f0 65 ba bd 7a 5f 55 be 00 1a cc 3c
       0.0857103 -0.09101474 -0.20837203 0.024914742
0003d0 40 ce 46 bd 49 09 12 3e 09 b2 af 3d 24 34 de 3d
       -0.04853654 0.14261355 0.085788794 0.10849789
0003e0 54 08 0b 3e fb 1d f3 3c ae 11 56 bd 3f 28 2c bd
       0.13577396 0.029677382 -0.052262954 -0.04203057
0003f0 a7 75 3c be 86 fc 02 3e a2 df 6e 3e c4 c1 18 bd
       -0.18404256 0.12791643 0.23327497 -0.037294164

stat_predictor.cond_mlp.2.bias f4 [16]
000000 da 40 e2 bd 03 b9 ec bc de bb 03 be 7c 25 65 be
       -0.11047526 -0.028896814 -0.12864634 -0.2237758
000010 41 79 f2 3d e9 c0 1e be fd 20 61 bd 93 2a eb 3c
       0.118395336 -0.15503277 -0.0549631 0.028706824
000020 27 da 91 3d f3 10 47 3e a4 35 04 3e 11 4b 4e 3d
       0.071216874 0.1944006 0.12911087 0.050364558
000030 9f 5e bb bd 42 68 49 be 0c b6 9f 3d b9 42 c0 bd
       -0.09148907 -0.19668677 0.077983946 -0.09387726

stat_predictor.stat_mlp.0.weight f4 [16, 16]
000000 6e 49 19 3e 0e b0 96 3d 66 a3 c9 3d 8c b9 02 3c
       0.14969417 0.073577985 0.09845619 0.007978808
000010 f6 81 2f be c3 ea 31 be 87 7b bc bd a4 f7 ff 3d
       -0.1713942 -0.1737471 -0.092032485 0.124984056
000020 ac 97 31 be d5 c5 71 3c 73 ad 4d be 20 a1 47 be
       -0.17343014 0.0147566395 -0.20085697 -0.19495058
000030 38 ca 76 3e 31 38 1a bd 68 ab 46 be 84 db 81 be
       0.24100578 -0.037651245 -0.19401324 -0.2536279
000040 60 83 5e 3e 4e 6c f4 bc 51 73 91 3d d5 89 66 bd
       0.21729803 -0.0298368 0.07102073 -0.05628379
000050 5d 5f 2c be 08 da 3b 3e 19 35 d0 bd 5c c5 8a 3c
       -0.16833253 0.18344891 -0.101663776 0.016939811
000060 4f 44 2c be 9c a0 23 bd 6a 54 68 be 19 14 4b be
       -0.16822933 -0.03994809 -0.22688451 -0.19831885
000070 c9 8e 00 3d 6b dd 5c be 1b 64 5b 3e 77 6d 60 be
       0.03138617 -0.21568839 0.21424906 -0.21916758
000080 c5 dd eb 3d c6 07 12 3d 42 43 6f be 39 9d 73 3e
       0.115169086 0.035651945 -0.233655 0.23790444
000090 44 4a 71 3e 40 ea 40 be 97 07 2c be f3 7b 90 3b
       0.23563486 -0.1883936 -0.1679977 0.004409307
0000a0 e8 97 41 bd 43 eb c3 3d f8 c3 c1 bd c0 51 43 3d
       -0.04726401 0.09566357 -0.09461206 0.047685385
0000b0 26 e6 21 3e 58 35 a9 3d c4 c8 e0 3c c3 90 4e be
       0.15810451 0.08262128 0.027439483 -0.2017241
0000c0 a8 92 6c 3e 51 29 2d 3e 23 37 3f be c7 8c 5f 3e
       0.2310282 0.16910292 -0.18673377 0.21831046
0000d0 58 d4 0a bd 4a a3 37 3e 52 8c fa bd 4c d1 d2 bb
       -0.033893913 0.17933384 -0.12233795 -0.0064336415
0000e0 db 42 fb bd 4b 46 9f 3d 83 a2 3e be 83 5e 85 3e
       -0.12268611 0.07777079 -0.18616681 0.2604867
0000f0 79 a4 6a 3e 3a bd a8 bd 3f fd 80 be a4 18 bb bd
       0.22914304 -0.08239217 -0.2519321 -0.09135559
000100 d1 6b 23 be b5 7e 04 be 06 12 4a 3e 26 d2 aa 3d
       -0.15959097 -0.1293896 0.19733438 0.08340864
000110 cd 77 4d be 28 b8 0c 3d 37 04 7c 3e 96 ce ef bd
       -0.20065232 0.034355313 0.24610983 -0.11709325
000120 92 e5 b2 3c 9c f4 2f 3d 79 6c 4a be 36 44 74 be
       0.021837983 0.042957887 -0.19767942 -0.23854145
000130 37 f8 45 bd 20 71 45 3c 68 fe 68 be 11 4c 57 3e
       -0.04833242 0.012050897 -0.22753298 0.21025111
000140 92 eb fa 3d 26 42 91 3d 1d 4e ab bd ad 9d 59 be
       0.12251963 0.07092695 -0.08364508 -0.21251555
000150 77 7c 18 3e 6a 10 38 be 82 ab 76 be c6 22 6b bd
       0.1489123 -0.17975011 -0.24088863 -0.05740621
000160 64 0b 46 bd 5a dd b4 bd 31 e9 a2 bc 36 a8 d7 bd
       -0.048350707 -0.08831282 -0.019886585 -0.105301306
000170 9a 9b ed bc 95 b4 4c 3e 03 fd c5 3d 49 39 2d 3e
       -0.02900486 0.19990762 0.09667399 0.16916384
000180 d2 2f df 3c 94 b1 64 3e 82 55 6e be 41 9e 09 be
       0.027244482 0.22333366 -0.23274806 -0.13439275
000190 60 c0 87 3d af 87 92 bb 01 a4 1e bd 25 99 54 bc
       0.066284895 -0.004471741 -0.038730625 -0.012975966
0001a0 b0 dd 2e 3e 55 e4 79 3e 42 21 e4 3d 7c d4 6b be
       0.17076755 0.24403508 0.11139156 -0.23030275
0001b0 76 35 7c 3e fb d8 25 be b9 0d a8 3c 28 c1 ea bd
       0.24629769 -0.16196053 0.020514356 -0.11462623
0001c0 e6 40 81 3d 29 59 99 3b d3 47 69 be 33 ce 17 bb
       0.063112065 0.004679818 -0.22781305 -0.0023163676
0001d0 13 39 59 3e 18 0b d0 bd 08 ad 00 3d 9a 5e 09 be
       0.21213178 -0.10158366 0.031415015 -0.13414994
0001e0 9c eb 50 3e 0b 94 93 bd 7e 64 4c 3e c6 ea 01 be
       0.20402378 -0.07205971 0.1996021 -0.12687215
0001f0 d1 c5 4e be d0 f5 c5 bd 3e 00 5c bd 22 86 c0 3a
       -0.20192648 -0.09666026 -0.05371117 0.0014688412
000200 2f 3b 41 be 7b e1 7b 3e 7b bc 27 bd 2b 26 1e 3e
       -0.18870233 0.24597733 -0.040951233 0.15444247
000210 ac 3e e7 bd 0c d1 f2 bd 25 8f bc 3d 09 16 38 3e
       -0.112912506 -0.11856279 0.0920699 0.17977156
000220 13 56 4e 3d 0a 36 00 be 47 1e 5e be 6d d8 40 be
       0.050375056 -0.12520614 -0.21691237 -0.1883256
000230 c1 ea e8 3d 79 88 06 bd db 53 1b be 68 70 5a be
       0.11372901 -0.032844994 -0.15168707 -0.21331942
000240 b0 62 43 3e 5c b6 68 3e af 45 a1 3d 73 44 9b bd
       0.19080615 0.22725815 0.07874619 -0.07581415
000250 bc b1 55 bd 0e b9 2d be 24 a9 58 be 87 1a 42 be
       -0.052171454 -0.16965124 -0.21158272 -0.18955432
000260 f6 61 5b bd 90 45 c3 3d 78 74 4a 3d c9 62 31 bd
       -0.05356022 0.09534752 0.04942748 -0.0433071
000270 50 fe 7e bb bb 7f 3f 3e 44 b8 25 3e d6 42 a0 bd
       -0.0038908906 0.18701069 0.16183573 -0.07825248
000280 82 9f 3a 3e a0 8f 0e be 56 50 33 3c bb fc 1c 3e
       0.1822491 -0.13921976 0.010944447 0.15330784
000290 a6 f2 c4 bd 13 e8 d3 bc a7 a7 43 bc 56 8f 40 3e
       -0.09616594 -0.025867498 -0.011941827 0.18804678
0002a0 57 5c 51 be c8 ef 07 be 86 84 22 be 6d 6c 87 bd
       -0.20445381 -0.13275063 -0.15870866 -0.066124775
0002b0 47 47 d6 3c 9c 4c d4 3d ec 87 6b be f2 5b 18 be
       0.026157035 0.103661746 -0.23001069 -0.14878824
0002c0 a9 62 74 3e ee 96 01 bd 0c fd 41 be 18 0a 4f 3e
       0.23865761 -0.03163808 -0.18944186 0.20218694
0002d0 ca f3 27 be a4 f6 16 be fc 0b 55 be ba ae 02 3e
       -0.16401592 -0.14742523 -0.20805353 0.12761965
0002e0 29 d7 60 bd 89 d5 3a be c2 c5 1d 3e ee e8 2c 3e
       -0.054892693 -0.1824552 0.1540747 0.1688573
0002f0 63 3d 10 be a9 8a 81 be 15 a3 93 3d 48 81 1c be
       -0.14085917 -0.25301102 0.0720884 -0.15283692
000300 54 81 63 3e 6d 57 26 be de 24 06 3e 54 7d 09 bd
       0.22217304 -0.16244288 0.13100001 -0.033566788
000310 36 f8 54 3e 4e 3c 6e 3d b8 14 3c bd dd 17 b5 bc
       0.2079781 0.05816298 -0.045918196 -0.022106105
000320 e5 3a 6d 3d 1f b1 19 3d eb 4b 93 3d 58 e8 4b 3e
       0.057917494 0.03752243 0.071922146 0.19912851
000330 fc 9d 18 be ff c8 b7 3b 5d 32 11 3e 55 93 75 3e
       -0.14904016 0.0056086774 0.14179368 0.23981984
000340 aa 88 47 3e 77 aa 61 be ed 90 22 3e a2 b1 80 3c
       0.19485727 -0.22037683 0.15875597 0.015709702
000350 0f 11 fc bd c4 81 67 be fe 82 18 3e 0b 44 e1 bc
       -0.12307941 -0.22608095 0.1489372 -0.027498266
000360 c4 2f 0d be db 4d 0a bd 14 7c 32 3e bf a6 18 3e
       -0.13787752 -0.033765655 0.17430145 0.14907359
000370 48 0a 3b be 91 c9 5b be e7 96 0b be 37 83 e2 bd
       -0.1826564 -0.2146361 -0.13631783 -0.110601835
000380 fd f2 4d be aa a9 53 3e f5 4e 23 3d 24 5b ec 3d
       -0.20112224 0.2067019 0.03987022 0.11540821
000390 7c 3b a5 3c 04 82 18 be 21 74 0b 3d 4b 9a 68 3e
       0.020169966 -0.14893347 0.034046296 0.22715108
0003a0 c0 c6 b5 bb 47 d8 9a 3d 3e fc 55 bd 21 78 ad bc
       -0.0055473745 0.07560783 -0.05224251 -0.021175446
0003b0 0e 9b 16 3e 67 f6 39 3d bb 69 5e be b0 8c 51 3e
       0.14707586 0.045401003 -0.2172002 0.20463824
0003c0 bb 3f 5a be 68 d6 26 be 8f f5 6c 3e 41 66 65 be
       -0.21313374 -0.16292727 0.23140548 -0.22402288
0003d0 00 92 1a 3e 34 94 50 be 33 b9 1e be 74 5a 69 3e
       0.15094757 -0.20369035 -0.15500335 0.22788411
0003e0 54 d0 05 3d cd 1f 0b 3e a7 4a f0 bd 9a ea 17 3d
       0.03266938 0.1358635 -0.11732989 0.037088968
0003f0 26 36 1b bd e4 2a fa 3d 3b 6e 03 be 44 10 44 be
       -0.037893437 0.12215212 -0.12835018 -0.1914683

stat_predictor.stat_mlp.0.bias f4 [16]
000000 53 f5 08 3d 29 d0 a3 bd b7 bb af 3a 94 44 72 3e
       0.033437084 -0.07998688 0.0013407384 0.23658973
000010 5e 53 b4 3d 0f c1 e9 bd c1 af ca 3d 00 25 1c 3e
       0.088049635 -0.11413776 0.09896804 0.1524849
000020 1a 37 3f 3d 62 0a 6a be 8b ba e1 3d b8 1b 50 3d
       0.04668341 -0.22855523 0.110219084 0.050807685
000030 e3 62 b5 bd d8 f5 12 3e 22 22 65 be 85 ae 03 3e
       -0.08856752 0.14351594 -0.22376302 0.12859543

stat_predictor.stat_mlp.2.weight f4 [2, 16]
000000 7e b1 94 bb 4a 78 fd bd 2e 5a 0c be 64 37 f1 bb
       -0.0045377603 -0.12376459 -0.13706276 -0.0073613394
000010 ba 19 d0 3c 8f 90 4c bd 21 37 18 be 59 18 1d 3e
       0.025402892 -0.04994255 -0.1486478 0.15341319
000020 cf f5 51 3e 75 83 70 3e 2a 06 b2 bd 03 53 99 3d
       0.20503925 0.23487647 -0.08692582 0.07486536
000030 22 50 41 be c9 f2 d3 3d d6 eb 6d 3e d6 76 74 3e
       -0.18878224 0.10349042 0.23234496 0.23873457
000040 81 ab 51 3e 5f a9 0a be c2 98 24 be 12 c8 01 be
       0.2047558 -0.13541172 -0.16073897 -0.12673977
000050 30 1b 35 3e 8a e9 f4 bd c3 9c 7f 3e e3 f4 82 bd
       0.17686152 -0.119586065 0.24962144 -0.06394365
000060 64 ac 10 3e c3 dc 3e be eb 4f 26 be 80 97 92 3d
       0.14128262 -0.18638901 -0.16241424 0.071578026
000070 90 55 80 3d 10 2b 29 3e 77 59 65 be 28 19 68 be
       0.0626632 0.16520333 -0.2239741 -0.22665846

stat_predictor.stat_mlp.2.bias f4 [2]
000000 89 f2 7e 3d f6 70 57 be
       0.06224302 -0.21039185

unet.init_conv.weight f4 [8, 1, 3]
000000 0e 5e d7 be d8 ac 03 bf d4 92 d6 bd c6 34 60 be
       -0.42063946 -0.51435614 -0.10477224 -0.21895131
000010 b2 5c aa bd c9 10 d4 bc 1c 63 f0 be 99 ae 4d 3e
       -0.083184615 -0.02588691 -0.46950614 0.20086135
000020 82 36 a8 3e fe 79 54 3e 05 d3 ed be b0 ca 0f bf
       0.32854086 0.20749661 -0.46450058 -0.5616865
000030 36 54 9f 3e 18 a5 ff 3e 5f 1d 0e 3f 68 7c c1 be
       0.31118935 0.49930644 0.55513567 -0.37790227
000040 a8 bb 71 3e e7 5e 0d bf 82 18 40 be 92 77 09 3f
       0.23606741 -0.55222934 -0.18759349 0.53698075
000050 cc 28 bc bd 2f a5 93 be 37 f8 9c be 43 ed 94 3e
       -0.09187469 -0.28836963 -0.30658123 0.29087266

unet.init_conv.bias f4 [8]
000000 d5 fc 3d 3e 96 59 bd 3d 98 25 43 3e 53 5f 05 bf
       0.18553479 0.09245603 0.1905731 -0.5209858
000010 61 6a 6f 3e 07 8c fd 3e 35 1b 8f 3e f6 0c d6 bd
       0.23380424 0.49520895 0.27950445 -0.10451691

unet.time_mlp.0.weight f4 [64, 16]
000000 46 b4 17 3e c6 72 90 bd 3c cb 7d 3e 85 e9 6e be
       0.14814863 -0.07053141 0.24784559 -0.23331268
000010 ed a6 1e be 78 1a de bb 6e f2 ef bc 91 4c 47 be
       -0.15493365 -0.0067780577 -0.029290404 -0.19462802
000020 07 b8 70 3e cd 9e f9 bd be 3c b1 3d 3b fd e6 3c
       0.23507701 -0.12188492 0.08654164 0.028196922
000030 2b 37 0a 3e 5f 9e 6c 3e b8 3d 78 bd 41 9b 25 3e
       0.13497607 0.23107289 -0.060605735 0.16172506
000040 38 ab e5 bd e0 df 41 3d d6 34 c5 3c 16 8a 34 3e
       -0.11214298 0.047332644 0.024073046 0.176308
000050 b6 19 2e be 10 ed b1 3d 91 3a 74 be d1 5b 4e be
       -0.17001995 0.08687794 -0.23850466 -0.20152213
000060 63 12 c4 bd 12 78 23 3e f8 f0 7d be 7a fd 15 3e
       -0.095738195 0.15963772 -0.24798954 0.14647475
000070 2d 0f 60 3e 85 a4 a1 3d 00 af ff bd a2 36 8a 3c
       0.21880789 0.07892708 -0.124845505 0.016871754
000080 46 8b 35 be 69 f2 11 be e9 4c 57 bd f1 ca 20 3e
       -0.1772891 -0.14252628 -0.05256358 0.15702416
000090 57 55 96 3c df a1 46 3e 6e ee 78 bb 32 37 69 3e
       0.01835124 0.19397686 -0.0037983912 0.22774962
0000a0 05 22 1d be b1 84 48 be 43 5c ef bd 84 46 20 3e
       -0.15345009 -0.19581868 -0.116875194 0.156519
0000b0 bd fc 30 be 3b 1c f2 b9 2f dd 25 be 13 9b a5 bd
       -0.17283912 -0.0004617887 -0.16197656 -0.08086219
0000c0 ed 7c b4 3d 7b 8c 7c 3e f2 a4 a4 3d b4 0f 76 3e
       0.0881289 0.24662964 0.08039273 0.24029428
0000d0 0b 74 8d 3d 10 6a 41 be ae f1 75 3d 57 ab cb bd
       0.06906899 -0.18888116 0.060044937 -0.0994479
0000e0 5c 42 a8 3d ed 2d 75 3d a4 aa 59 bd 7d 07 03 be
       0.08215782 0.05985825 -0.05314125 -0.12795825
0000f0 2a 4d 83 3e fe 49 48 3e ac 6a 37 be 95 2c 02 be
       0.2564481 0.19559476 -0.17911786 -0.12712319
000100 82 38 09 bd 93 b1 1c 3e d2 48 36 be 24 63 40 3e
       -0.033501156 0.15302114 -0.17801216 0.18787819
000110 d7 09 45 3a 4f ec 64 3e 4d 82 79 bd 23 6d 4c be
       0.000751642 0.2235577 -0.06091528 -0.19963507
000120 8f 8f 15 3e 05 f5 90 bd 86 d3 9f bd 64 d0 20 be
       0.14605545 -0.07077984 -0.07804017 -0.15704495
000130 37 5c f5 bd 20 e8 2a be ff d6 82 b9 aa 5c 02 3e
       -0.11980479 -0.16690111 -0.00024955717 0.12730661
000140 ed 5b 7c be 61 8f 23 bc 01 ec 9a bc b9 bc 79 3e
       -0.24644442 -0.009982915 -0.018911364 0.24388398
000150 3c 52 02 3e b7 db 6e be 28 2a 69 bd 91 cb e5 3c
       0.12726682 -0.23326002 -0.05692497 0.02805117
000160 b7 ab 06 3e 93 8c 45 3e 3d 50 f3 bc 61 3c 7d 3c
       0.13151442 0.19291906 -0.029701347 0.01545629
000170 6f 93 51 3e 63 bc 67 3e 4a 92 4c 3c cc f9 ca bd
       0.20466398 0.22630458 0.01248605 -0.09910926
000180 d6 03 12 3b 14 d2 d7 3d 6b 1f 82 bd af 8a d5 3d
       0.0022280118 0.10538116 -0.06353649 0.104268424
000190 b2 17 38 3e 7a 69 8d bd 69 27 29 be af 84 0b 3e
       0.17977789 -0.06904884 -0.1651894 0.13624834
0001a0 7d de 0e be 5c 50 8c bc 7c 67 3d be 81 95 6e be
       -0.1395206 -0.017128162 -0.18496507 -0.23299219
0001b0 3b 4f 47 be 86 c2 65 be cb 75 6e be c9 b7 17 3e
       -0.19463818 -0.22437486 -0.23287122 0.14816202
0001c0 4c 60 4b 3d 2e d9 0e bc 45 a4 1e 3c 74 a2 b6 bd
       0.049652383 -0.008718772 0.00968272 -0.08917704
0001d0 a3 1d 0a 3e 9a 8b 00 be 62 36 20 3e 7d 9d 36 3e
       0.13487868 -0.12553254 0.15645745 0.17833515
0001e0 8d e4 c4 bd 7d b1 50 be 67 de 7e be bf 92 ee 3d
       -0.09613905 -0.20380206 -0.24889527 0.11649083
0001f0 85 26 3a be 24 ca 19 be 66 e3 54 3e f9 21 ed bd
       -0.18178757 -0.15018517 0.2078987 -0.115787454
000200 f0 37 db 3d 94 ed 3e 3e 81 26 e6 3c 3c bd a4 bd
       0.107040286 0.18645316 0.028094532 -0.08043906
000210 e4 86 42 bd 1c de d4 bd 7f e6 38 be 2c 6f 3c 3e
       -0.047491923 -0.103939265 -0.18056677 0.18401784
000220 62 8a 11 bc ab e5 54 be 27 14 1e bc 4c 95 41 be
       -0.008883091 -0.20790736 -0.009648359 -0.18904608
000230 38 31 20 3e f2 30 09 be 1e bb c9 3d 11 2c 6b 3e
       0.15643775 -0.13397577 0.09850143 0.22966029
000240 dd 0a 1d 3e 02 24 63 bc ae 44 f5 bd e8 f4 b2 bd
       0.15336175 -0.013863565 -0.1197599 -0.087381184
000250 aa d2 85 3d 93 41 36 3e 86 15 60 3e b2 8c 83 be
       0.065343216 0.17798452 0.2188321 -0.2569328
000260 ff 3c 72 3e f7 54 6d 3e ec ec 45 bd b6 cb 85 bc
       0.2365608 0.23176943 -0.04832165 -0.016332489
000270 b6 ca b7 bc aa bf 42 be 91 c9 5f 3e 35 df e8 3d
       -0.022435527 -0.19018427 0.21854235 0.11370698
000280 05 c2 41 3e 63 5e b6 bd 86 2e 8c 3c 02 1a 03 bd
       0.18921669 -0.089047216 0.017112028 -0.032007225
000290 94 2e 99 bd ea ae 4b 3e 40 8e 83 be 07 39 a9 bd
       -0.07479587 0.19890943 -0.25694466 -0.0826283
0002a0 7c 1d df bd 0b c2 45 be b6 2d f6 3d c4 fa ec bd
       -0.108942956 -0.19312303 0.120204374 -0.11571267
0002b0 84 61 a8 3c 26 da 1f 3e d9 6f 3a 3e ff cf 46 bd
       0.020554312 0.15610561 0.18206729 -0.048538204
0002c0 44 9d 0a be 74 71 eb bd 44 f4 0a 3c e3 4b 16 3e
       -0.13536555 -0.11496249 0.008481089 0.14677386
0002d0 aa a7 15 3d 0a 05 1f be bc e6 85 bd 16 30 3d 3e
       0.03653685 -0.15529266 -0.0653815 0.18475375
0002e0 4d 09 b5 3d 5e 14 fa 3d 0e f3 40 3e 05 0c 06 3e
       0.088396646 0.12210916 0.18842718 0.13090523
0002f0 38 2c 6a be e1 1a d3 3d 04 3e ee bd 28 c0 1e bd
       -0.2286843 0.10307861 -0.11632922 -0.038757473
000300 bc 1e 77 be 45 1a 29 3e fe 66 2a be 49 df 84 bd
       -0.24132818 0.16513927 -0.16640851 -0.06487901
000310 a7 b8 29 be 01 1d 61 be f7 49 48 ba 3d 7f 98 3d
       -0.16574346 -0.2198372 -0.0007640416 0.07446144
000320 84 7a 40 be e0 34 62 be ad fe 78 be 3d e8 0b be
       -0.18796736 -0.22090483 -0.24315901 -0.1366281
000330 86 c4 f4 3a 80 e9 f5 3c ca bf 56 3e a5 e5 1e be
       0.0018674291 0.030018568 0.20971599 -0.1551729
000340 20 9d 04 3e fc 4f 09 be f7 ad 72 3e e5 e5 77 3d
       0.12950563 -0.13409418 0.23699175 0.06052198
000350 e5 80 76 3e 26 7a a0 bd 4b 94 c1 3c ab c2 6c 3e
       0.24072607 -0.07835798 0.023630282 0.23121135
000360 34 cd 86 3d 5f 30 08 be 42 bb 1a bd ff a9 70 3c
       0.06582108 -0.13299702 -0.03777624 0.014688968
000370 78 f5 7c 3e c3 f6 47 3e f6 30 a6 bd f4 55 de 3d
       0.24703014 0.19527726 -0.08114807 0.10856238
000380 02 5a d2 3d 65 c6 92 bc 1e ff bb 3d d0 f3 10 be
       0.10271074 -0.017916868 0.09179519 -0.14155507
000390 39 cb 0f be 28 6c 40 3c 88 06 e8 bd 45 b8 9e bc
       -0.14042367 0.011744536 -0.11329371 -0.019374976
0003a0 2e d8 4a be 89 5e 36 be 90 f3 eb bd 16 4a 06 be
       -0.19809029 -0.178095 -0.11521065 -0.13114199
0003b0 84 57 a4 3d a3 fa 90 bd b7 46 a3 3d c6 8b aa 3d
       0.08024505 -0.07079055 0.07972472 0.08327441
0003c0 b7 7a df bc f7 39 16 3e 8b ed eb 3c e6 32 a9 3d
       -0.027280195 0.1467055 0.028799793 0.08261661
0003d0 24 4b c0 3d c2 37 02 3c d8 21 42 3d 57 f3 38 3e
       0.09389332 0.007947864 0.047395557 0.18061577
0003e0 45 08 20 be bf 79 56 bc d9 bf 05 3e ff 7c b2 3b
       -0.15628155 -0.01309055 0.13061465 0.0054470296
0003f0 ee dd d6 3d 5f cb 87 bd 56 04 53 be e8 d7 ba 3d
       0.104915485 -0.06630587 -0.20607123 0.09123212

unet.time_mlp.0.bias f4 [64]
000000 69 ff 2f 3e 9f 73 d9 bc e2 0e e2 3d 7b 22 2f bd
       0.17187275 -0.02654439 0.11037995 -0.042757493
000010 52 47 3e be 74 63 a7 3d a0 b9 ce 3d c0 01 bf 3c
       -0.18581894 0.08173266 0.10093999 0.023316264
000020 65 64 12 be 3b 52 95 bc 77 d4 0d 3e d4 75 92 3d
       -0.1429611 -0.018227687 0.1385058 0.0715138
000030 69 7e 12 be 09 54 75 3e 51 f0 5e 3d 5d f1 23 bd
       -0.14306034 0.23957838 0.054428402 -0.040025104
000040 ba 83 33 bc 6d f0 5c 3e 4f 4d 78 3d da 3d 77 3c
       -0.010956699 0.2157609 0.060620602 0.01509043
000050 82 49 12 be f6 88 40 be 9c 36 13 be f4 8e cb bd
       -0.14285854 -0.18802246 -0.143763 -0.099393755
000060 93 78 d1 3c 37 c7 5a be 97 93 7a 3e 2c 55 ab 3d
       0.02557019 -0.21365057 0.24470364 0.083658546
000070 00 a1 d7 3d 74 dd 6b bd be 04 50 bd 3b 5f 98 3c
       0.10528755 -0.05758424 -0.050785773 0.018600097
000080 cf 5c 50 3e 37 21 28 3e 6f 90 46 3e e6 02 42 bd
       0.20347904 0.1641892 0.19391035 -0.047366045
000090 0e 65 14 be 10 93 cf 3d 59 16 39 be 8d a5 52 3e
       -0.14491674 0.10135472 -0.18074931 0.20570965
0000a0 62 ef 17 be 1d a3 5e be 49 45 ad 3d f6 71 83 3e
       -0.14837411 -0.2174191 0.08460481 0.25672883
0000b0 0c 27 f5 bd 18 56 01 be a0 0a 62 be 14 7c 64 bb
       -0.11970338 -0.12630498 -0.22074366 -0.0034863995
0000c0 3f d7 04 be 88 28 ce bd b4 57 2a be 74 53 14 bd
       -0.12972735 -0.100663245 -0.16635019 -0.0362124
0000d0 5b 0d c0 3d a9 40 08 3c 0b 58 e4 3c 85 7f 67 bb
       0.09377547 0.008316197 0.027874013 -0.003532381
0000e0 a0 07 54 be 53 64 67 be 81 d8 e7 bd 9a d8 6d 3e
       -0.20706034 -0.22596864 -0.11320592 0.23227158
0000f0 8a 8b 9f 3d a5 71 9b bd 73 09 b6 3c f6 b6 43 bd
       0.07790287 -0.07590035 0.022221303 -0.047781907

unet.time_mlp.2.weight f4 [16, 64]
000000 26 40 47 3d 7e 06 89 3d 60 d8 99 3d e5 22 ac bc
       0.04864516 0.066906914 0.075119734 -0.021012733
000010 4e a0 e2 3d 43 11 01 3e 3b 0a 8d bd 2d 45 85 bb
       0.11065732 0.12604241 -0.06886717 -0.0040670843
000020 de 61 11 bd ce c6 d8 bd 5b 01 d5 bc cc f6 98 3d
       -0.035493724 -0.10584794 -0.026001623 0.07468948
000030 00 18 bc 3d 93 7e b7 3d c1 dd 6b 3d c6 98 9f bd
       0.09184265 0.08959689 0.057584528 -0.07792811
000040 a2 74 69 3d 52 e0 d8 3d f7 e8 8d bd f8 87 9b 3d
       0.056995995 0.10589661 -0.069292 0.07594293
000050 56 98 09 bd 0a 31 52 bd 79 8d 0e 3d a3 10 b5 bd
       -0.033592544 -0.0513163 0.034802888 -0.08841064
000060 43 57 6a bd 9a 88 af 3d 07 f4 92 bd 28 c3 c6 3d
       -0.057212126 0.085709766 -0.07175451 0.09705192
000070 41 0e ec 3d 62 b9 e0 bd 3e c3 61 3c 52 40 7e bd
       0.11526156 -0.10972859 0.0137794595 -0.06207306
000080 d3 92 f3 bc 25 72 4c 3d f6 b5 0a bd d7 b4 9e bb
       -0.029733097 0.049913544 -0.033864938 -0.004843335
000090 82 51 ed bd 5a 59 d7 bd 38 d3 6e bc 40 53 45 3a
       -0.11587812 -0.10515089 -0.014576726 0.0007527359
0000a0 8c 2e 23 3d 71 09 5e 3d c9 71 09 3e 34 17 61 bc
       0.039839312 0.054208223 0.13422312 -0.013738442
0000b0 77 3d 86 bd 2e a4 0f 3d 5f 93 a1 bd 0a 8b b1 bd
       -0.06554692 0.035068683 -0.07889437 -0.08669098
0000c0 98 18 a9 3d ae 6d 74 bd 09 57 56 3c 9a d1 7e bc
       0.08256644 -0.05967491 0.013082274 -0.015552903
0000d0 9b 20 06 3d 21 e6 bc bd 4e 18 00 3d 2f e6 08 3d
       0.03274594 -0.09223581 0.03127318 0.033422645
0000e0 12 88 4e bd c7 61 8e bd f9 a8 25 bd 36 d3 12 3d
       -0.050422736 -0.06952243 -0.040444348 0.035845958
0000f0 a3 b4 72 bc 67 c9 cc bc df 13 29 bd 1b 73 97 3d
       -0.014813575 -0.02499838 -0.041278716 0.073950015
000100 91 e4 59 3d 9a 95 a9 3c 2e 07 34 3d 65 16 8d bd
       0.053196494 0.020701218 0.04395216 -0.06889037
000110 d6 8a 12 3d 94 ff 9b bd 24 fb 6e 3b 04 2b de 3d
       0.035776936 -0.07617107 0.003646561 0.10848048
000120 c1 3a b5 3d 6e f9 1a 3c 79 2c c6 3c da cd c1 3d
       0.08849097 0.009458883 0.024191128 0.09463091
000130 78 8b 59 bc 0a 92 9d bd e3 09 4f bd 2a 98 fa bd
       -0.013277881 -0.0769387 -0.050546538 -0.12236054
000140 fa 61 f2 3d 73 c3 90 bd d0 74 ad 3d 51 a7 46 3d
       0.11835094 -0.07068529 0.08469546 0.04849941
000150 ca f3 ee bc a1 e3 f2 3d a4 76 83 3d 9c fd ab 3d
       -0.029168982 0.11859823 0.06419113 0.083979815
000160 12 c5 61 3d ee ef 76 bd e0 81 70 bd 0e cc ea ba
       0.05511958 -0.06028741 -0.05871761 -0.0017913596
000170 7e 4a c4 bd 01 c3 b0 3d a4 aa 97 3d 6f 55 b4 bd
       -0.09584521 0.08630944 0.07405594 -0.08805358
000180 80 1b ab 3d 37 ad 1b 3d d7 81 02 bd 17 31 ec bd
       0.083548546 0.038006987 -0.031862106 -0.11532801
000190 53 82 b4 3d 30 1b 88 3c b1 2e 26 3b 3b a5 9f 3d
       0.0881392 0.016614527 0.002535742 0.07795187
0001a0 dc 1a c5 bd 3a ad fe 3d 1b 0a d5 bc a8 9a b6 bd
       -0.09624264 0.12435384 -0.026005795 -0.08916217
0001b0 95 91 cb 3c ae d8 8b bd 4c 72 26 bc c4 3a 7e bc
       0.024849692 -0.06828438 -0.010159086 -0.0155169405
0001c0 5e 71 db bd c3 a1 d7 bc f7 01 41 3d 5b 7f c4 3d
       -0.107149825 -0.026322251 0.047121014 0.09594604
0001d0 16 84 e0 3d 02 52 c8 3d 2b af ac bc 43 c2 76 bd
       0.109626934 0.09781267 -0.02107962 -0.060243856
0001e0 3d 3d 20 3d c4 ef ba 3d 2b 23 b0 3d a1 da 30 3d
       0.0391209 0.09127763 0.08600458 0.04317725
0001f0 44 b7 42 3d 86 b4 e6 3c 56 93 3c bd 21 f2 07 bd
       0.047538057 0.028162252 -0.046038948 -0.033189896
000200 04 c8 d4 3d 01 8a 52 3d a4 d2 86 bd 33 ea a1 3d
       0.103897125 0.051401142 -0.06583145 0.07905998
000210 9a 03 2c bd 62 88 70 bc f3 3d e7 bd 3d 7c 91 3d
       -0.041995622 -0.014680954 -0.11291113 0.07103775
000220 1f b5 a5 3c 66 01 59 bd 20 87 d4 bd c6 20 65 bd
       0.020227967 -0.05297985 -0.103773355 -0.05593946
000230 77 df c0 bd 59 99 dc bc 53 3d 14 bd 09 ab bc bd
       -0.094176225 -0.02692859 -0.036191296 -0.0921231
000240 63 e3 95 bd c6 f5 db bd 55 c2 ba bc a9 4e d1 bc
       -0.07318761 -0.10740237 -0.022797743 -0.025550203
000250 05 71 9d bd 17 51 92 3c 30 45 fc 3d 31 78 f5 bd
       -0.076875724 0.017860932 0.12317884 -0.11985815
000260 47 c3 22 3d 00 ea c9 bc 9c 8f da ba 47 2e 93 bb
       0.039737012 -0.024647713 -0.0016674879 -0.0044916007
000270 8d 36 eb 3d 3a 6c c4 3d 9a e0 ba 3d 32 bb 90 bd
       0.11485014 0.09590955 0.091248706 -0.07066955
000280 79 98 ba bc 9e c2 d7 bd 5d a7 d8 3d 3f 9a bb bd
       -0.022777783 -0.10535167 0.10578797 -0.091602795
000290 47 62 95 bc cd fc ad bd 6b e8 b6 bd 24 67 be 3c
       -0.018235339 -0.084954835 -0.08931049 0.02324254
0002a0 92 4f ba bd e8 cd 7b 3d 36 c7 d6 3d 93 7d a9 3d
       -0.09097208 0.061475664 0.10487215 0.082759045
0002b0 88 c9 98 bd 23 d2 99 3d 8e 47 e2 3d 98 44 f8 bb
       -0.07460314 0.075107835 0.11048804 -0.0075765364
0002c0 f5 de de bc f9 a5 df bd 0d 85 98 bd 66 50 f5 3d
       -0.027205924 -0.10920329 -0.074472524 0.119782254
0002d0 8b ae e2 bc 16 91 f8 3d f5 61 08 bd 18 73 fa 3d
       -0.02767112 0.12137048 -0.033296544 0.12228984
0002e0 8f cf 0a bc 7f 10 f1 3c 64 27 8c bd c6 93 7d 3c
       -0.008472337 0.029426811 -0.06843451 0.015477126
0002f0 5f 6c ea 3d 58 6f 35 3d 45 06 e0 3c b3 5b ca 3d
       0.114464514 0.04429564 0.02734674 0.098807715
000300 f1 75 a0 bc a7 c7 1e 3d 4d d7 2d bd cf 8c ac 3b
       -0.019587489 0.038764622 -0.042441655 0.005265809
000310 c4 8e b2 bd 3a ba c3 3d 95 e8 f6 bd 64 05 fe bd
       -0.08718637 0.09557004 -0.1205608 -0.12403372
000320 da 70 63 bd 69 da 6d 3d 5b 15 d7 bd fc 41 93 bc
       -0.055527546 0.05806962 -0.1050212 -0.0179758
000330 12 34 ec bd ab 7b 8a bd 01 f7 f9 bb 1a f9 22 bd
       -0.11533369 -0.06761869 -0.007628322 -0.039788343
000340 87 b7 95 bd 94 36 c9 3d 7c 48 ca 3d da 11 5a bd
       -0.07310396 0.09824863 0.098771065 -0.05323968
000350 39 25 d5 bd e0 51 47 bd 6e d9 84 3d a4 64 9a bb
       -0.1040749 -0.048662066 0.06486784 -0.0047117043
000360 a7 8c ff bd a9 fa 08 3c 6b 54 05 3e 6e 8f c2 3d
       -0.12477999 0.008360543 0.13020484 0.09500013
000370 29 59 10 bb 12 ce 08 bd 60 68 c4 3c da 55 80 3d
       -0.00220258 -0.03339965 0.023975551 0.06266375
000380 62 fe 17 bd 23 63 9e bc 89 7c a9 bd 27 fd c0 bd
       -0.037107833 -0.019334381 -0.08275706 -0.09423285
000390 8a e6 32 bd 24 57 ec bd d6 7e 6a bd 6e 7f 1d 3d
       -0.04367689 -0.11540058 -0.057249866 0.038451605
0003a0 e2 4a e9 bc 63 83 a6 bd 64 b8 01 3d 4f b1 5a 3d
       -0.02847809 -0.08130529 0.03166999 0.05339175
0003b0 5c 39 94 bd e2 a2 46 bd 7c ed a5 bd 98 c3 4d bd
       -0.07237503 -0.04849518 -0.08101937 -0.05023536
0003c0 7a 04 89 bc b6 f4 cc bd 80 1b e7 bd b6 81 f8 bd
       -0.016725767 -0.100076124 -0.11284542 -0.121341154
0003d0 ea ae 88 bd 0e bb 33 bc 2f 3a 9b 3c 60 a9 be 3d
       -0.06673987 -0.01096989 0.018948643 0.093096495
0003e0 73 74 68 3c ff 48 da 3d 44 81 73 bc 88 21 ba 3d
       0.01418792 0.10658454 -0.014862362 0.09088427
0003f0 4e b7 8c bd 3e 6c 89 3d 98 6b b8 bd 55 f8 98 bd
       -0.068709 0.06710099 -0.09004897 -0.074692406

unet.time_mlp.2.bias f4 [16]
000000 92 a0 6d bd 44 31 47 bd 7f 86 80 3d 46 4e 7b 3d
       -0.05801446 -0.048630968 0.06275653 0.061353944
000010 ff 7a 03 3d 94 b6 3d bd 54 a8 c1 bc 56 54 bf bb
       0.03209972 -0.0463167 -0.023639835 -0.005838911
000020 a7 db 02 be 48 3a 82 3d b2 04 8d ba 73 c2 d0 3d
       -0.12779103 0.063587725 -0.0010758846 0.10193338
000030 f5 70 ff 3d 8f 6f 7a bd 42 2d 6e 3d 89 66 b1 3d
       0.12472717 -0.061141547 0.05814863 0.08662135
