src/logs_example/run_20250718_181804_ws10_fd1_ed16_bc8_rb1_nt50_s0.008_sw0.1_lr0.001_bs32_2f9be3a3/model_run_20250718_181804_ws10_fd1_ed16_bc8_rb1_nt50_s0.008_sw0.1_lr0.001_bs32_2f9be3a3.pt (torch, 35459 bytes, 32 tensors)

betas f4 [50]
00000000: 000c e53a 00c3 713b 809b b83b 0092 f83b
00000010: 0073 1c3c 40db 3c3c c094 5d3c 80ae 7e3c
00000020: 401e 903c 8029 a13c 8082 b23c 8034 c43c
00000030: 604b d63c 40d4 e83c e0db fb3c 10b9 073d
00000040: a0d3 113d e046 1c3d b01c 273d b060 323d
00000050: 101f 3e3d 5066 4a3d 3046 573d 80d1 643d
00000060: c01c 733d 4820 813d 402c 893d 90c2 913d
00000070: b0f6 9a3d 08df a43d 8896 af3d 183e bb3d
00000080: d8fc c73d 1003 d63d 008d e53d 30e6 f63d
00000090: 0437 053e 8050 103e 5011 1d3e 5ce7 2b3e
000000a0: 3869 3d3e 306d 523e 282b 6c3e f83e 863e
000000b0: 502c 9b3e e85c b73e 8c58 df3e a709 0e3f
000000c0: 29f0 3f3f 77be 7f3f
0.001747489 0.003688991 0.0056337714 0.007585764 0.0095489025 0.011526883 0.013524234 0.015544534
0.01759255 0.019673109 0.021790743 0.023950815 0.026158988 0.028421521 0.030744493 0.033135474
0.035602212 0.03815353 0.040798843 0.04354924 0.046416342 0.04941398 0.05255717 0.055863857
0.05935359 0.06304985 0.06697893 0.07117188 0.07566583 0.08050352 0.085736334 0.09142703
0.09765023 0.10449803 0.11208534 0.120556235 0.13009268 0.14093208 0.15338635 0.16787475
0.18497169 0.20549464 0.23063338 0.26219916 0.30307245 0.3581307 0.43622243 0.5548348
0.7497583 0.999

alphas f4 [50]
00000000: 7a8d 7f3f 3d0e 7f3f c98e 7e3f dc0e 7e3f
00000010: 348e 7d3f 930c 7d3f ad89 7c3f 4605 7c3f
00000020: 0e7f 7b3f b4f6 7a3f ec6b 7a3f 5cde 793f
00000030: a54d 793f 5eb9 783f 2121 783f 6f84 773f
00000040: c6e2 763f 923b 763f 358e 753f f5d9 743f
00000050: 0f1e 743f 9b59 733f 9d8b 723f e8b2 713f
00000060: 34ce 703f f7db 6f3f 78da 6e3f aec7 6d3f
00000070: 2aa1 6c3f 1f64 6b3f 2f0d 6a3f 3d98 683f
00000080: 6500 673f 9e3f 653f 604e 633f 3a23 613f
00000090: 3fb2 5e3f e0eb 5b3f acbb 583f 2906 553f
000000a0: b2a5 503f b464 4b3f 36f5 443f 84e0 3c3f
000000b0: d869 323f 8c51 243f ba53 103f b2ec e33e
000000c0: ae1f 803e 0012 833a
0.9982525 0.996311 0.9943662 0.99241424 0.9904511 0.9884731 0.98647577 0.98445547
0.98240745 0.9803269 0.97820926 0.9760492 0.973841 0.9715785 0.9692555 0.9668645
0.9643978 0.9618465 0.95920116 0.95645076 0.95358366 0.950586 0.9474428 0.94413614
0.9406464 0.93695015 0.93302107 0.9288281 0.92433417 0.9194965 0.91426367 0.908573
0.90234977 0.895502 0.88791466 0.87944376 0.8699073 0.8590679 0.84661365 0.83212525
0.8150283 0.79450536 0.7693666 0.73780084 0.69692755 0.6418693 0.56377757 0.44516522
0.2502417 0.0009999871

alpha_bars f4 [50]
00000000: 7a8d 7f3f 239c 7e3f ed2c 7d3f 4641 7b3f
00000010: 13db 783f bbfc 753f 13a9 723f 6ee3 6e3f
00000020: 8daf 6a3f 9911 663f 2d0e 613f 45aa 5b3f
00000030: 3deb 553f c8d6 4f3f f872 493f 24c6 423f
00000040: f0d6 3b3f 40ac 343f 364d 2d3f 24c1 253f
00000050: 8d0f 1e3f 1640 163f 855a 0e3f b366 063f
00000060: 14d9 fc3e ece7 ec3e ca09 dd3e 794e cd3e
00000070: 97c5 bd3e 9a7e ae3e b588 9f3e c3f2 903e
00000080: 47cb 823e af40 6a3e 13ff 4f3e cfeb 363e
00000090: da1f 1f3e ddb2 083e 4276 e73d f79a c03d
000000a0: 92fa 9c3d e570 793d 5de9 3f3d af97 0d3d
000000b0: 055c c53c a35b 7d3c 68d6 0e3c 5f58 7e3b
000000c0: 5297 7e3a 5659 8235
0.9982525 0.99456996 0.98896676 0.98146474 0.9720928 0.9608876 0.94789237 0.9331578
0.9167412 0.898706 0.87912256 0.85806686 0.8356207 0.81187105 0.78691053 0.7608359
0.73374844 0.7057533 0.6769594 0.64747834 0.6174248 0.5869154 0.5560687 0.52500457
0.49384367 0.46270692 0.4317153 0.40098932 0.37064812 0.34080964 0.31158987 0.28310212
0.25545713 0.22876237 0.20312147 0.17863391 0.15539494 0.13349481 0.11301853 0.09404557
0.0766498 0.06089868 0.046853412 0.034568485 0.02409173 0.015463742 0.008718111 0.0038809997
0.00097118795 9.711755e-07

stat_predictor.cond_mlp.0.weight f4 [16, 32]
00000000: 5c93 1cbe 16d8 253e d514 a73d e5b5 d43d
00000010: b358 f23d b562 083e 0ecf ca3b 07f4 65bd
00000020: a531 a53d f52c 20bd 8d6e c73d 49f7 0ebe
00000030: 5d6f 84bc 4e7e 08be f2d6 8b3d adf7 03be
00000040: 8e35 0bbc 8520 06be 90b7 b83d 06b0 09bc
00000050: 550e 01be 30fe 1a3e bc2c 013d 1c21 9dbd
00000060: 74a9 a3bd 5ba3 02be f46f 263e 18ed 7cbd
00000070: 4f8d 823b 38cb 1bbe 9815 f2bb 6675 bfbd
00000080: 0a9f 943d 8f2e d53c 31a3 be3d d973 14be
00000090: 8bac 21bd 97ec 0abe b47d e53c 2d8b fdbd
000000a0: c954 2ebe 1e4b 4ebd 352b 1f3e 1fcd cd3b
000000b0: 535d 69bd 2870 30be d556 27be 74ec 663d
000000c0: 2b0f 203e 7118 c03d cfa4 94bd 9170 313e
000000d0: 949c f2bd 0239 2f3e 2c7e 1b3e 5b4b 113e
000000e0: 1f0f 053e 5a21 523d 2c90 98bd 37d5 cdbd
000000f0: d3f2 693c 01dc 123d 37c5 fe3d bec9 2bbe
00000100: 3465 11be d59e 9ebd 48f2 75bd b831 23bc
00000110: 1260 8dbd 3166 15be dac1 923b 6083 94bb
00000120: 7085 bd3d 3cfb 093e b863 073e be6a 22bd
00000130: 804e 18be 9d94 06be 3c78 a2bd 3cc2 0c3e
00000140: 6875 9bbd 1f5f bd3d c447 163e 8332 213e
00000150: cc89 463d 7329 0cbd dc74 70bd 6a10 a43d
00000160: 298f e1bd 4996 1ebe 475c a83d 5a86 0abe
00000170: 0dff 0dbe 29f9 f03d 6edc 1cbe 6a98 cdbd
00000180: 68b1 ef3d ec2c 73bd 9cdf cf3d 072c ca3d
00000190: 0596 c9bd c7a5 4cbc 06d5 0b3e 8322 c53d
000001a0: 5f76 0b3d b666 093e 052f e2bc 45b4 03be
000001b0: e275 ab3d c057 8839 02e6 003e 4f0c d2bd
000001c0: fd26 e13d f6da c83d 53dc 6b3b 2bf9 d9bd
000001d0: d086 1e3e ac2c 21be 3ba0 9bbb b800 08be
000001e0: 5393 d93d e895 44bd 02bf 203e 0c3c 0abe
000001f0: 8755 f63c 7e5e a3bd 1d02 293e b160 07bd
00000200: 6181 8ebd 572d abbd 4b2f 143d aa0d d0bd
00000210: a5af 2f3d 7bde 28be 3c01 27be 3e6d bfbd
00000220: a089 213e d008 a8bd 96c5 15be 655a 80bc
00000230: fe92 273e fa8d f3bd 04ae 68bd 6be8 12be
00000240: 0816 ccbc d309 4cbd 186e 343d b6c2 dcbd
00000250: d354 7c3d 933c 133d 4fb3 523d 4098 26be
00000260: 13de 87bb 3203 153b 3683 3ebd d020 cdbd
00000270: 5d5f 1fbe 1db9 01be b117 1c3d e53f 713d
00000280: 34f0 f2bc a628 173e b27a 64bd 9ee9 84bd
00000290: 3990 833d c8ef f9bd 3f29 38bd 594a 983d
000002a0: 72ec 163e 5251 6e3d 17af dbbd f0e5 e4bd
000002b0: e5a4 9c3c 7f61 fb3d 1d64 ff3d 4bb3 273e
000002c0: e5bc ecbc 4343 033d 0150 1b3e 9676 153e
000002d0: 689e 693d 2616 ef3c 0033 20be e36d 9c3d
000002e0: e7f2 c23d 955b 9abd adb6 933c 70ad 16be
000002f0: 46ce cfbd b789 c5bd dd48 6e3d 69d6 893c
00000300: f822 77bd 3cff 0d3e 56e2 b1bd c3ef adbc
00000310: 7d8c 9a3d 7451 67bd 284a 9ebd 3def acbc
00000320: fd55 cebc f5e4 28be 9746 adbd b42d 113e
00000330: 2a4c e23d 72f6 cb3d b68e bfbc d606 e2bd
00000340: f780 a9bc 0a8a 08bd e6bd 73bd 3dc6 eb3d
00000350: 9bb4 12be d23e ff3d 25f5 6d3c 1764 143e
00000360: 6dcd dcbc fc35 16be 6372 2e3e c74d 103e
00000370: 949e febc 0901 983d c6e8 49bd 6a9a 21be
00000380: b13c 60bc c52d 50bd 22a1 a83d 1652 c43d
00000390: 9cb8 3dbd 5a58 dbbc 25f9 77bd 0678 b03d
000003a0: 3410 693d 6605 c1bd b96d b33d be6c 053e
000003b0: 6e4a edbc 578a 123e 57f3 34be 2a41 a73b
000003c0: 231b 06bc 807f 993d 4ac3 803d f3ba 0fbe
000003d0: 3965 de3c 5a4d 253e 4833 a9bd 01be e9bd
000003e0: 31d7 a03c 052e 13be dbdd 57bd 0328 b33c
000003f0: 4715 d7bd f2a8 72bb 240b 283d fc78 423d
-0.15290588 0.16195711 0.0815827 0.10386256 0.11833324 0.13318904 0.0061892336 -0.056140926
0.080661096 -0.039105374 0.09737883 -0.1396152 -0.016166383 -0.13329431 0.06828107 -0.1288745
-0.008496655 -0.13098343 0.09019387 -0.008403784 -0.12603123 0.15136027 0.031536803 -0.07672331
-0.07991305 -0.12757628 0.16253644 -0.061749548 0.0039841305 -0.1521424 -0.007387828 -0.09348564
0.07256897 0.026023177 0.0930847 -0.14497317 -0.03947119 -0.13566814 0.028014041 -0.12380061
-0.1702453 -0.050364606 0.15543826 0.006280556 -0.056973767 -0.17230284 -0.16341718 0.056377843
0.15630786 0.09379662 -0.07257997 0.17328097 -0.11846271 0.1711159 0.1518485 0.14188902
0.1299405 0.051301338 -0.074493736 -0.10050433 0.014279085 0.035854343 0.124399595 -0.16776177
-0.14198762 -0.077451386 -0.06004551 -0.009960584 -0.069030896 -0.14589764 0.0044786753 -0.0045322627
0.09253967 0.13474745 0.13221633 -0.03965258 -0.14873695 -0.13142629 -0.07933089 0.1374597
-0.07590753 0.092466585 0.14675814 0.15741925 0.048471257 -0.034219217 -0.058705196 0.08010943
-0.11013634 -0.15487017 0.082207255 -0.13527814 -0.13866825 0.117662735 -0.15318462 -0.10038836
0.117037594 -0.059369013 0.10150072 0.09871679 -0.09843067 -0.012490696 0.1365548 0.09625723
0.034048434 0.13418087 -0.027610311 -0.12861736 0.08372094 0.0002600532 0.12587741 -0.10256254
0.109937645 0.098073885 0.0035989478 -0.10643228 0.15481114 -0.15739697 -0.0047493256 -0.13281524
0.10623803 -0.047994524 0.15697864 -0.13499469 0.03007008 -0.07977007 0.16504712 -0.033051196
-0.06958271 -0.08358257 0.036177915 -0.10158856 0.042892117 -0.1649112 -0.16309065 -0.09347008
0.15775156 -0.08204806 -0.14626154 -0.015668103 0.16364667 -0.11892314 -0.05680658 -0.14346473
-0.024912849 -0.049814057 0.044050306 -0.10779326 0.061604332 0.03594644 0.051440533 -0.16269016
-0.0041463464 0.00227375 -0.04651185 -0.10016024 -0.15563722 -0.12668271 0.03810853 0.058898825
-0.029655553 0.147616 -0.055781074 -0.064898714 0.06423993 -0.12203938 -0.04496121 0.07436056
0.14738634 0.05818302 -0.10726755 -0.111766696 0.019121597 0.12274455 0.12470267 0.16376989
-0.028898666 0.032046568 0.15167238 0.14596018 0.057035834 0.029185366 -0.15644455 0.07638147
0.09518986 -0.07536999 0.018031443 -0.14714599 -0.101467654 -0.09645408 0.058174957 0.016825872
-0.060336083 0.13866895 -0.08685748 -0.021232491 0.07546327 -0.056474164 -0.07728988 -0.021110171
-0.025187487 -0.1649359 -0.084607296 0.1417759 0.110496834 0.09959115 -0.02338348 -0.1103646
-0.020691378 -0.03333477 -0.059507273 0.1151242 -0.14326708 0.12463154 0.014523779 0.14491306
-0.026953423 -0.14669031 0.17035823 0.1409217 -0.031081475 0.074220724 -0.049294256 -0.1578156
-0.013686345 -0.0508249 0.08233859 0.09585969 -0.046318635 -0.026775528 -0.060540337 0.08616643
0.056900218 -0.09424858 0.08761162 0.13029763 -0.028966155 0.14310585 -0.17670952 0.0051042037
-0.008185181 0.07495022 0.062872484 -0.14036159 0.027147876 0.16142789 -0.08261734 -0.114131935
0.019633861 -0.14373024 -0.052701812 0.021869665 -0.10502105 -0.0037026969 0.04102625 0.04747866

stat_predictor.cond_mlp.0.bias f4 [16]
00000000: b181 473d cc26 31be 03d7 f6bb 77e8 22be
00000010: 3b0a 20be a9a1 7ebd 5a46 2fbd a04f 05be
00000020: cc87 e4bd 8e51 013e 4f9a ef3d 38e5 693c
00000030: a861 b4bd 2d75 1b3e cd98 c43d dfd1 293e
0.048707668 -0.17299956 -0.0075329556 -0.15908991 -0.15628903 -0.06216589 -0.0427917 -0.13018656
-0.11158714 0.12628767 0.11699354 0.014275841 -0.08807689 0.15181418 0.09599457 0.16583966

stat_predictor.cond_mlp.2.weight f4 [16, 16]
00000000: f586 09be 38c0 20be 1a95 b43d e3e5 a43d
00000010: 4020 60be 486f 21be 5d1b 2cbe 5c9d b43d
00000020: 55bf 7ebd 1977 a9bd 0a40 8dbd 7ff5 1a3d
00000030: d261 febd cb6a 143d 133f 10be 2c34 91bc
00000040: 6c23 c93d 57f7 6fbe 3204 323e 63f2 0d3e
00000050: 1786 0f3e 14d6 e33d d3ee bd3c d30c 2cbe
00000060: e24c 53bc e253 963d 5d87 64bd c3ed e63d
00000070: 7b80 2b3d 0ceb 583e 0aa9 a13d f997 743e
00000080: b170 7bbe c617 4dbe cd20 fcbd c8ae 283d
00000090: d43b d0bc cf03 6f3d aa46 913d cdc7 24be
000000a0: da2e 673e 984d 903d 468b 623d 3a8b 1a3e
000000b0: c6d1 043e b30a 48be f02f 76bc 8839 353e
000000c0: 96f7 283e de98 58bd 4859 953c 3888 963c
000000d0: 15f8 ef3d 3c8e 89bc 2969 fa3d a745 b8bd
000000e0: 28dc fabc 2aba 373e 0396 51be 84d0 39be
000000f0: 4f52 7cbe cbbd 4d3d 1eaf e53b a172 70be
00000100: 6ab6 063e 6427 313d 6069 95bd 0151 c13c
00000110: 6bf6 4ebe ee40 383e cc05 583e dac4 23be
00000120: 4752 33be 9804 bbbc f207 96bd 7880 193d
00000130: eec7 aebc e10b 0cbe 45ad 123d 6c84 6b3e
00000140: 55f7 cf3d 1dc2 003e b358 34be d0cb 403c
00000150: 3727 5f3e 1bbd 053e 222c 1e3e e4f9 f53d
00000160: e8e4 633e cf23 07bc 00c1 97bd 1ca5 f53d
00000170: b29e 813b d1f6 293e 5c8c fb3c fccf 3a3e
00000180: be25 4a3e 0d12 9d3c d97e aa3d 621f 603e
00000190: 3751 dd3c c65a fd3d bb5b 303e 7aa2 0c3e
000001a0: 35dd d83d 17e8 4b3e f228 57be 79bb 44bd
000001b0: 8022 1a3e 0872 413e 9118 c63c 2722 2ebe
000001c0: 7996 e6bd b42d ca3d 46f9 f1bc 3bc0 e03d
000001d0: 01b1 05be 7d70 18be 6133 123e 6e09 ffbd
000001e0: 68cd 88bd ec98 80bc 6df6 e33d d65c 353e
000001f0: 2fc4 6bbe 7e2f 87bc 020e ce3d 034d 5c3e
00000200: 391a 38be 4d18 c13d ae64 383e 7917 febd
00000210: 5fac bbbd 7b50 3f3e 18d6 6abe bea5 e63c
00000220: fc0c 173c 084a 0dbe 42de e13c 76d4 d0bd
00000230: dd9a 5cbe 8763 6c3e d3a1 22be 6b57 2b3e
00000240: 3ebf 6d3e eeeb 69be c02a 28bc 0b07 5f3d
00000250: af32 ba3d 441e 133e 3add 363e 4030 593d
00000260: aa76 b8bd 445d 6fbd b6d9 e9bd 747f 6a3e
00000270: d43d 2e3e b48a 04be 445f 4b3d 5b19 3cbe
00000280: 33b6 cc3b 438b 62be c75b 2b3c 0afc 2abd
00000290: 1d18 733d 69b1 0abe 038e 943d ade0 083d
000002a0: 6844 513e f689 46be 395e 3a3e 7901 c4bd
000002b0: 6a4a 553e ce03 2abe 2ca8 08be 9800 a13d
000002c0: d41d 463e db06 f2bd 7cb4 e53c 8128 5d3e
000002d0: 1fb1 1abe 5915 de3d a755 3d3e 725e 07be
000002e0: a0c9 25be 69e7 413e 96e8 07be 29ae db3d
000002f0: d139 9abd d9ff 44bd 0eb1 5d3e d153 b03d
00000300: 66f1 21be ea80 7b3d 5c10 a2bd 8c6d 633e
00000310: 4b5f 48be 7015 c93d 92bd 213e f40d fa3c
00000320: db58 6a3e 5a23 553e 822b 25bc 8d1e 85bc
00000330: dac9 3d3e 58dd 133e 5e0b 793e 8ac8 253e
00000340: de86 9d3c e17d 20bb d861 18be e895 40be
00000350: 70da 53be ef4e 6c3e 2f88 5b3e aeee 61be
00000360: 122a debd b071 37be 49c2 61be 8eb2 9e3d
00000370: 9990 6b3e 294d 2cbe e13e 51bd deeb 60bd
00000380: 8b7a c83d 0e58 1c3d c793 ec3d 2c45 2fbe
00000390: be14 71bd f775 80be e6c9 a53d bd66 353e
000003a0: e92a 3e3e 9a7c af3d 2a48 333e 93ff 5c3e
000003b0: 79a5 1abe 71ea 423e 06fc d33d 207f 293b
000003c0: 81d2 253d 7fea 3bbc 54c2 5a3e 5b2b 0ebe
000003d0: a2c7 9f3c ddaa 413e 95f8 033e 0a05 773e
000003e0: 15f5 0ebd 1c2f 4dbe 6a0f 243c f305 35be
000003f0: e4ae 45be b7dc 3b3c 088f b9bc f2b7 5b3e
-0.13430388 -0.15698326 0.08817501 0.0805166 -0.21887302 -0.15765107 -0.16807313 0.088190764
-0.062194187 -0.08274669 -0.0689698 0.03783178 -0.124210015 0.03623466 -0.14086561 -0.017725073
0.09821209 -0.23434196 0.17384413 0.13861994 0.14015995 0.111248165 0.02318517 -0.16801767
-0.012896748 0.07340218 -0.055793155 0.11275818 0.041870575 0.21183413 0.0789357 0.23886098
-0.24554707 -0.200286 -0.12310944 0.04118231 -0.025419153 0.05835324 0.07093556 -0.16091843
0.22576466 0.0704605 0.055308603 0.15092173 0.12970647 -0.19535331 -0.015026078 0.17697728
0.16500697 -0.05288016 0.01823105 0.018375501 0.1171724 -0.016791455 0.12227089 -0.0899766
-0.030622557 0.1794211 -0.20467381 -0.18145949 -0.24640773 0.05022983 0.007009401 -0.23481227
0.13155523 0.043250456 -0.07295489 0.023598196 -0.20211188 0.17993519 0.21095961 -0.15993062
-0.17511855 -0.022829339 -0.07325734 0.037476033 -0.021335568 -0.13676406 0.035809774 0.22999734
0.10154597 0.12574048 -0.17611961 0.011767343 0.21792303 0.1306042 0.15446523 0.120105535
0.2225529 -0.0082482835 -0.07409859 0.11994383 0.0039556855 0.16598059 0.030706577 0.18243402
0.1974096 0.019173646 0.083249755 0.21886972 0.027016265 0.12370829 0.17222492 0.13733855
0.10589067 0.19912754 -0.21011713 -0.04803035 0.15052223 0.18891156 0.024181636 -0.17005216
-0.11259169 0.098719984 -0.029537808 0.10974165 -0.13055803 -0.14886661 0.14277412 -0.124529704
-0.06679803 -0.015697919 0.11130986 0.17711195 -0.23024057 -0.016502138 0.100612655 0.21513753
-0.17978753 0.09428463 0.18007156 -0.12406821 -0.091637366 0.18683045 -0.22933233 0.028155204
0.009219404 -0.13797772 0.027571801 -0.10196774 -0.2154345 0.23084842 -0.15882044 0.16732566
0.23217484 -0.22843906 -0.010264099 0.054450076 0.090916984 0.14367014 0.17857829 0.05302453
-0.090070084 -0.058438554 -0.11418478 0.22900182 0.17015773 -0.12943536 0.0496514 -0.18369047
0.006247306 -0.22123437 0.010458893 -0.04174427 0.059349168 -0.13544239 0.07253649 0.033417393
0.20436251 -0.19388565 0.18200006 -0.095705934 0.20829168 -0.16603014 -0.13345402 0.078614414
0.19347316 -0.11817714 0.028040163 0.21597482 -0.15106629 0.108439155 0.18489705 -0.13219622
-0.16190195 0.18935932 -0.13272318 0.10726578 -0.07530559 -0.048095558 0.21649572 0.08609737
-0.15814742 0.06140224 -0.079132766 0.22209758 -0.19567601 0.09818542 0.15794972 0.030524231
0.22885458 0.20814267 -0.010081174 -0.01624992 0.18534032 0.14439905 0.24320742 0.16189781
0.019229349 -0.0024489092 -0.14881074 -0.18807185 -0.20688796 0.23076986 0.21438669 -0.22063705
-0.10847868 -0.17914462 -0.2204677 0.077489 0.23004378 -0.1682631 -0.051085357 -0.05491244
0.09788998 0.038169913 0.11551624 -0.1711623 -0.058857672 -0.2509 0.0809515 0.17714973
0.18571056 0.08568688 0.17507997 0.21581869 -0.15102185 0.19034745 0.10350804 0.0025863126
0.040483955 -0.011469482 0.21363193 -0.13883726 0.019504372 0.18912835 0.12887795 0.24123016
-0.034901697 -0.20037502 0.010013441 -0.1767805 -0.19304997 0.011466197 -0.02265121 0.21456888

stat_predictor.cond_mlp.2.bias f4 [16]
00000000: 4f1d 7d3e 5e6e c23d a0c2 fe3d aa04 08be
00000010: 2b8c 033e 553c 963d 5ae8 7f3e 6b89 b63d
00000020: bb80 bd3d ef1a e5bc 27b8 09ba 6ba7 c7bc
00000030: 3a2f 7cbe 37d1 213e 86c4 81bc 0625 003e
0.24718212 0.09493707 0.124394655 -0.13283029 0.12846439 0.07335726 0.24990979 0.08912929
0.09253069 -0.027966945 -0.0005253576 -0.024371823 -0.2462739 0.15802465 -0.01584078 0.12514123

stat_predictor.stat_mlp.0.weight f4 [16, 16]
00000000: 68e6 5dbe 6f0a 99bc 925f 7d3e eb7b 793c
00000010: 1b58 29bd bc1f 44be 1285 b7bd 4b77 cfbd
00000020: d1d1 e9bd bb69 473d 45a2 b8bc c0c0 75be
00000030: ab10 49be e395 8c3d 1d2e 043c 15e6 76be
00000040: 0eb9 75bd 9458 42bd 8e1a fa3d 973a 71be
00000050: 57a3 adbd 24eb 673e ff1e 7abe eb19 58be
00000060: 9c37 683e 1d9e b03d ba80 463c 4939 483d
00000070: df6f cc3d c818 4ebe 4fa0 9abd cf0f 2c3e
00000080: f4e6 253e 8994 bbbd 3a24 603e af99 533c
00000090: 0414 ba3b 57d4 acbc a61e 13be a40e 393e
000000a0: 581c 003e 4ac8 ea3b 14c2 acbd ccd3 25be
000000b0: be93 fcbd 2bd7 06bc 806f 86ba 0a30 52bd
000000c0: d083 69bd cf97 2b3e f6cc 4bbe 581b 2c3e
000000d0: 6e08 333e 8ba2 2a3e f62d 54bd bb12 753e
000000e0: 1801 7dbd 968c 043e 87ed 073e 080c 503d
000000f0: ef7c 64be c6ea 63bd 5a50 51be 8c92 023e
00000100: 9299 4d3c 661c 80be 644c 39be 2795 4e3e
00000110: 747d 5ebe b526 02be baa4 4f3e 4457 f63c
00000120: 0716 49be 13c8 70be 1bdb e43d 6e4e 6bbe
00000130: 1b90 6a3d a581 dbbd 8b14 2ebe 6a64 26be
00000140: ff71 0ebd 7a64 7bbd 54fb 183e 4d84 95bd
00000150: a05a 593e 2b7b 05be d375 c7bc 3685 69bd
00000160: 3db7 babd c18c c1bd f7c6 373e 8691 2b3e
00000170: 9f53 043e cef0 2cbe eb4f 3bbe e2ca 61be
00000180: 82a0 fb3d 6b19 613e 7325 2ebe 62b4 14be
00000190: b756 fcbd dd3b 193e 17c7 44be a2b5 42be
000001a0: 56b7 32be 32ee 133e 8ac5 b3bc 7ec0 353e
000001b0: 9ebb 36be b9de d83d e0f5 3ebe 2699 173e
000001c0: d0cb 603e b6b0 acbd 5c4a 2c3e 6915 f1bd
000001d0: 2b57 8a3c 5d8d 43bd 7779 113d 0fef fcbc
000001e0: 9848 55be 3f0b 04be a921 4bbc 5272 7a3e
000001f0: d63d c6bc 1089 08bd 8ee9 ecbd fc12 e43c
00000200: e970 503e dfdb 2cbe a186 d7bd 8eba 69be
00000210: 6051 3fbd c9dd 7dbe 8c04 7d3d 9b27 a2bd
00000220: 03f3 00be fa15 21be 84f5 7ebe 415c 793e
00000230: a1c4 0a3e 054e dabd b27c 583e db6b 383e
00000240: 3258 40be a4cf 27be ecc2 453e 98bc 19be
00000250: 3120 a3bd 2214 33be 51e2 89bd 8183 283e
00000260: a231 11be ec23 79be 3506 6bbe 221a cfbd
00000270: b9ff 4e3d a78b 3f3e 144a 913c d437 d3bd
00000280: 9cd9 6cbe 4b28 8c3d d180 503e d9ac 713d
00000290: da7d 49be 8112 a33d b819 69be 1fd9 903d
000002a0: d967 6e3e 948e a13d 93ef 68be e007 53bd
000002b0: 6cf1 39be 92f0 723e f836 533e 2321 c9bd
000002c0: be71 29be f0a6 36be 6600 343d 5628 32be
000002d0: f28c f4bd 8446 363e c918 3cbe ad9d 5bbe
000002e0: f55e cbbd 2996 7cbe b5bb 29bd fee3 ebbc
000002f0: 252a 2d3e f53c 2b3e 1e52 3abe 4468 b93d
00000300: f833 333e 8c88 9abc 6ad1 8cbd 79ad 693e
00000310: 46f2 c8bd 55cd 433e e9bd 3dbe 3681 16be
00000320: b10b 40bd d100 d1bd e37b 2b3e f16e 8abd
00000330: 930c f1bc 395d 503e f900 693e dfd3 fcbc
00000340: 0008 2e3e 04d4 e3bd 0b65 26bd 5598 203e
00000350: 8feb 4ebb a985 a23d 12db 7dbe c754 663e
00000360: 34df 0c3e eafb e43c 5fd4 d8bd dbdf a0bc
00000370: 1b1e 1f3d c92e 95bd 48fb 05be 5d27 f43d
00000380: ba8a de3d 0437 43be a65e 1ebe 4641 783e
00000390: 691b a83d c7e3 c3bd c260 96bd cfab 7abe
000003a0: f963 a1bc 520a 09be 6a8d 653d 4051 99bb
000003b0: 5678 f03d e7f7 733e 51c1 25bd c8d3 25be
000003c0: bbc9 cc3d beb8 633e bc93 72be f204 963d
000003d0: 6353 193d 14cc 3abd 3b85 3e3e 06ab 2e3e
000003e0: 82b8 d03d 59fd c53c 2000 6dbe c7ba a2bd
000003f0: b1c2 c33d 72d7 f23d 5aba 17bd 22cd cf3d
-0.21669924 -0.018681733 0.24743488 0.015227298 -0.04134379 -0.1915273 -0.08960928 -0.10130175
-0.114169724 0.048684817 -0.022538314 -0.2399931 -0.19635265 0.06864526 0.008067635 -0.24111207
-0.059990935 -0.047447756 0.12212096 -0.23557507 -0.0847842 0.22648293 -0.24425887 -0.21103637
0.22677463 0.08623908 0.012115652 0.048882756 0.09982275 -0.20126641 -0.07550108 0.16802905
0.16201383 -0.0915919 0.2188882 0.012915059 0.0056786556 -0.021097345 -0.1436716 0.18071991
0.12510812 0.0071649896 -0.08435455 -0.16194075 -0.12332867 -0.008230011 -0.0010256618 -0.051315345
-0.05701047 0.16757129 -0.19902405 0.16807306 0.17483684 0.16663568 -0.051801644 0.23932926
-0.06176862 0.12944254 0.13274203 0.050792724 -0.22313283 -0.05564382 -0.20440808 0.12751216
0.012548821 -0.25021666 -0.18095547 0.20174085 -0.21727544 -0.12710078 0.20277682 0.030070908
-0.19637309 -0.23513822 0.111746036 -0.22979137 0.057266336 -0.10718087 -0.17000024 -0.16249242
-0.034776684 -0.06137512 0.14939624 -0.07300625 0.21225977 -0.13035266 -0.024348175 -0.057011805
-0.09116981 -0.09450675 0.17946993 0.16754732 0.12922524 -0.16888735 -0.18292205 -0.2205005
0.12286474 0.21982352 -0.17006473 -0.14521936 -0.12321227 0.14964242 -0.19216572 -0.190146
-0.1745275 0.14446333 -0.02194478 0.17749211 -0.17845008 0.10589356 -0.18648481 0.14804515
0.21952748 -0.084321424 0.16825241 -0.11771662 0.016887268 -0.047742236 0.03551623 -0.03087571
-0.20828474 -0.12894915 -0.012398162 0.24457672 -0.024199408 -0.033333838 -0.115679845 0.027841084
0.20355572 -0.16880749 -0.10523725 -0.22825071 -0.046708465 -0.24791636 0.061771914 -0.079177104
-0.12592702 -0.1573104 -0.24898344 0.24351598 0.1355157 -0.10659412 0.21141317 0.18009894
-0.18783644 -0.16387802 0.19312638 -0.15013349 -0.079651244 -0.17488149 -0.067326196 0.16456415
-0.1417909 -0.2433011 -0.22951587 -0.10112406 0.050536845 0.18705617 0.017735519 -0.10313383
-0.23129886 0.06843623 0.2036164 0.05900273 -0.19676915 0.07962514 -0.22763717 0.070726626
0.23281802 0.07888523 -0.2274764 -0.051521182 -0.18158501 0.23724583 0.20626438 -0.098207735
-0.16547295 -0.17837119 0.043945692 -0.173982 -0.11940946 0.17800337 -0.1836883 -0.21446867
-0.09930221 -0.24666657 -0.041438777 -0.028795239 0.16910608 0.16722472 -0.18195388 0.0905309
0.17500293 -0.018863939 -0.0687588 0.22820081 -0.09811835 0.19121297 -0.18529476 -0.14697728
-0.04688615 -0.10205234 0.16746478 -0.06759442 -0.029424941 0.20348062 0.22754277 -0.030862747
0.1699524 -0.11124423 -0.040623706 0.1568311 -0.003157351 0.0793565 -0.247906 0.22493277
0.1375702 0.027952153 -0.105873816 -0.019637993 0.03884707 -0.07284314 -0.13084137 0.119215705
0.10866304 -0.19063956 -0.15465793 0.2424365 0.08208353 -0.095649295 -0.07342674 -0.24479602
-0.019700991 -0.13382843 0.056043066 -0.004678875 0.11741702 0.23825036 -0.040467564 -0.1619407
0.099994145 0.22238442 -0.23689169 0.07325162 0.03743304 -0.04560478 0.18605511 0.17057428
0.10191442 0.024168657 -0.23144579 -0.07945781 0.09558619 0.11857499 -0.037042953 0.10146548

stat_predictor.stat_mlp.0.bias f4 [16]
00000000: f8a3 803e b818 ee3d cbf3 01be 8bac c93d
00000010: 51e6 66be 77bb eabd 6f5c 62be 2dab 03be
00000020: 9bb7 6abe f8dc 52be f13c d8bc 9007 363e
00000030: dcfb 4e3e f0ff c2bd 6220 ae3d d62e 5bbd
0.25125098 0.116258085 -0.12690656 0.09847363 -0.22548796 -0.11461537 -0.22105573 -0.12858267
-0.22921602 -0.20592105 -0.026396247 0.17776322 0.20213264 -0.095214725 0.0850227 -0.053511463

stat_predictor.stat_mlp.2.weight f4 [2, 16]
00000000: 21d7 20be e6c3 32bb 01fa 7bbd e986 5f3d
00000010: 22e7 52be 9fa3 023e e088 6b3e db99 c5bd
00000020: ab33 42be d64e f23d 4103 0abe 9b09 18bc
00000030: 5f54 8dbb 4cc8 3abe 5330 463e 892d 6ebe
00000040: fa84 2bbe 022a aa3d ca20 4dbe 27c3 f03d
00000050: c4b1 083e 7f58 793e 10e3 293e e3ab 58bd
00000060: 5448 75be f306 0c3d b36f 283d 42eb eb3d
00000070: c4fd 8d3d 1b6d 40be d73c 3abe f56b 37be
-0.15707065 -0.002727741 -0.06151772 0.05457202 -0.20595983 0.12757729 0.23001432 -0.09648486
-0.18965022 0.11831443 -0.13477804 -0.009279634 -0.0043130363 -0.1824047 0.19354372 -0.23259558
-0.16749945 0.083087936 -0.2003204 0.11755972 0.13349062 0.24350165 0.16590524 -0.0528983
-0.23953372 0.034186315 0.04112215 0.11519481 0.069331676 -0.1879162 -0.18187271 -0.17912276

stat_predictor.stat_mlp.2.bias f4 [2]
00000000: 9c70 5abe a8e9 cf3c
-0.2133202 0.02537997

unet.init_conv.weight f4 [8, 1, 3]
00000000: 3b29 94be 0ee5 12bf 43d4 2e3d 926a a8be
00000010: f355 a93e 8671 00bf 6b4e 633d f1c4 38be
00000020: f31b babe a1af c53e 3411 8cbe 8469 20be
00000030: 5eb0 94be 47b1 6cbd 859e 793e 30ea adbe
00000040: 7321 503e 8288 f1be e3a4 bbbe c4f4 66be
00000050: d88f d0be 25e9 dbbe 4e35 b6be 2390 0e3e
-0.28937706 -0.5738076 0.042682897 -0.32893807 0.33073387 -0.50173223 0.055494707 -0.18043877
-0.3634945 0.38610557 -0.27356875 -0.15665251 -0.29040807 -0.057786252 0.24376877 -0.33967733
0.2032526 -0.4717446 -0.36649236 -0.22554308 -0.40734744 -0.42951313 -0.35587543 0.13922171

unet.init_conv.bias f4 [8]
00000000: 12ba 8ebe bc25 7d3e ff0d 093f 639f 34be
00000010: 2d5d 7ebe 1aff 1f3e 1596 31be f804 c2bd
-0.27876335 0.24721426 0.5353698 -0.17638926 -0.24840231 0.15624657 -0.17342408 -0.09473604

unet.time_mlp.0.weight f4 [64, 16]
00000000: 76b4 2fbe b6fa 6c3e 8792 54be 8918 dfbd
00000010: 45e5 033e b25d 6c3e 5886 07be 5d7f 39be
00000020: f904 14be 063c a03d 4b5a 7d3e f82a 263e
00000030: 7a79 69be 24af 483e aa04 3bbd 8180 01be
00000040: b51a 793e da6f 283d 82e6 353e 7805 5dbd
00000050: 09f2 d9bc 230d f0bd c32e 5ebe 5568 54be
00000060: 763b 08bd e722 7b3e 7ed3 393e a564 393e
00000070: a4e1 5bbe 21f1 37be eded 493e 2466 9ebc
00000080: 8c41 87bc 0603 f93d 5e74 1ebe 1f8b 043e
00000090: 9737 efbd 4ace 7abe 7c15 7abe 6405 1cbe
000000a0: be56 dbbd f1b6 e8bd a847 76bd 6187 cc3b
000000b0: 2812 76be 2fa0 8bbd 10dd d23c e5de 183d
000000c0: 234d 743c b07b 45be c20d c73d 9fc7 263e
000000d0: 1ac0 0d3c 38c3 f83c 4524 20bd b4c3 39bd
000000e0: cadc dbbd 67a8 2fbe 98e3 173e 4aa1 f93c
000000f0: 0ad3 9bbd 30a4 0d3e 7e34 ac3c de73 91bd
00000100: 6212 963d f83b 3f3e 8855 0dbd 31ad 473e
00000110: 22fd 5abe be3d 21be 87d2 643e f9d5 77bd
00000120: 699a 173e 34bf 46be 6f66 1d3e a69f ad3d
00000130: 64a7 553e 2f9e 58be a08b 15be 003f 11be
00000140: 563f 22be 0ccf a03d b714 7d3e 8e94 18be
00000150: fc2b ecbd db55 47bd 6db5 203c 4185 40bc
00000160: 96bd 2a3e 18f6 38be 9462 043e 02f9 643e
00000170: 5d6a 6b3d e22b 5dbe 98d0 25be 58e9 423e
00000180: 6484 273e 3fa3 bd3d f733 653e 4895 693e
00000190: 3ecb 87bd fcea b53b 53d0 333e d7ed 5a3e
000001a0: 4edc d53c 2ce0 67be 87e1 043e 482c e6bd
000001b0: 953a 473e ac3f 0c3e 8e7e 213e 8d7d 903c
000001c0: cc57 8b3d 1f26 6dbe daed d53d 80bb 9bba
000001d0: a58a 383e 21c5 1abe dca1 c53d 2673 5a3e
000001e0: c9b7 853d 29e9 6f3d 13a0 36bd 14f5 003e
000001f0: ada1 523c 8421 6bbe c08b 1a3e 9ed6 053e
00000200: ceb6 8dbc 40c7 56be 3141 453e e704 393e
00000210: d3df 03be 8bc4 4abe c5b3 2fbd 63ac 253d
00000220: 11dd c2bd 0a0d 003e 0ed9 bfbc 0748 42bd
00000230: de31 773d 7dd9 4f3e 3778 fb3c 5e4d d33d
00000240: 3247 0d3d 2b35 e43d 20eb 2dbe 823c 32be
00000250: c6b2 96bd 73c6 55be 483a 72be dd6d 513e
00000260: 5f19 293e 0b10 ecbd 3f7e 73bd 563c 0a3d
00000270: 30c0 a83d 2275 edbd 83e9 81bd 1ef7 613b
00000280: a778 423e 6a62 a33d 27c9 1bbe fa2e 0b3e
00000290: 0c04 52bc 44dd 59be be49 d3bd 7298 693e
000002a0: bb70 023e 6e14 63be 5743 783e b09b 90bb
000002b0: a1e6 6a3e 39cd ab3d 8c60 57bd 519c 293e
000002c0: 458b 2c3e e65f a4bd 9f72 753e 61c8 593d
000002d0: 17c8 31be 1a72 613e 3bcd 473e 4d28 4f3e
000002e0: ff39 ad3d f548 fabd 40b3 44be 4ed1 313e
000002f0: 20c4 0cbe d6a1 dabd 5d31 89bd 8e39 003e
00000300: 2c88 3bbb 11ad 4a3e 464e 393e 947e b3bc
00000310: d11b 34be 9f8c 4bbe 07a2 013e d682 11be
00000320: 68a3 413d 70ab 3abe 0334 05bd af24 483e
00000330: c473 7f3c dd16 3a3e ea4e 42bd 61e0 5d3e
00000340: dda0 24be ff26 4cbe 1edf 0b3d f1f6 d13d
00000350: c90b 2abe ff4b 05be 7ad9 4f3e 2206 7bbe
00000360: 8d41 123e 7d99 61be 0761 6cbe 7f63 70be
00000370: c028 ba3d 76a7 19be 69ff 36bd a894 433e
00000380: e316 153e cdda 143e 5533 5e3e 7d5e b4bd
00000390: 0212 713e 8656 00bc 8caa 1cbe bb42 4fbe
000003a0: ae06 0c3e 4204 b93d b322 a43d 0503 a93c
000003b0: 052e 49be b7c4 0abe 7151 7ebe 26c8 fa3c
000003c0: 288a 143c fc7e 523d 3522 643e ac18 99bc
000003d0: 5b7b b6bc 7565 e1bd 831b 51bd f701 53be
000003e0: dc10 393e ce95 583e 8157 50be 803c 5ebe
000003f0: 0431 ce3d 3bdc e7bd 9b1f b4bd 4285 48be
-0.17158684 0.23142514 -0.20759021 -0.108933516 0.12880428 0.23082617 -0.13234842 -0.18114991
-0.14455022 0.078239486 0.24741475 0.16227329 -0.22800246 0.19598061 -0.045658745 -0.12646677
0.24326594 0.041122295 0.17763713 -0.053960294 -0.02660467 -0.11721256 -0.21697526 -0.20742925
-0.03325983 0.24525033 0.18147084 0.18104799 -0.21472794 -0.17963077 0.19719668 -0.019335814
-0.016510747 0.1215878 -0.15474078 0.12943695 -0.11680525 -0.24492756 -0.24422258 -0.15236431
-0.10709904 -0.11363018 -0.06012693 0.0062417244 -0.24030364 -0.06817662 0.025740176 0.037321944
0.014910969 -0.19285464 0.09719421 0.16287087 0.008651758 0.030366525 -0.03909709 -0.045352653
-0.107354715 -0.17154084 0.14832914 0.030472416 -0.07608612 0.13832164 0.021021124 -0.07102178
0.07327725 0.1867522 -0.034505397 0.19499661 -0.21385625 -0.15746209 0.22345935 -0.060506795
0.14804997 -0.19408876 0.15371107 0.08477716 0.20864636 -0.21154092 -0.14604044 -0.14184189
-0.15844473 0.07851991 0.24714933 -0.14900419 -0.11531827 -0.048665863 0.00980888 -0.01175052
0.16673884 -0.18062627 0.1292823 0.22360614 0.057474483 -0.21598771 -0.16192853 0.19034326
0.16359097 0.09259652 0.22383104 0.22810853 -0.06630562 0.005551694 0.17559938 0.21379791
0.026106026 -0.22644109 0.12976657 -0.11238915 0.19455941 0.13696164 0.15770933 0.017637992
0.06803855 -0.23159073 0.10445757 -0.0011881441 0.18021639 -0.15114261 0.09650013 0.21332988
0.06529195 0.05857197 -0.044586252 0.1259349 0.012855929 -0.22962004 0.15092373 0.13070151
-0.017299082 -0.20974445 0.1926315 0.18068276 -0.12878351 -0.19801538 -0.04289605 0.040447604
-0.09514821 0.12504974 -0.02341893 -0.047431972 0.06035029 0.20297809 0.030696971 0.10317491
0.034491725 0.111429535 -0.16984224 -0.17405894 -0.07358317 -0.20876484 -0.23655045 0.20452066
0.16513585 -0.115264975 -0.05944657 0.033748947 0.08239782 -0.11594607 -0.06343367 0.0034479569
0.18991338 0.07977755 -0.15213452 0.13592139 -0.012818348 -0.21275812 -0.103167996 0.2281206
0.12738316 -0.22175762 0.24244438 -0.0044130906 0.2293954 0.083887525 -0.05258231 0.16563536
0.16850002 -0.08026104 0.23969506 0.05316961 -0.17361484 0.22016183 0.19511883 0.20230217
0.084583275 -0.12220947 -0.19209003 0.17365 -0.13746691 -0.10675399 -0.066988684 0.12521955
-0.00286151 0.19792582 0.18096265 -0.021910943 -0.17588736 -0.19877861 0.12659465 -0.14210066
0.047274977 -0.1822946 -0.032520305 0.19545244 0.0155915655 0.18172784 -0.04743854 0.21667625
-0.1607699 -0.19936751 0.034148328 0.102521785 -0.16606058 -0.13017271 0.20297804 -0.24514058
0.14282818 -0.22031207 -0.23083888 -0.23475455 0.09089804 -0.15005288 -0.04467717 0.19099677
0.14559512 0.14536591 0.21699269 -0.08807085 0.23542026 -0.007833129 -0.15299433 -0.202403
0.13674423 0.09034015 0.08014431 0.020631323 -0.19646461 -0.13551603 -0.24835755 0.030613016
0.009066142 0.051390633 0.22278674 -0.018688522 -0.022275617 -0.110056795 -0.051051628 -0.20606218
0.18072838 0.21150896 -0.2034588 -0.21702766 0.10067943 -0.113213025 -0.08795091 -0.19582084

unet.time_mlp.0.bias f4 [64]
00000000: 0cfa 00be b7ac 823d a989 5e3e 750d 213d
00000010: dcf7 013e a689 c3bc 8c02 b23d 7f65 ac3d
00000020: aac7 513e db9e b6bd bc7c 3b3d 8c08 1bbe
00000030: d9be 513c 22df 77be f581 74bd c340 e5bd
00000040: 2aef 28be 7a51 f6bd 4ea4 0abe b26f b23c
00000050: 16a0 16bd 98cd 05be 3c64 2f3e 017b 14bd
00000060: 4b52 0abe a1a7 543e 0bd4 023d b389 a13d
00000070: f18e cfbd fce3 98bd 3aea d4bc 9ab6 133e
00000080: 204a 92bd 9385 2abe a57b 38bd e364 363e
00000090: a673 683e da11 223e 8d92 34bd 0372 3d3d
000000a0: ac2d 05be 34d6 713e d122 a8bc be57 be3d
000000b0: b008 433e a4e5 0d3e 3d00 8e3d d7a2 46bd
000000c0: e98e aebd 014f e2bc 1422 343e badb 5dbe
000000d0: f16b 5ebe ee27 69be 3c36 033c ca21 51be
000000e0: ba32 ad3d a261 1a3e 902b a7bd 845e 1cbe
000000f0: 17fd 1ebe 7f84 53be 4ad0 c93d ef5e a93d
-0.12595385 0.06380599 0.217322 0.039319474 0.12692207 -0.023869347 0.08691892 0.08417796
0.20486322 -0.08917018 0.045773253 -0.15139979 0.012801849 -0.24206212 -0.05969425 -0.11193993
-0.16497484 -0.12027259 -0.1353924 0.021781776 -0.036773764 -0.13066709 0.1712808 -0.03625012
-0.13507955 0.2076707 0.0319405 0.07887592 -0.10134686 -0.074653596 -0.025990594 0.14425126
-0.071430445 -0.16652517 -0.04503979 0.17811923 0.22700366 0.15827122 -0.044085074 0.04625131
-0.13005704 0.23616868 -0.020524414 0.09294079 0.19046283 0.13857132 0.06933639 -0.04849514
-0.08523352 -0.027625563 0.17591125 -0.2166585 -0.21720864 -0.22769138 0.008008536 -0.20423046
0.08456941 0.15076306 -0.08162606 -0.1527043 -0.15526234 -0.20656012 0.09854181 0.0827006

unet.time_mlp.2.weight f4 [16, 64]
00000000: 262d 403c ee8f c63d 705c d53a 2525 c13d
00000010: 010b f7bd 16fb 853c b8f7 bf3d a4cb e73d
00000020: 3db8 e0bd c3f3 d1bd bdf4 fdbd 4b60 90ba
00000030: f4a1 3f3d 9283 dabd c884 823d 8180 abbd
00000040: ead1 15bc f4df 7d3b 979b d73d ae3a 12bd
00000050: 568d f63c 6ba4 543a 7d44 a1bc 1af6 513d
00000060: 09ed e9bd e78f 633d 824a edbd 4c69 f73c
00000070: ed04 a5bd b140 cb3b 4439 b6bd ae94 33ba
00000080: a14b fc3d 3feb 613d 26c7 d93d bcb6 f33c
00000090: 4c18 b9bd 286e 3ebd 96a8 803c d2cb 653a
000000a0: d7f9 babd c981 a03d 244e ad3d 11b5 6e3d
000000b0: d41e ab3d 7857 463d 5433 c2bd e228 b1bd
000000c0: 37ae acbc 9bd1 f73d 413d 8a3d 0b38 e7b9
000000d0: d0d3 eebc 197b e63d cacb cb3d 5069 d9bd
000000e0: ef4b 1a3d eaef 0fbc c3ed 20bd 1f51 823d
000000f0: 696a 3d3d dc0f f5bc bc22 dfbd d3f1 d9bd
00000100: 8db6 ad3c cb11 de3d 53c4 8d3d 9a75 f7bd
00000110: a730 453d f322 553d d0ef 9b3d 3d8d e6bd
00000120: e29f d9bd acb8 9d3d c197 59bd d74b d2bd
00000130: f447 663d 73c1 cebd ea44 59bb 120a c43d
00000140: 3c78 cfbd c517 8c3d 4fc6 d53c dc68 3abc
00000150: 716b 463c 2105 883d 276d 9e3d 82f0 dc3d
00000160: 06aa 873d 179b e83d 371c ecbd 11c7 0cbc
00000170: 9468 3abd d4e6 d53d 29b5 c53d 6081 1bba
00000180: 343e 4ebd 0b91 aabd 7cb4 1fbd cfe7 de3d
00000190: 56dd 92bd b7ec 923d 4f36 efbd 7ffa f7bd
000001a0: f2c0 30bd ddcd d03d 5024 d63d 034c 493c
000001b0: f26e 4c3d 7c81 423c 6820 ccbd b87e cebd
000001c0: 5ae7 81bd 37ab 6dbd 1a6d 6d3d ecb6 843d
000001d0: 0bd5 b5bd d6a0 553b 57e8 0cbd b7ba 89bd
000001e0: a5fe bdbd c10d f13d 4241 c43d 7b2d 983d
000001f0: dcd6 b03c 6f32 c33d 7dbb 8abc a049 e6bd
00000200: 8e04 a03d ba03 683d a92b 15bd 4e67 1f3d
00000210: c2ff 85bd 8c74 753d 80de 693d d540 4bbd
00000220: c388 68bd e6ed 023d 5cdb f43d 3727 9ebd
00000230: 7cee e2bd 0c6c d4bd 21c8 413d 8685 873c
00000240: 6cab d0bd 6c52 273d a2e1 d1bd 52c7 b3bd
00000250: e398 a4bd 0ac7 7f3d ae3e cebd 5a65 96bb
00000260: 3f38 943d d86b 123d 9fa4 82bd ddbc d13d
00000270: c873 df3d 34fe 0bbd 9211 cabd 421c 49bc
00000280: 6510 e93c bb61 f73c 2c93 f2bc 87fe b8bc
00000290: 7e49 e9bb 44d4 bdbd 48f5 c03d 2e88 01be
000002a0: 5550 28bd b749 f0bd b4b0 293c 7f42 c53d
000002b0: bd76 633d 43f4 c53d 4e32 b23d 94f2 8abd
000002c0: 3455 773d 3dee 00be ce3b 8fbc d3a9 d2bc
000002d0: 46e9 b93d 0c9e 17bd 88f1 b23d d889 2e3d
000002e0: 6327 643d 801c 8c3d 56dd c03d 57c7 b93d
000002f0: b40c c1bc 9474 a53d 0f61 b33d dd36 b1bd
00000300: ded9 9c3d 2926 1c3d e102 23bc dac7 ee3d
00000310: 3298 543d 8f84 843d 39ff eabd 35d0 3ebd
00000320: ea1b 3d3d a94e f13d 3e75 a33c 505a f8bd
00000330: b8bf a7bc d329 df3c 0cb2 e1bd a60c db3c
00000340: 1f9c c0bd 34c2 7b3d f9c9 54bd 86cf f8bd
00000350: 5b56 483d fc0a 633d 0664 853d 350e a6bd
00000360: 32d0 fbbd 2962 7bbd 6827 0abd 6db8 90bd
00000370: 2e31 fc3d 6f6f d43d adeb 26bd be24 e1bd
00000380: 3546 b13d cafd cc3c 4d10 6fbd f604 d7bd
00000390: fd31 dc3d 1175 913d ed6f 9a3d 9cef c3bc
000003a0: 9a82 c0bd 745f 883d 6512 a0bd a2dd 0ebd
000003b0: 764d 18bd 85df da3d 09d5 833d d7b0 203d
000003c0: c873 d53d 8151 593d 77b4 8bbd fd5a 6a3d
000003d0: 6049 213d a05b b03d 1a57 a8bd d450 6dbc
000003e0: ee1d 8e3d 973f e73d 4d43 f13d 2795 ab3c
000003f0: df1e 313d 7e1f bdbd 9130 693c 0204 013d
0.011729514 0.09695421 0.0016278159 0.09430913 -0.12062646 0.016355079 0.093734205 0.11318138
-0.10972641 -0.10251572 -0.12400196 -0.0011015026 0.04678531 -0.10669626 0.06372982 -0.083741195
-0.009144286 0.0038738223 0.10527723 -0.035700493 0.030096691 0.00081116584 -0.019685978 0.05126009
-0.11422164 0.055557158 -0.11586477 0.030201577 -0.0805758 0.00620278 -0.08897641 -0.0006850463
0.123191126 0.05515599 0.10633688 0.02975022 -0.090378374 -0.046491772 0.015705388 0.00087660283
-0.091296844 0.078372546 0.0846217 0.058278147 0.083554894 0.04842326 -0.09482446 -0.08650376
-0.021079166 0.12100526 0.067499645 -0.0004410151 -0.029153734 0.11253948 0.09950979 -0.1061579
0.037670072 -0.008785227 -0.039289247 0.06363129 0.04624406 -0.029914789 -0.10895297 -0.106418274
0.021205211 0.108432375 0.069222115 -0.120829776 0.0481421 0.052035283 0.076141 -0.11257408
-0.10626198 0.07701239 -0.05312324 -0.102683716 0.056220964 -0.10095491 -0.0033152648 0.09572233
-0.10130355 0.06840471 0.026095537 -0.0113775395 0.012110577 0.06641603 0.07735663 0.10788061
0.06624226 0.11357706 -0.11528819 -0.008592383 -0.04550989 0.104444176 0.09653694 -0.0005932059
-0.05035229 -0.08328446 -0.038990483 0.10884058 -0.07171123 0.07174056 -0.116802804 -0.12108325
-0.043152757 0.10195515 0.10456145 0.012286189 0.049910493 0.011871692 -0.099671185 -0.100827634
-0.06342955 -0.05802461 0.057965375 0.06480202 -0.08878525 0.0032597086 -0.034401264 -0.06725066
-0.09277085 0.117702015 0.095827594 0.0743055 0.021586828 0.09531104 -0.016935105 -0.112445116
0.07813369 0.05664418 -0.03641859 0.03891688 -0.065429226 0.0599256 0.05709696 -0.049622376
-0.05677105 0.03196516 0.11955902 -0.077223234 -0.110806435 -0.10372171 0.04731 0.016543161
-0.10188946 0.040850088 -0.10248114 -0.08778252 -0.08036973 0.062445678 -0.10070549 -0.0045897188
0.072372906 0.03574738 -0.06379055 0.10241101 0.109107554 -0.034177974 -0.098666325 -0.012274804
0.0284502 0.030197969 -0.029611193 -0.022582306 -0.0071193567 -0.09269002 0.09421784 -0.12649605
-0.041092236 -0.1173281 0.010357071 0.09631824 0.05553316 0.0966573 0.08701001 -0.06784549
0.06038399 -0.1259088 -0.017484572 -0.025715744 0.090776965 -0.03701596 0.08737475 0.042611927
0.055701625 0.068413734 0.094172165 0.09071224 -0.023565628 0.08078876 0.08758747 -0.086530425
0.07658742 0.03812233 -0.009949417 0.116592124 0.051902957 0.06470596 -0.11474461 -0.04658528
0.0461692 0.11782581 0.019953366 -0.12126601 -0.02047716 0.027241623 -0.11020288 0.02673943
-0.09404778 0.061464503 -0.05195043 -0.12148957 0.04891048 0.055430397 0.065132186 -0.081081785
-0.122955695 -0.06137291 -0.033728987 -0.070664264 0.12314068 0.10372817 -0.0407521 -0.10993336
0.08655969 0.02502336 -0.058365155 -0.10498993 0.10751722 0.07102407 0.075408794 -0.023917966
-0.0939991 0.06658831 -0.078160085 -0.034879334 -0.037183248 0.10687164 0.064371176 0.039231148
0.10422474 0.053056244 -0.0682153 0.05721568 0.039376616 0.08611226 -0.08219738 -0.014484603
0.069393024 0.11291426 0.11780415 0.020945145 0.04324233 -0.09234522 0.014232771 0.031497963

unet.time_mlp.2.bias f4 [16]
00000000: 0133 debd 2a81 a43d ff46 7c3d 5c6a 923c
00000010: bc8a 8cbd 9ade 05bc bd73 393d c60c 1e3c
00000020: 2a7b e4bd ebfb 433d 7af2 88bd 61e6 0fbd
00000030: 0750 fa3d edb8 123c 7cd4 71bd 0e9d ec3d
-0.10849572 0.080324486 0.061591145 0.017872982 -0.06862399 -0.008170748 0.045276392 0.0096466
-0.11156304 0.04784767 -0.06686874 -0.035131816 0.12222295 0.008955223 -0.05904053 0.11553393

unet.cond_mlp.0.weight f4 [16, 32]
00000000: 8fca 78ba ab88 f9bd fa87 9ebc 91df b7bd
00000010: c043 2e3e 40ed aa3d 7d63 c23d 640b debd
00000020: 0a0e d8bd d993 213e f086 8d3d bde9 243e
00000030: 45db a7bd db5e b0bd 9e50 06bc 9084 ec3c
00000040: 4dee 163e 6d05 eb3d bba0 b93c a3c4 a3bd
00000050: e3f4 673d f44b b7bd a716 98bd 27fb 173e
00000060: dcf0 3e3d 054f cf3c f7c9 18be 41f4 33be
00000070: 758e aebd b7f7 20be a44c 5c3d 7057 21bd
00000080: 259d 123e c5aa 5a3d d094 5e3d bd2f 923d
00000090: 2643 dd3d bc09 2c3e da08 10be 0a6f 13be
000000a0: f329 edbc 406b 103e 5758 f1bd e1c0 d13c
000000b0: ab32 18be 995d 443d b6d9 b8bd 48e2 20bd
000000c0: 2ffe e9bd 1b61 97bd 11a6 5c3d 361c 24be
000000d0: 6525 54bd 7019 fcbb b30f 723d 618a 023e
000000e0: e5aa 0dbe ffc0 ac3d 04da 36be 4c08 093e
000000f0: fb90 c6bd 448a 363d 1e98 9ebd f1e9 5f3c
00000100: ae95 e73d 55c7 093e 0301 df3c ad0e d6bd
00000110: 7302 db3c 879f 143e 9cc8 15be cb92 25be
00000120: c17d 28be 0802 07be 060b fb3d 35f5 f83c
00000130: 91c7 28be eba7 b8bd 065c da3c ec16 32bc
00000140: 4c61 55bd 0aba 643d fd83 33be eda7 08be
00000150: d1f0 a9bc bb26 cf3d e3ed df3d 5b87 6fbd
00000160: 81e6 42bc b4da 65bd 239c 973d 2591 ee3d
00000170: 2a97 0b3c 33de d73c 6023 04be 932f 1c3e
00000180: 5d4b 1cbe 499a 4c3c c1c4 c4bd 7693 37ba
00000190: d82b 143e 7130 d2bd a4a4 3c3d 20ac cebd
000001a0: ee72 2cbc 893d bbbd e18f 913d a007 8c3d
000001b0: 33c2 05be 31e2 fa3d 64dd d1bd bb9f e33d
000001c0: 6ec8 543d ddc3 2abe 5692 363d 04f1 583d
000001d0: 71d8 813d 3887 193e 86a1 de3c b70c 1a3e
000001e0: 8f42 a1bc e540 3ebd 575e b1bc b3e0 96bd
000001f0: 6efe 133e ca40 9bbd bb8f e33d a791 e3bd
00000200: 9c46 c3bc 1ddb 1fbc 7e8a 793d 11ca 07be
00000210: 05d7 d9bd 278b ef3d 1fa0 0a3e 6335 2bbd
00000220: fe5a 1c3e ff4c fb3d db40 0cbe bc8d 013e
00000230: 4ac0 aebb 3703 32be 3371 103e 2a10 0fbd
00000240: d257 d93d a1f8 7cbd bdf0 9bbd 3e84 ec3d
00000250: 7e55 a13d 3a71 13be c014 02be 4165 e5bd
00000260: 8edd 0cbe 91f5 233e 2351 a4bd 2c8f 2ebd
00000270: d6f7 f33d 42a7 31be 9e8a 8dbd 6fd0 8fbd
00000280: 99ca f73d d1eb 6fbd bd58 f13d 623c d43d
00000290: ee3a 263d 5f0b e23c 47db 54bd e62e 81bd
000002a0: 0833 193e 0fac 1d3e 6536 17be 2c31 81bc
000002b0: 8abd afbd ff22 1b3e fe80 2f3e d4c8 b23c
000002c0: 1d1e 1a3c c054 b4bd 2d18 283e aa5e a03d
000002d0: 009f 10be 1e14 f3bd 7edf 473b 2c7d 913b
000002e0: 1157 c43b f18d bc3d 4f0e abbb ca6b 87bd
000002f0: b847 5bbd 8276 033e f81d 57bc b9a9 2dbe
00000300: 7642 f2bd 71b7 bbbd b819 8c3d 5a5f f9bd
00000310: ddcc f6bc 6608 0bbb 30fa e53d 65c3 b3bd
00000320: c981 71bd 74b9 f9bc d18d 79bd ea41 e4bd
00000330: 087b 14be d1b0 42bd cdd0 b13d ad09 2e3e
00000340: d796 24be ad3a 0a3e 8866 d4bd 56c1 3b3d
00000350: e229 cbbd 5962 023d a709 9b3d 8eee 2e3d
00000360: 84a1 983c 34e6 7fbd 857c cfbd d30a b33d
00000370: 1900 163e 4acb 193c ccd3 8bbb c7c0 17be
00000380: 38b0 173d 6093 89bd 4f33 afbd 4b9d a23d
00000390: 786f 853d 6f2f b93d d5f1 0ebe 8611 023e
000003a0: 60fb 133e 128f 2ebd 7392 1b3e 48cf df3c
000003b0: d4ea 303e 4b17 e1bd 9480 3e3c 2022 293d
000003c0: 463c ddb9 4802 16bd b5f1 0e3d 2239 83bd
000003d0: d9e4 01bd b1f1 2e3e b4ed 123e 6f63 d2bd
000003e0: f46d 5abd 1e5e 0bbd 004a 613d 4f06 1ebe
000003f0: 9c3a 0b3e 955b c8bd c416 9fbd 689b d73c
-0.0009490633 -0.121842705 -0.019351948 -0.08978189 0.17018032 0.08346033 0.09491632 -0.10842016
-0.10549553 0.15779056 0.06910503 0.16104789 -0.08196119 -0.08611842 -0.008197932 0.028871804
0.14739342 0.11475644 0.02265965 -0.0799649 0.056630027 -0.08950034 -0.074261956 0.14841901
0.04661642 0.025306234 -0.14920793 -0.17573644 -0.08523265 -0.15719496 0.053784028 -0.039390028
0.14317758 0.053385515 0.054341137 0.071380116 0.10803823 0.16800588 -0.14065877 -0.14397827
-0.028950667 0.14103413 -0.117844276 0.025604667 -0.14863078 0.047940824 -0.090259 -0.0392783
-0.11425435 -0.07391568 0.05386931 -0.16026387 -0.051793475 -0.007693462 0.059097003 0.127481
-0.13834722 0.084352486 -0.17856604 0.13382071 -0.096956216 0.044565454 -0.07743858 0.013666616
0.11307846 0.13454945 0.027222162 -0.10452018 0.026734566 0.1451398 -0.14627308 -0.16169278
-0.16454221 -0.13184369 0.12257962 0.030390361 -0.16482379 -0.09016403 0.026655208 -0.010869723
-0.052094743 0.055841483 -0.17530818 -0.13345309 -0.020744713 0.10114809 0.10934045 -0.058478694
-0.011895777 -0.056116775 0.074028276 0.11648778 0.008519927 0.02635107 -0.1290412 0.15252523
-0.15263124 0.012487956 -0.0960784 -0.00070028694 0.1446985 -0.10263146 0.04605545 -0.10091424
-0.010525448 -0.09142596 0.07107521 0.06837392 -0.13062362 0.12250174 -0.10247305 0.111144505
0.051948957 -0.16676278 0.04457315 0.052964225 0.06340111 0.14992988 0.02717663 0.15043913
-0.019685058 -0.046448607 -0.02165143 -0.07367077 0.14452526 -0.07580717 0.11111399 -0.11111765
-0.02383738 -0.0097568305 0.060923092 -0.13260676 -0.10636715 0.11696463 0.13537644 -0.04179896
0.15269086 0.12270545 -0.13696615 0.12651724 -0.0053329812 -0.17384039 0.14105682 -0.034927525
0.106124535 -0.06176055 -0.076142766 0.11548661 0.078776345 -0.14398661 -0.12703228 -0.11200953
-0.13756391 0.16011645 -0.08023288 -0.042617008 0.11912505 -0.1734896 -0.06911205 -0.070221774
0.12099189 -0.0585745 0.117845036 0.103630796 0.040583543 0.027593313 -0.05196693 -0.06307773
0.14960873 0.15397666 -0.14766844 -0.015770517 -0.085810736 0.15150069 0.1713905 0.021824278
0.009406594 -0.08805227 0.16415472 0.07830556 -0.14123154 -0.118690714 0.0030498202 0.0044399705
0.0059918244 0.09206761 -0.0052202116 -0.06612356 -0.053535193 0.12838176 -0.013129704 -0.16959275
-0.11829083 -0.09165848 0.06840843 -0.1217639 -0.030126983 -0.0021214723 0.1122936 -0.08777503
-0.058961663 -0.030483939 -0.060926262 -0.111453846 -0.14500058 -0.047531907 0.08682404 0.16995879
-0.16073166 0.13498946 -0.10371119 0.045838676 -0.09920098 0.031832073 0.075702004 0.042707972
0.018631704 -0.0624754 -0.10131172 0.08742299 0.14648475 0.009386847 -0.0042671915 -0.14819632
0.03703329 -0.06717563 -0.08554708 0.079401575 0.065154016 0.0904225 -0.13959439 0.12701997
0.1445136 -0.04261691 0.15192585 0.02732052 0.1727708 -0.10990771 0.011627335 0.04129231
-0.00042197312 -0.03662327 0.03489848 -0.064073816 -0.031712387 0.17084385 0.14348489 -0.10272872
-0.053327516 -0.034025304 0.055002213 -0.15432094 0.13596576 -0.09783093 -0.07768014 0.02631922

unet.cond_mlp.0.bias f4 [16]
00000000: c813 91bc 9e53 023e 2c4c 6fbd cf65 fe3c
00000010: 923c 2f3e 064b 26be 59d5 abbd 74b7 75bd
00000020: 6c06 2cbe 2921 8cbc 7f9a 24be fb16 f3bd
00000030: 6ad8 25be 0d2e 81bd 2017 07bd d1da 623d
-0.017709628 0.1272721 -0.058422253 0.031054405 0.1711295 -0.16239557 -0.08390302 -0.059989408
-0.16799325 -0.017105656 -0.1607456 -0.118696176 -0.16195837 -0.063076116 -0.032981038 0.05538446
