src/logs_example/run_20250718_230830_ws10_fd1_ed16_bc8_rb1_nt50_s0.008_sw0.1_lr0.001_bs32_26027450/model_run_20250718_230830_ws10_fd1_ed16_bc8_rb1_nt50_s0.008_sw0.1_lr0.001_bs32_26027450.pt (torch, 35459 bytes, 32 tensors)

betas f4 [50]
0.001747489 0.003688991 0.0056337714 0.007585764 0.0095489025 0.011526883 0.013524234 0.015544534
0.01759255 0.019673109 0.021790743 0.023950815 0.026158988 0.028421521 0.030744493 0.033135474
0.035602212 0.03815353 0.040798843 0.04354924 0.046416342 0.04941398 0.05255717 0.055863857
0.05935359 0.06304985 0.06697893 0.07117188 0.07566583 0.08050352 0.085736334 0.09142703
0.09765023 0.10449803 0.11208534 0.120556235 0.13009268 0.14093208 0.15338635 0.16787475
0.18497169 0.20549464 0.23063338 0.26219916 0.30307245 0.3581307 0.43622243 0.5548348
0.7497583 0.999
00000000: 000c e53a 00c3 713b 809b b83b 0092 f83b
00000010: 0073 1c3c 40db 3c3c c094 5d3c 80ae 7e3c
00000020: 401e 903c 8029 a13c 8082 b23c 8034 c43c
00000030: 604b d63c 40d4 e83c e0db fb3c 10b9 073d
00000040: a0d3 113d e046 1c3d b01c 273d b060 323d
00000050: 101f 3e3d 5066 4a3d 3046 573d 80d1 643d
00000060: c01c 733d 4820 813d 402c 893d 90c2 913d
00000070: b0f6 9a3d 08df a43d 8896 af3d 183e bb3d
00000080: d8fc c73d 1003 d63d 008d e53d 30e6 f63d
00000090: 0437 053e 8050 103e 5011 1d3e 5ce7 2b3e
000000a0: 3869 3d3e 306d 523e 282b 6c3e f83e 863e
000000b0: 502c 9b3e e85c b73e 8c58 df3e a709 0e3f
000000c0: 29f0 3f3f 77be 7f3f

alphas f4 [50]
0.9982525 0.996311 0.9943662 0.99241424 0.9904511 0.9884731 0.98647577 0.98445547
0.98240745 0.9803269 0.97820926 0.9760492 0.973841 0.9715785 0.9692555 0.9668645
0.9643978 0.9618465 0.95920116 0.95645076 0.95358366 0.950586 0.9474428 0.94413614
0.9406464 0.93695015 0.93302107 0.9288281 0.92433417 0.9194965 0.91426367 0.908573
0.90234977 0.895502 0.88791466 0.87944376 0.8699073 0.8590679 0.84661365 0.83212525
0.8150283 0.79450536 0.7693666 0.73780084 0.69692755 0.6418693 0.56377757 0.44516522
0.2502417 0.0009999871
00000000: 7a8d 7f3f 3d0e 7f3f c98e 7e3f dc0e 7e3f
00000010: 348e 7d3f 930c 7d3f ad89 7c3f 4605 7c3f
00000020: 0e7f 7b3f b4f6 7a3f ec6b 7a3f 5cde 793f
00000030: a54d 793f 5eb9 783f 2121 783f 6f84 773f
00000040: c6e2 763f 923b 763f 358e 753f f5d9 743f
00000050: 0f1e 743f 9b59 733f 9d8b 723f e8b2 713f
00000060: 34ce 703f f7db 6f3f 78da 6e3f aec7 6d3f
00000070: 2aa1 6c3f 1f64 6b3f 2f0d 6a3f 3d98 683f
00000080: 6500 673f 9e3f 653f 604e 633f 3a23 613f
00000090: 3fb2 5e3f e0eb 5b3f acbb 583f 2906 553f
000000a0: b2a5 503f b464 4b3f 36f5 443f 84e0 3c3f
000000b0: d869 323f 8c51 243f ba53 103f b2ec e33e
000000c0: ae1f 803e 0012 833a

alpha_bars f4 [50]
0.9982525 0.99456996 0.98896676 0.98146474 0.9720928 0.9608876 0.94789237 0.9331578
0.9167412 0.898706 0.87912256 0.85806686 0.8356207 0.81187105 0.78691053 0.7608359
0.73374844 0.7057533 0.6769594 0.64747834 0.6174248 0.5869154 0.5560687 0.52500457
0.49384367 0.46270692 0.4317153 0.40098932 0.37064812 0.34080964 0.31158987 0.28310212
0.25545713 0.22876237 0.20312147 0.17863391 0.15539494 0.13349481 0.11301853 0.09404557
0.0766498 0.06089868 0.046853412 0.034568485 0.02409173 0.015463742 0.008718111 0.0038809997
0.00097118795 9.711755e-07
00000000: 7a8d 7f3f 239c 7e3f ed2c 7d3f 4641 7b3f
00000010: 13db 783f bbfc 753f 13a9 723f 6ee3 6e3f
00000020: 8daf 6a3f 9911 663f 2d0e 613f 45aa 5b3f
00000030: 3deb 553f c8d6 4f3f f872 493f 24c6 423f
00000040: f0d6 3b3f 40ac 343f 364d 2d3f 24c1 253f
00000050: 8d0f 1e3f 1640 163f 855a 0e3f b366 063f
00000060: 14d9 fc3e ece7 ec3e ca09 dd3e 794e cd3e
00000070: 97c5 bd3e 9a7e ae3e b588 9f3e c3f2 903e
00000080: 47cb 823e af40 6a3e 13ff 4f3e cfeb 363e
00000090: da1f 1f3e ddb2 083e 4276 e73d f79a c03d
000000a0: 92fa 9c3d e570 793d 5de9 3f3d af97 0d3d
000000b0: 055c c53c a35b 7d3c 68d6 0e3c 5f58 7e3b
000000c0: 5297 7e3a 5659 8235

stat_predictor.cond_mlp.0.weight f4 [16, 32]
-0.10945314 0.27741843 -0.24784558 0.06634076 0.15666418 -0.0010582275 -0.11147958 -0.15366483
0.17999774 0.20033242 0.09785645 -0.11278433 -0.04342632 0.1073077 0.105979204 0.052597266
-0.14724848 0.0055665635 0.14981928 0.06691265 0.09048195 0.121111736 0.1732397 0.054992933
-0.104351506 -0.029089756 -0.10626462 0.20262954 0.10873454 0.08294148 0.11069612 -0.1269584
-0.02755247 -0.2392675 0.22390509 0.13624799 0.0920422 0.047775153 0.1579187 0.1402574
0.053444777 0.12178664 0.06356898 -0.05638723 0.084853105 -0.14366196 0.08015932 0.037155714
0.051820226 -0.020188425 -0.036397606 -0.0474133 -0.06005207 -0.14877607 0.096751675 -0.07481602
-0.061772633 0.040777165 0.07014499 -0.037703943 0.12201446 -0.15823174 0.08131322 -0.17933993
0.1130482 0.017248584 0.02487305 -0.09412142 0.17731977 -0.0121556325 0.021791616 -0.044429395
-0.21271455 -0.04913306 0.12786773 0.06805424 -0.14747553 -0.021842316 0.06654195 0.011149972
-0.16871192 -0.044286326 0.053230796 -0.0145725515 -0.035458982 0.02728501 0.059357177 -0.08819284
-0.06409889 -0.0038438302 0.060341578 0.12282848 -0.11722718 -0.0027580603 -0.068411276 0.0016400357
-0.018684776 0.0035063138 0.0009915682 -0.009927882 0.114702135 -0.19713618 0.008014995 -0.20595208
-0.0027881856 -0.044292957 0.18735875 0.09767145 0.12098555 0.10148122 -0.06323949 -0.025066858
-0.12974398 0.058903597 -0.10940475 -0.09074122 0.09257867 -0.10226792 0.09316149 0.0442892
-0.02755496 0.039075643 0.069534644 -0.098698825 0.057226207 0.03885179 -0.10171373 -0.09597263
0.09523388 -0.04730416 -0.23215513 -0.13442832 0.14428973 0.098541945 0.1394866 -0.12423102
0.11544372 0.19116832 0.047589026 -0.026094487 -0.02512047 -0.09702666 -0.02773367 0.174958
-0.08281368 -0.16905378 0.13855927 0.0022588265 -0.11669039 0.18433845 0.00830238 -0.07204506
0.013882378 0.06597226 -0.044649318 0.08993329 0.08540723 0.18850866 -0.11973675 -0.1308997
0.18308188 -0.15344235 0.12457682 -0.06579202 -0.17855608 -0.007847751 -0.12764534 0.103261344
0.05141683 -0.13928816 0.013815172 -0.05508642 -0.03192646 -0.07399415 0.11173198 -0.09772291
0.17444062 -0.09791001 -0.0038870473 -0.023402963 0.15019387 -0.0013279037 -0.035560206 0.05084393
0.026902836 -0.14973733 -0.05817845 0.1676009 0.15225405 -0.0455371 -0.07405741 0.16658372
0.07713593 -0.15358497 0.13457623 0.08153219 0.11001972 -0.11796649 -0.056365553 -0.1484265
0.049032807 -0.16283758 0.13667507 -0.14785983 0.029335333 -0.12730607 -0.04832682 -0.016608449
-0.042276133 0.092682585 0.10076467 -0.1529501 0.08973603 -0.025093023 -0.07842792 0.1199696
-0.10518546 -0.1353178 -0.12388333 -0.08052366 0.03511275 -0.026446076 0.1490638 0.11643837
0.009717888 -0.18266624 -0.08414392 -0.043077286 -0.033006694 -0.13987862 -0.17815977 0.0046803467
-0.06968367 -0.12534343 -0.21311003 -0.07952399 0.12311451 -0.15659717 -0.10400689 0.14165021
0.1874463 0.19002222 -0.06632907 0.028913712 -0.018558796 0.13125142 -0.08186123 -0.024338447
-0.08689833 -0.16138126 -0.022271218 -0.12522544 -0.16888471 0.14153206 0.10301042 -0.19497658
00000000: f828 e0bd ca09 8e3e 3bcb 7dbe aadd 873d
00000010: 936c 203e 39b4 8aba 684f e4bd 505a 1dbe
00000020: 5451 383e f123 4d3e f668 c83d 79fb e6bd
00000030: ccdf 31bd 24c4 db3d a00b d93d 3b70 573d
00000040: 4ec8 16be b867 b63b 3a6a 193e 8009 893d
00000050: 9a4e b93d 6e09 f83d bf65 313e 4540 613d
00000060: 3eb6 d5bd a44d eebc 44a1 d9bd 1e7e 4f3e
00000070: 37b0 de3d 39dd a93d a6b4 e23d 6201 02be
00000080: b8b5 e1bc 8a02 75be 6047 653e 9884 0b3e
00000090: 9f80 bc3d e1af 433d 71b5 213e a39f 0f3e
000000a0: e9e8 5a3d 466b f93d 7430 823d 4cf6 66bd
000000b0: 77c7 ad3d 1f1c 13be 922a a43d 9730 183d
000000c0: 7241 543d 3262 a5bc a815 15bd 7334 42bd
000000d0: 29f9 75bd c158 18be be25 c63d 2439 99bd
000000e0: 4d05 7dbd f505 273d 2da8 8f3d 736f 1abd
000000f0: b8e2 f93d 8007 22be 8c87 a63d e3a4 37be
00000100: d185 e73d e74c 8d3c 91c2 cb3c bbc2 c0bd
00000110: 5093 353e 6b28 47bc 5584 b23c 99fb 35bd
00000120: d8d1 59be bf3f 49bd c2ef 023e 0560 8b3d
00000130: d303 17be a8ee b2bc 2547 883d 5fae 363c
00000140: d1c2 2cbe 9465 35bd 8908 5a3d b6c1 6ebc
00000150: 703d 11bd d084 df3c 8320 733d 739e b4bd
00000160: 4746 83bd c5e8 7bbb bb28 773d 808d fb3d
00000170: ce14 f0bd 93c0 34bb 361b 8cbd 77f6 d63a
00000180: d110 99bc 2fca 653b 82f7 813a 8ea8 22bc
00000190: f4e8 ea3d 11de 49be 5351 033c 1ae5 52be
000001a0: feb9 36bb 886c 35bd f9da 3f3e f807 c83d
000001b0: 46c7 f73d 63d5 cf3d b583 81bd 0359 cdbc
000001c0: 9bdb 04be e644 713d 990f e0bd 88d6 b9bd
000001d0: e399 bd3d d871 d1bd 74cb be3d 9868 353d
000001e0: f1ba e1bc c80d 203d 2e68 8e3d 9c22 cabd
000001f0: 0766 6a3d 0e23 1f3d 4a4f d0bd 4c8d c4bd
00000200: fb09 c33d 02c2 41bd 13ba 6dbe 94a7 09be
00000210: b0c0 133e 5cd0 c93d 93d5 0e3e d56c febd
00000220: c26d ec3d a1c1 433e b6ec 423d 1bc4 d5bc
00000230: 72c9 cdbc eab5 c6bd b931 e3bc 3128 333e
00000240: 389a a9bd 6f1c 2dbe 7be2 0d3e d208 143b
00000250: 5ffb eebd 38c3 3c3e b506 083c 5c8c 93bd
00000260: ea72 633c 771c 873d 34e2 36bd f22e b83d
00000270: fce9 ae3d 6a08 413e 8b38 f5bd 920a 06be
00000280: d179 3b3e fe1f 1dbe 2222 ff3d f7bd 86bd
00000290: 68d7 36be da93 00bc 76b5 02be af7a d33d
000002a0: 749a 523d 8ea1 0ebe 0859 623c 4ca2 61bd
000002b0: 52c5 02bd 3f8a 97bd bdd3 e43d f322 c8bd
000002c0: 90a0 323e 0b85 c8bd d5bd 7ebb 92b7 bfbc
000002d0: 6ccc 193e 0e0d aeba 94a7 11bd ba41 503d
000002e0: 5663 dc3c be54 19be 874c 6ebd 929f 2b3e
000002f0: 7ce8 1b3e 1c85 3abd 69ab 97bd ec94 2a3e
00000300: 71f9 9d3d 6145 1dbe 5ace 093e 59fa a63d
00000310: 0552 e13d 6a98 f1bd 91df 66bd 1efd 17be
00000320: a0d6 483d e5be 26be 8df4 0b3e 9168 17be
00000330: a750 f03c 865c 02be 58f2 45bd 710e 88bc
00000340: bd29 2dbd 5ed0 bd3d b55d ce3d f39e 1cbe
00000350: 86c7 b73d e28f cdbc d19e a0bd 9fb2 f53d
00000360: 796b d7bd c090 0abe 8bb6 fdbd 97e9 a4bd
00000370: 63d2 0f3d 71a5 d8bc 2ea4 183e 3d77 ee3d
00000380: c737 1f3c dc0c 3bbe a653 acbd cf71 30bd
00000390: 0732 07bd 573c 0fbe 846f 36be 985d 993b
000003a0: 50b6 8ebd 075a 00be 8439 5abe 79dd a2bd
000003b0: 7623 fc3d 025b 20be 9001 d5bd c10c 113e
000003c0: ecf1 3f3e 2f95 423e 89d7 87bd 73dc ec3c
000003d0: 9e08 98bc c666 063e dca6 a7bd 6c61 c7bc
000003e0: c0f7 b1bd 2141 25be 2172 b6bc 193b 00be
000003f0: 1df0 2cbe c8ed 103e 21f7 d23d f1a7 47be

stat_predictor.cond_mlp.0.bias f4 [16]
-0.059049435 -0.102415875 0.16744733 -0.11572294 0.15474547 0.014009281 -0.03625643 -0.20009612
-0.12060348 -0.07014566 0.11186177 -0.0022421542 0.018905353 0.010074721 -0.11006771 0.08214346
00000000: d2dd 71bd 6abf d1bd 5077 2b3e 2600 edbd
00000010: 9975 1e3e 2f87 653c 9f81 14bd ffe5 4cbe
00000020: f5fe f6bd 87a8 8fbd c917 e53d 1bf1 12bb
00000030: 66df 9a3c 7110 253c 2e6b e1bd d53a a83d

stat_predictor.cond_mlp.2.weight f4 [16, 16]
0.24834104 -0.23094551 0.2127538 -0.20248622 0.27312976 0.10745147 0.12877306 -0.06393431
-0.11118114 0.07219516 -0.1050695 0.093213715 0.046652343 0.18427357 0.07379329 -0.06446649
-0.05366306 0.18187791 0.15575898 -0.12180599 -0.24597858 0.18799566 0.25557807 0.026191501
-0.124570474 -0.11246475 -0.13632604 0.025078544 -0.060983554 0.14892079 0.0647171 0.19444376
-0.21935055 -0.0984205 0.14383554 -0.1084443 -0.3067046 0.1440225 0.31616008 -0.170731
-0.1283297 -0.17196481 -0.2783342 -0.03138054 0.2404281 -0.17786622 -0.014132372 0.036024027
-0.02667792 0.0670083 0.14301245 -0.07098269 0.18234308 0.058975067 -0.28372556 -0.2575072
0.11355144 0.14513795 -0.043542832 0.07505643 0.06797755 0.25527176 0.19094378 -0.07629489
-0.08870873 0.101362884 -0.16499588 0.22774248 0.012997587 -0.23974477 0.13871677 -0.22157754
0.043221664 -0.042871255 0.026297525 -0.21060897 -0.115585834 -0.11724149 -0.122169696 0.25511312
-0.019500557 -0.17779797 0.038801916 0.10235178 -0.10868024 0.14896147 0.24061033 -0.18121484
0.1030862 0.20692341 0.18559833 -0.20102592 0.19815005 -0.07761378 0.078184314 -0.05157462
-0.22323677 0.15307392 0.18764322 -0.044583175 0.15790543 0.14642844 0.09921113 0.11054676
0.02180457 0.20437369 -0.07403046 0.016531752 -0.15584244 -0.10498072 0.16581675 0.1442612
-0.2449462 0.122907706 0.107310034 0.22189592 -0.18552427 -0.03896213 -0.0020701638 0.013265577
0.20875046 0.09455939 -0.0057842373 0.0048749438 -0.16838469 -0.03789873 -0.06953264 -0.012404953
-0.21417579 0.018298775 -0.07859881 0.09193887 0.070159204 0.057379764 0.021223627 -0.013863098
-0.011888669 0.19615613 0.13366269 -0.1994716 -0.15588127 0.23892343 -0.16702089 -0.031273507
0.014458907 0.003608301 -0.09099889 0.09407805 0.0021139134 0.04874454 -0.16285746 0.049499486
-0.12699424 -0.18403603 -0.014167218 -0.20524438 0.13669814 0.06285256 -0.16623816 -0.18530555
-0.21064413 -0.11826656 -0.11184839 0.1510362 0.13154568 0.077698335 0.31878072 -0.07363346
0.017446049 0.25843626 -0.07543513 -0.05492286 0.0012464332 -0.022299867 -0.22870699 -0.07952622
-0.1324321 0.22948684 0.06291547 -0.23452911 0.06914464 0.05949076 0.28812826 0.06572811
-0.26689947 0.10711502 -0.063789405 0.1315968 0.21951546 -0.032818597 0.08039812 0.1416966
-0.1023305 0.021722535 -0.14978747 0.012058359 -0.26867074 -0.04502915 -0.22254725 0.21535374
-0.20681797 -0.14656283 -0.17918555 -0.17815444 0.05404983 0.08421158 0.09399612 -0.1626523
0.08309849 0.0683349 -0.19546592 -0.12551126 0.1367378 -0.15936334 0.06722881 -0.020834843
0.25760958 0.21897008 0.06715486 0.19180816 0.041854333 0.09271303 0.06793166 -0.23400156
0.00024527218 0.16649356 0.14160092 0.1586629 -0.21158408 -0.09839375 0.029882273 0.12923166
-0.19558868 0.14212649 -0.2162628 -0.21680711 0.016965624 0.15829606 -0.17762822 0.07571213
0.16421129 -0.16707079 -0.07254899 -0.2268693 0.17915972 -0.013377456 -0.071163386 -0.1723027
-0.06704918 0.13721277 -0.028820066 -0.11924085 0.12188987 -0.115276545 0.022231463 -0.035353493
00000000: 1d4d 7e3e fb7c 6cbe 22dc 593e 8c58 4fbe
00000010: aad7 8b3e 840f dc3d 16dd 033e feef 82bd
00000020: f0b2 e3bd 0edb 933d ae2e d7bd d5e6 be3d
00000030: 8716 3f3d 36b2 3c3e f020 973d 0207 84bd
00000040: cccd 5bbd 343e 3a3e 487f 1f3e 6b75 f9bd
00000050: cfe1 7bbe ef81 403e 21db 823e 8f8f d63c
00000060: ce1e ffbd eb53 e6bd 0e99 0bbe 8571 cd3c
00000070: e4c9 79bd b17e 183e 668a 843d 441c 473e
00000080: 6e9d 60be b090 c9bd a049 133e 0c18 debd
00000090: 6308 9dbe a27a 133e bcdf a13e 1bd4 2ebe
000000a0: dc68 03be 8b17 30be d281 8ebe e288 00bd
000000b0: c932 763e 9022 36be 778b 67bc ee8d 133d
000000c0: a78b dabc a63b 893d db71 123e 5f5f 91bd
000000d0: 25b8 3a3e d78f 713d 7a44 91be fcd7 83be
000000e0: a88d e83d 0b9f 143e f859 32bd 30b7 993d
000000f0: d037 8b3d fbb2 823e c486 433e 7f40 9cbd
00000100: ecac b5bd 5897 cf3d aef4 28be 5335 693e
00000110: d5f3 543c a77f 75be c50b 0e3e 39e5 62be
00000120: 3309 313d c599 2fbd e86d d73c e1a9 57be
00000130: 44b8 ecbd 4e1c f0bd 1b34 fabd 309e 823e
00000140: a2bf 9fbc ac10 36be c2ee 1e3d cf9d d13d
00000150: bf93 debd 5b89 183e 8e62 763e 6290 39be
00000160: dc1e d33d bbe3 533e 7d0d 3e3e bdd9 4dbe
00000170: d9e7 4a3e f9f3 9ebd 191f a03d e93f 53bd
00000180: 2e98 64be 69bf 1c3e 8b25 403e d99c 36bd
00000190: f6b1 213e 56f1 153e 342f cb3d 5766 e23d
000001a0: 7f9f b23c 5647 513e 489d 97bd 996d 873c
000001b0: 2995 1fbe 2200 d7bd decb 293e 35b9 133e
000001c0: 2dd3 7abe 09b7 fb3d 5dc5 db3d af38 633e
000001d0: 13fa 3dbe c196 1fbd 96ab 07bb dd57 593c
000001e0: aec2 553e 5aa8 c13d b389 bdbb febd 9f3b
000001f0: 096d 2cbe b33b 1bbd 2167 8ebd 253e 4bbc
00000200: e650 5bbe 50e7 953c 6af8 a0bd 724a bc3d
00000210: a1af 8f3d 0b07 6b3d 2cdd ad3c 0c22 63bc
00000220: b1c8 42bc 27dd 483e dfde 083e 4842 4cbe
00000230: 579f 1fbe 58a8 743e 8607 2bbe a618 00bd
00000240: 0de5 6c3c 3f79 6c3b a05d babd feab c03d
00000250: 9589 0a3b 5ba8 473d 1bc4 26be f9bf 4a3d
00000260: c70a 02be f173 3cbe 9e1d 68bc 952b 52be
00000270: 99fa 0b3e d8b8 803d 563a 2abe bdc0 3dbe
00000280: 18b3 57be bd35 f2bd c510 e5bd 3ca9 1a3e
00000290: e9b3 063e 4e20 9f3d 3a37 a33e 24cd 96bd
000002a0: 04eb 8e3c c251 843e bc7d 9abd cbf6 60bd
000002b0: 5c5f a33a 36ae b6bc 2a32 6abe a5de a2bd
000002c0: 489c 07be 99fe 6a3e d3d9 803d 6628 70be
000002d0: b49b 8d3d 95ac 733d 8c85 933e 769c 863d
000002e0: 0ca7 88be 1f5f db3d 05a4 82bd 50c1 063e
000002f0: a9c8 603e cb6c 06bd c5a7 a43d ea18 113e
00000300: a792 d1bd 75f3 b13c e361 19be 6c90 453c
00000310: 368f 89be 7c70 38bd 6de3 63be b185 5c3e
00000320: 17c8 53be 9114 16be 6b7c 37be 1e6e 36be
00000330: 5b63 5d3d 1f77 ac3d 0a81 c03d 538e 26be
00000340: 8b2f aa3d 2bf3 8b3d 3828 48be 0686 00be
00000350: fe04 0c3e 2530 23be 42af 893d d5ad aabc
00000360: 67e5 833e b139 603e 7d88 893d 5c69 443e
00000370: 736f 2b3d 54e0 bd3d c11f 8b3d 1b9e 6fbe
00000380: e097 8039 4a7d 2a3e d5ff 103e 8778 223e
00000390: 7fa9 58be aa82 c9bd abcb f43c 4e55 043e
000003a0: 6648 48be 9b89 113e ff73 5dbe af02 5ebe
000003b0: 7efb 8a3c 5d18 223e 2ce4 35be f60e 9b3d
000003c0: 0127 283e 9b14 2bbe 9194 94bd 6d50 68be
000003d0: a575 373e 1e2d 5bbc 1cbe 91bd 1e70 30be
000003e0: 1551 89bd 8181 0c3e 0f18 ecbc 8c34 f4bd
000003f0: 65a1 f93d 1c16 ecbd c21e b63c d3ce 10bd

stat_predictor.cond_mlp.2.bias f4 [16]
0.13118413 -0.07783478 -0.22778372 -0.03160944 -0.013339476 0.20951836 0.057127926 -0.084207706
-0.109293774 0.009788012 -0.11544592 -0.088329665 0.16299026 0.16994172 0.105636686 0.1365715
00000000: 2255 063e d767 9fbd 2340 69be e678 01bd
00000010: d18d 5abc fb8b 563e f9fe 693d 1775 acbd
00000020: 6ad5 dfbd e65d 203c e96e ecbd 2fe6 b4bd
00000030: ebe6 263e 3405 2e3e 0c58 d83d 66d9 0b3e

stat_predictor.stat_mlp.0.weight f4 [16, 16]
-0.089307286 -0.13998735 -0.2628577 -0.05933296 0.14934495 -0.12843457 0.04681682 0.05404856
0.012006417 -0.1312508 0.012339944 0.06116975 -0.1827954 0.1456562 -0.21398894 0.28554386
-0.17393816 0.13967994 0.025918365 0.21885718 0.25198686 0.19723018 0.2685979 -0.13336894
0.16946274 -0.22021393 0.14071074 -0.16353646 -0.17123148 -0.1886182 -0.08804483 -0.15870382
-0.06139368 0.14531666 0.25699082 0.16079478 0.15812592 -0.22500838 -0.2025704 0.08072562
-0.18160522 -0.15019429 -0.18817434 -0.21434739 0.19030686 0.12463331 0.23567669 -0.018170975
0.22202635 0.19503403 0.22961383 0.20714864 -0.12303862 0.021703409 -0.047613855 -0.017145295
0.18580218 -0.11874495 -0.04418966 -0.18584795 -0.044734947 0.05386134 0.18625174 0.0215017
-0.13224168 -0.14913082 0.0857708 -0.057897195 -0.086221196 -0.10445928 0.07856899 0.1830809
-0.0949369 -0.08148977 0.05718669 0.004885225 0.043314926 0.06420496 -0.087573886 -0.09141701
-0.031589042 -0.095609106 -0.06413896 0.048702545 -0.079417445 0.1134598 0.073238514 -0.043931283
0.16632664 -0.04351425 0.024249641 -0.06661413 -0.24342325 0.16464117 -0.13148245 0.066005364
0.20728905 -0.11033684 0.18765885 0.121026926 -0.042257838 0.15632623 -0.12576653 -0.2458064
-0.12196514 -0.10225324 -0.24123704 -0.098515004 0.23912922 -0.10933087 0.19085076 -0.23956013
-0.19149354 0.032544486 0.07574697 -0.09013792 0.034825165 0.09010883 0.109766655 -0.15868716
0.011148764 -0.058793217 0.24686746 -0.133947 0.1555278 0.14789666 -0.11061843 -0.16913176
0.14797215 0.0089162085 -0.07658921 0.09898989 0.046052676 -0.19652423 -0.20068933 -0.22276844
-0.22165187 -0.20474778 -0.1037005 -0.15439871 0.0706783 0.23990957 -0.16140375 -0.006901512
0.036991913 -0.070326775 0.08676406 0.106071904 0.12256547 0.16897663 0.14884678 0.28566134
0.048931986 0.074607424 0.17725764 0.15024622 -0.07752895 0.1130904 -0.073135346 -0.044121373
-0.110949874 0.07803883 -0.22363275 -0.14103724 0.12849103 0.099829555 -0.19224578 -0.1757406
0.14217289 -0.1328109 -0.04216305 0.16603644 -0.104951896 0.23253416 0.0008450593 -0.037638605
0.0025700878 -0.14802015 -0.05747217 0.10545553 0.056015596 -0.19707043 -0.13790002 0.047186315
-0.24836934 0.19027582 -0.14756136 0.08993844 -0.10216624 0.22632872 -0.015339196 0.20442268
0.27588132 -0.2529144 -0.13352656 0.0057282047 0.16651902 0.23533404 0.0056034955 -0.08334274
-0.0066769486 0.15032864 0.10045555 -0.2761073 -0.04634202 0.04577169 -0.012825317 0.14038609
-0.027863814 -0.037642855 0.045073487 0.23106731 0.011598524 -0.1775627 -0.08318158 0.125642
-0.08972957 -0.046557803 0.20937395 0.06840016 -0.023105342 0.1244293 0.10786851 -0.012662816
0.29618874 -0.15565975 -0.022963233 0.0976522 0.017283225 -0.18656729 0.088013016 -0.23400742
-0.036046654 -0.04952142 -0.10472583 0.11283367 0.048183016 0.039741024 -0.15399453 0.2450818
-0.18704885 0.25202146 -0.18967752 0.18134578 -0.0999306 -0.22312692 0.10806812 -0.07614721
0.07471318 -0.19672948 0.29286018 0.26831946 0.024525018 0.038110748 -0.12751935 -0.09079993
00000000: bde6 b6bd d858 0fbe 4995 86be 1e07 73bd
00000010: e2ed 183e 5a84 03be fec2 3f3d 0662 5d3d
00000020: 90b6 443c 9c66 06be 7a2d 4a3c 228d 7a3d
00000030: b82e 3bbe e626 153e eb1f 5bbe ce32 923e
00000040: d81c 32be 4208 0f3e c052 d43c 191c 603e
00000050: 6c04 813e b5f6 493e aa85 893e de91 08be
00000060: a487 2d3e c37f 61be 7a16 103e 1a76 27be
00000070: 4e57 2fbe 2125 41be d950 b4bd 4183 22be
00000080: f077 7bbd e4cd 143e 4d94 833e 63a7 243e
00000090: c3eb 213e 9968 66be 9d6e 4fbe 7953 a53d
000000a0: b8f6 39be 88cc 19be c6b0 40be e27d 5bbe
000000b0: cddf 423e c03f ff3d 3b55 713e 4cdb 94bc
000000c0: e05a 633e 00b7 473e e31f 6b3e c61e 543e
000000d0: acfb fbbd 59cb b13c bf06 43bd 4a74 8cbc
000000e0: ed42 3e3e 8d30 f3bd 3800 35bd ed4e 3ebe
000000f0: fe3b 37bd b59d 5c3d c7b8 3e3e 5524 b03c
00000100: 5d6a 07be c0b5 18be 9aa8 af3d 9c25 6dbd
00000110: bd94 b0bd bfee d5bd c7e8 a03d 8f79 3b3e
00000120: 476e c2bd 1ce4 a6bd 973c 6a3d 3d14 a03b
00000130: fe6a 313d e47d 833d f059 b3bd d738 bbbd
00000140: 8363 01bd b5ce c3bd 495b 83bd 527c 473d
00000150: 9da5 a2bd 9d5d e83d 13fe 953d 4af1 33bd
00000160: 8851 2a3e 003c 32bd 2fa7 c63c fd6c 88bd
00000170: f243 79be b297 283e 56a3 06be d22d 873d
00000180: 9543 543e 48f8 e1bd a429 403e f7dc f73d
00000190: 8e16 2dbd fc13 203e f1c8 00be acb4 7bbe
000001a0: dcc8 f9bd 266a d1bd d806 77be 3cc2 c9bd
000001b0: 4ade 743e dde8 dfbd 626e 433e 404f 75be
000001c0: e216 44be 5e4d 053d 3a21 9b3d 3b9a b8bd
000001d0: d5a4 0e3d fa8a b83d 57cd e03d e37e 22be
000001e0: 4ea9 363c 28d1 70bd d3ca 7c3e 6729 09be
000001f0: ae42 1f3e 3972 173e ea8b e2bd e030 2dbe
00000200: 0386 173e 4a15 123c ceda 9cbd 36bb ca3d
00000210: bba1 3c3d a63d 49be 8181 4dbe 691d 64be
00000220: b5f8 62be 67a9 51be ee60 d4bd b21a 1ebe
00000230: c9bf 903d dbaa 753e 0647 25be 1426 e2bb
00000240: d584 173d 7c07 90bd 5bb1 b13d 3a3c d93d
00000250: 9b03 fb3d 3608 2d3e 4a6b 183e 3442 923e
00000260: e86c 483d c7cb 983d 0783 353e 25da 193e
00000270: 80c7 9ebd f19b e73d fcc7 95bd 9db8 34bd
00000280: b039 e3bd d2d2 9f3d fcff 64be 116c 10be
00000290: 2793 033e 7073 cc3d 14dc 44be 58f5 33be
000002a0: c595 113e 95ff 07be 2ab3 2cbd 7505 2a3e
000002b0: 05f1 d6bd 6f1d 6e3e f886 5d3a f02a 1abd
000002c0: eb6e 283b 9892 17be f067 6bbd 12f9 d73d
000002d0: 9c70 653d d5cc 49be aa35 0dbe 7046 413d
000002e0: 8854 7ebe aad7 423e 531a 17be a531 b83d
000002f0: 893c d1bd b7c2 673e 4051 7bbc 2e54 513e
00000300: 5140 8d3e ff7d 81be 30bb 08be aab3 bb3b
00000310: f683 2a3e 68fb 703e 879d b73b 99af aabd
00000320: 4eca dabb c0ef 193e a4bb cd3d f05d 8dbe
00000330: 21d1 3dbd 187b 3b3d 4721 52bc 5fc1 0f3e
00000340: a742 e4bc 652f 1abd fa9e 383d e99c 6c3e
00000350: bc07 3e3c ffd2 35be 1b5b aabd 4ca8 003e
00000360: 23c4 b7bd 65b3 3ebd 2066 563e 6215 8c3d
00000370: 6a47 bdbc cad4 fe3d 2aea dc3d b377 4fbc
00000380: 0da6 973e 4565 1fbe 641d bcbc e0fd c73d
00000390: 8d95 8d3c 7f0b 3fbe 2b40 b43d a49f 6fbe
000003a0: a8a5 13bd f9d6 4abd 7f7a d6bd 5715 e73d
000003b0: 8e5b 453d 7cc7 223d beb0 1dbe b9f6 7a3e
000003c0: bc89 3fbe f508 813e d33a 42be b5b2 393e
000003d0: 6aa8 ccbd 627b 64be d252 dd3d 12f3 9bbd
000003e0: 3903 993d 7473 49be c5f1 953e 2b61 893e
000003f0: b1e8 c83c 041a 1c3d 6f94 02be 50f5 b9bd

stat_predictor.stat_mlp.0.bias f4 [16]
0.040773243 -0.16433345 -0.253389 0.1022818 0.17089643 -0.18350975 -0.046742886 -0.27865127
0.2196202 0.030054223 -0.046659015 -0.14159834 0.2290845 0.051132463 -0.17075261 0.15123542
00000000: d801 273d 0747 28be 34bc 81be 1f79 d13d
00000010: 79ff 2e3e fbe9 3bbe 7875 3fbd 61ab 8ebe
00000020: 1ee4 603e 4634 f63c 861d 3fbd 28ff 10be
00000030: 2195 6a3e 4670 513d c6d9 2ebe 75dd 1a3e

stat_predictor.stat_mlp.2.weight f4 [2, 16]
-0.013320846 -0.0824509 0.1386655 -0.12782942 0.12058463 0.09302679 -0.123344734 0.1160312
0.21318962 0.11776728 -0.081434265 -0.11118487 -0.075955674 -0.015007078 0.026462054 0.029405221
-0.1720577 0.14861989 0.09142613 0.041662317 0.16272351 0.1745072 -0.098223284 0.18530223
-0.27962628 0.2534468 -0.06669139 -0.24196513 -0.27623823 0.07474889 -0.19798695 0.12854886
00000000: ad3f 5abc 04dc a8bd 54fe 0d3e b7e5 02be
00000010: 13f5 f63d d484 be3d 2a9c fcbd c4a1 ed3d
00000020: 614e 5a3e f92f f13d 02c7 a6bd e5b4 e3bd
00000030: a68e 9bbd 3fe0 75bc f3c6 d83c 38e3 f03c
00000040: e52f 30be d02f 183e 9f3d bb3d 1ba6 2a3d
00000050: fea0 263e 04b2 323e 4a29 c9bd debf 3d3e
00000060: 2d2b 8fbe c7c3 813e 7f95 88bd b5c5 77be
00000070: 196f 8dbe f215 993d 17bd 4abe 50a2 033e

stat_predictor.stat_mlp.2.bias f4 [2]
0.019282715 0.08239084
00000000: c9f6 9d3c 87bc a83d

unet.init_conv.weight f4 [8, 1, 3]
-0.49264145 0.5622827 -0.588053 -0.19254898 -0.82692677 -0.16936131 0.3562639 0.025604552
0.1090195 0.32750106 0.41993257 0.4484625 0.7428728 0.52346456 0.09500829 0.29586825
-0.6088707 -0.14658837 -0.5379867 0.44417647 0.14129983 0.35398805 -0.4906691 -0.27072042
00000000: 803b fcbe c2f1 0f3f a48a 16bf 8f2b 45be
00000010: 79b1 53bf 0d6d 2dbe 3968 b63e a3c0 d13c
00000020: 9e45 df3d 38ae a73e 6701 d73e e09c e53e
00000030: e92c 3e3f c601 063f b593 c23d 0b7c 973e
00000040: f3de 1bbf 431b 16be 7fb9 09bf 196b e33e
00000050: e7b0 103e ec3d b53e fb38 fbbe de9b 8abe

unet.init_conv.bias f4 [8]
-0.14326574 0.03075884 -0.39922458 0.4880794 0.28389108 0.41173726 -0.49495926 0.17802258
00000000: 41b4 12be f6f9 fb3c 2a67 ccbe 8be5 f93e
00000010: 2c5a 913e 3acf d23e 4d6b fdbe 8d4b 363e

unet.time_mlp.0.weight f4 [64, 16]
0.07405093 0.11493119 0.11483208 -0.077374145 -0.15068361 -0.2702588 0.103473425 0.11653689
0.18147355 -0.19591111 -0.11604706 0.028883124 -0.037505466 -0.14661992 -0.076852895 -0.05580635
0.22698508 0.11151235 0.15983698 -0.14403616 0.044813484 -0.06239456 -0.057310738 -0.28004244
-0.06372046 0.1396974 -0.015377127 0.17873076 -0.18530507 0.10796487 0.13214564 0.21263573
-0.076420695 -0.06721644 -0.42476436 0.09173173 0.3549996 0.4002744 0.14183812 0.17159346
-0.21130922 -0.0192968 -0.40734226 0.17628305 0.22885524 0.2405116 0.013105181 -0.08874781
-0.19972643 -0.23848718 -0.18211502 0.04949345 0.05558323 0.21001665 -0.085371874 0.25085703
0.05279685 0.21133304 -0.10587833 -0.0015143995 0.22479884 0.122536026 -0.21115877 0.08738331
0.1349973 0.12620525 -0.3141398 0.49927083 0.40576965 0.19140165 0.34665957 0.4097546
0.051183663 0.23185766 -0.060466435 -0.13626437 0.05338484 -0.02731196 0.30133393 -0.00391946
0.2466205 -0.022874253 -0.34434915 0.13708776 0.4329065 0.3472209 0.10602721 0.42666256
0.020026453 0.23203829 0.063574314 -0.016449245 0.2395366 -0.13065626 0.26068383 -0.03298442
0.18578885 0.07127905 0.22862685 -0.037088733 0.2717171 0.10975726 0.061763864 -0.019531088
0.07687129 -0.26331392 -0.11744125 -0.057953037 0.2092839 -0.21637689 0.08920598 0.17965706
-0.042460952 0.10102619 0.055654652 -0.37120765 -0.27955365 -0.44462994 -0.2461605 -0.051600497
0.2457554 -0.008225823 0.2746014 0.0633014 -0.1499328 0.24317585 -0.18599752 0.20881513
-0.09316374 0.114012465 0.17188762 -0.017583495 0.025714826 -0.12656415 -0.06725954 -0.21358992
0.25204068 0.026097015 -0.04593448 0.1734403 0.07530939 -0.0383634 0.11056959 0.11565434
-0.18612094 -0.11911795 -0.27160245 0.16546571 -0.12526534 -0.03551201 -0.10684 0.15224789
-0.16137087 0.15448342 -0.08789316 0.017513724 -0.18627095 -0.2105335 -0.028893406 -0.08749375
-0.07998962 0.21726844 0.16613889 -0.03523694 -0.1337506 0.0032011622 -0.43294692 0.0273202
0.26972997 0.36936802 0.32697123 -0.19486558 -0.077438556 0.19302486 0.031644065 -0.05955025
0.12772928 0.319129 0.23924537 -0.19844048 -0.48116338 -0.2297959 -0.27715036 -0.4831015
-0.15101372 0.32390866 0.42217058 0.106870666 0.00092073117 0.026377091 -0.1790368 0.026405307
-0.092351414 -0.16144091 -0.24322768 0.2557193 0.14781484 0.32223636 0.44799116 0.3445975
0.088749245 -0.25856838 0.036412876 -0.15384181 0.14130563 0.14865765 -0.03559344 0.23460656
0.20464927 -0.088696994 -0.027355408 0.1684729 0.019984331 0.3092706 0.1144777 -0.1323031
-0.059959985 0.09248876 -0.02132021 -0.0610418 0.099408016 0.034592066 -0.120225534 -0.043973453
0.07095326 0.24912077 -0.08962166 -0.31308857 -0.021145115 -0.30985093 0.06512879 -0.301524
-0.20853332 0.06270359 0.06904795 0.2311813 0.0038619356 -0.13691048 -0.08563881 0.15397458
-0.20078054 0.11276272 -0.31964517 0.14906885 0.58728707 0.5623455 0.21757154 0.20978226
-0.026117258 0.08742036 -0.2897773 -0.14822896 0.026377343 0.1477069 -0.07143441 0.16627625
00000000: 04a8 973d 0b61 eb3d 152d eb3d 5676 9ebd
00000010: ce4c 1abe 5d5f 8abe e0e9 d33d e5aa ee3d
00000020: 34d4 393e ec9c 48be 15aa edbd 4d9c ec3c
00000030: 559f 19bd 8823 16be 0d65 9dbd 3395 64bd
00000040: c76e 683e 9660 e43d 4eac 233e 377e 13be
00000050: 588e 373d 7091 7fbd aabe 6abd b961 8fbe
00000060: df7f 82bd d60c 0f3e 58f0 7bbc 3205 373e
00000070: 9dc0 3dbe b01c dd3d 3051 073e 2ebd 593e
00000080: 7482 9cbd c6a8 89bd b77a d9be d8dd bb3d
00000090: 82c2 b53e c4f0 cc3e 033e 113e 32b6 2f3e
000000a0: 7261 58be 5314 9ebc 2a8f d0be 8b83 343e
000000b0: 0759 6a3e ac48 763e 1db7 563c 69c1 b5bd
000000c0: 1685 4cbe fc35 74be 5c7c 3abe a5b9 4a3d
000000d0: 3eab 633d 9b0e 573e 73d7 aebd 5570 803e
000000e0: 8341 583d b067 583e bdd6 d8bd d17e c6ba
000000f0: ab31 663e 2bf4 fa3d 013a 58be 05f6 b23d
00000100: bb3c 0a3e f33b 013e efd6 a0be 6da0 ff3e
00000110: 0ac1 cf3e cbfe 433e 5d7d b13e 5bcb d13e
00000120: f6a5 513d 186c 6d3e a7ab 77bd e388 0bbe
00000130: 10aa 5a3d 55bd dfbc 7148 9a3e d06e 80bb
00000140: 168a 7c3e c962 bbbc 884e b0be bc60 0c3e
00000150: eca5 dd3e f0c6 b13e cb24 d93d 8473 da3e
00000160: 840e a43c 729b 6d3e 4033 823d 91c0 86bc
00000170: 1549 753e c1ca 05be 5a78 853e ac1a 07bd
00000180: 6f3f 3e3e c0fa 913d 281d 6a3e 5bea 17bd
00000190: 811e 8b3e 6ac8 e03d 1bfc 7c3d a9ff 9fbc
000001a0: b26e 9d3d 15d1 86be 0a85 f0bd 2a60 6dbd
000001b0: 854e 563e e791 5dbe a0b1 b63d 05f8 373e
000001c0: 89eb 2dbd d2e6 ce3d 22f6 633d ee0e bebe
000001d0: a821 8fbe 89a6 e3be 8011 7cbe 0b5b 53bd
000001e0: 4ea7 7b3e 9ac5 06bc 8e98 8c3e 2aa4 813d
000001f0: fc87 19be 1703 793e 2276 3ebe a2d3 553e
00000200: a2cc bebd 5e7f e93d 4f03 303e 430b 90bc
00000210: e6a7 d23c 089a 01be 5fbf 89bd 51b7 5abe
00000220: 7a0b 813e 68c9 d53c cb25 3cbd 569a 313e
00000230: cf3b 9a3d f122 1dbd 4f72 e23d 2fdc ec3d
00000240: 7d96 3ebe 1df4 f3bd 7a0f 8bbe d86f 293e
00000250: 8f45 00be 0b75 11bd eece dabd dfe6 1b3e
00000260: 683e 25be e730 1e3e 5401 b4bd f178 8f3c
00000270: d0bd 3ebe 1896 57be ddb1 ecbc ec2f b3bd
00000280: 99d1 a3bd 9e7b 5e3e 5020 2a3e 9c54 10bd
00000290: ebf5 08be 97ca 513b 38ab ddbe 9dce df3c
000002a0: 0c1a 8a3e ce1d bd3e c668 a73e d88a 47be
000002b0: 1b98 9ebd 4fa8 453e 359d 013d f7ea 73bd
000002c0: 77cb 023e e064 a33e bdfc 743e fb33 4bbe
000002d0: 0c5b f6be 9e4f 6bbe a7e6 8dbe 1459 f7be
000002e0: 57a3 1abe 5bd7 a53e be26 d83e 02df da3d
000002f0: 395d 713a c514 d83c 6c55 37be f14f d83c
00000300: bd22 bdbd c450 25be ad10 79be a4ed 823e
00000310: c65c 173e 2afc a43e 195f e53e 156f b03e
00000320: 2ac2 b53d 1363 84be ab25 153d b588 1dbe
00000330: 6cb2 103e b639 183e 6dca 11bd b43c 703e
00000340: 948f 513e c5a6 b5bd 7318 e0bc 2984 2c3e
00000350: 2eb6 a33c b758 9e3e 4973 ea3d 777a 07be
00000360: 9a98 75bd bf6a bd3d b9a7 aebc f706 7abd
00000370: 6e96 cb3d 69b0 0d3d ce38 f6bd 821d 34bd
00000380: f14f 913d 8419 7f3e 908b b7bd 254d a0be
00000390: 8538 adbc c8a4 9ebe 3e62 853d 5b61 9abe
000003a0: c289 55be bd6a 803d 0369 8d3d caba 6c3e
000003b0: 8718 7d3b 4332 0cbe 6763 afbd 83ab 1d3e
000003c0: 6a99 4dbe 24f0 e63d 88a8 a3be 81a5 183e
000003d0: 7258 163f e0f5 0f3f 13cb 5e3e 29d1 563e
000003e0: dcf3 d5bc 7209 b33d b15d 94be 55c9 17be
000003f0: 4c15 d83c 7a40 173e 344c 92bd 5244 2a3e

unet.time_mlp.0.bias f4 [64]
-0.25866523 0.114045925 -0.0019191296 -0.045437653 0.068857744 0.07425686 0.07522677 -0.15647705
0.218856 -0.034635358 -0.19799253 0.14053555 0.23099205 -0.016347516 -0.1546015 0.24337211
0.042306542 0.08507209 0.23452301 0.13115335 -0.21455044 -0.058561735 0.12333901 0.008584498
0.18299153 -0.12004278 0.2693063 -0.11700743 0.21885444 -0.11907888 -0.0877547 -0.13084148
-0.026813991 0.17433272 -0.22481127 0.047153562 -0.012610781 0.01299936 0.2130796 0.17652936
0.08783419 0.16238707 0.2603235 0.23790538 0.019709883 0.2826866 -0.18763666 0.029117644
-0.17088056 0.067884326 0.3119156 0.20697385 -0.29402468 -0.18397772 -0.15873982 0.017833177
0.29701993 -0.13433978 0.22942644 0.005075343 0.24698874 0.006545704 -0.08712934 0.011238443
00000000: c56f 84be e990 e93d 4e8b fbba d51c 3abd
00000010: 4a05 8d3d fb13 983d 7e10 9a3d 853b 20be
00000020: ca1b 603e cedd 0dbd 8ebe 4abe 8de8 0f3e
00000030: 2e89 6c3e 3aeb 85bc db4f 1ebe 8a36 793e
00000040: a049 2d3d 473a ae3d cd26 703e 104d 063e
00000050: 1cb3 5bbe 6ede 6fbd 2a99 fc3d ffa5 0c3c
00000060: 2262 3b3e fdd8 f5bd 84e2 893e 97a1 efbd
00000070: 611b 603e a1df f3bd bcb8 b3bd 4ffb 05be
00000080: 04a9 dbbc 4784 323e ed34 66be 1824 413d
00000090: 739d 4ebc 45fb 543c 8a31 5a3e 1dc4 343e
000000a0: 69e2 b33d cc48 263e 1f49 853e 789d 733e
000000b0: 9f76 a13c 4cbc 903e d323 40be 2088 ee3c
000000c0: 50fb 2ebe f006 8b3d 67b3 9f3e f4f0 533e
000000d0: 678a 96be a864 3cbe b18c 22be e216 923c
000000e0: ff12 983e 5e90 09be c4ee 6a3e 104f a63b
000000f0: 9eea 7c3e 587d d63b de70 b2bd 7221 383c

unet.time_mlp.2.weight f4 [16, 64]
0.031143922 -0.090308465 0.007885725 -0.008212326 -0.06717112 0.06858063 -0.068295635 -0.05104342
0.12053565 -0.07235992 -0.13206303 -0.025820713 0.06323502 -0.06324305 -0.11525662 0.05068968
-0.09304767 0.09490755 -0.14073184 -0.03275489 0.076419726 -0.05700035 -0.022938356 -0.006000234
-0.091126435 0.1153943 -0.016258331 0.027119156 0.018957531 0.10245788 -0.058739036 0.03586424
0.0014278139 -0.06672575 -0.09796685 -0.017431522 -0.07594178 -0.029053334 0.12627411 0.05444706
0.03627581 -0.015497903 -0.03920846 0.063359074 -0.04828234 -0.05368429 -0.08055179 0.038715947
0.04606614 -0.043632895 0.12973379 -0.060312122 -0.04653483 0.08250914 0.07463983 0.115670584
0.11798508 -0.09242713 0.065207854 0.09991887 0.070713535 0.04966057 0.13506116 0.0148253655
-0.01018034 0.0010276989 0.043823082 -0.032630667 0.12917422 -0.0034596045 0.014825648 -0.09403059
0.09025825 0.06837956 -0.058885314 -0.0446523 0.12902491 0.1801399 -0.031368293 0.10081896
0.00709244 -0.18082769 0.07784943 0.2440401 -0.045088023 0.16820806 0.025176827 0.16091174
0.20190933 0.04705232 0.03322403 0.085836254 -0.08220486 -0.09022021 -0.015188707 -0.16270535
0.14434355 -0.052433483 -0.065182395 -0.032205425 -0.17895192 -0.12486984 -0.0003862354 -0.09321465
-0.09360882 -0.16234471 0.15272515 0.00056855485 -0.024555188 -0.11072198 -0.048592724 -0.14865737
-0.028825086 -0.096125625 0.10557648 -0.0395755 0.0248467 0.024269912 -0.009671144 0.17123495
-0.043002393 0.08084382 -0.01585045 0.006852007 0.20264676 -0.051636964 0.17969106 0.21315579
-0.11725558 0.13618307 -0.023420306 0.09945976 -0.06258661 0.10910771 0.016998587 -0.009241698
-0.052027218 -0.10774262 -0.0387726 0.11219297 -0.08276172 -0.08955819 -0.0007726046 0.08135508
0.061678097 0.048997976 0.02419514 0.034384415 0.05652606 -0.05853703 -0.02861459 -0.02200633
-0.05980753 -0.07292053 0.025339715 0.0070038224 0.017433928 0.1398252 0.065976515 0.068523064
0.103084825 0.015721282 -0.10128067 0.09215035 0.083727196 -0.004961935 0.12203256 -0.045488182
-0.00803136 -0.13199864 -0.003056486 0.07793715 0.13944149 0.082640275 -0.09139509 0.04723542
0.0731707 0.057580218 -0.00017078352 -0.093772076 0.03726921 -0.000498862 -0.0033279597 -0.067520626
-0.049914032 0.09461073 -0.09470708 0.10087907 0.0017760559 -0.09399739 -0.015525769 0.045650654
0.07225382 -0.06224599 0.16526017 -0.043020383 0.016589517 -0.11590999 0.15661326 -0.16259776
0.03669528 -0.1535091 -0.2175072 0.05355388 0.03259693 -0.09632695 0.012556272 -0.07172801
0.0573854 -0.096607454 0.29446924 0.0491744 0.041434996 0.07081115 0.16698535 0.18311854
0.0984661 0.155807 0.1186537 0.0338764 0.21693209 -0.04778491 -0.17183214 0.056937005
-0.004651165 0.05434572 -0.03887857 0.050940134 0.09929656 0.056813046 -0.00092487247 -0.00029360404
-0.066606216 0.03818149 0.06864856 0.074065655 0.15649317 0.086639985 -0.13710907 0.07105535
-0.05054971 0.2293694 -0.056671962 -0.09011999 -0.13322222 0.07758818 -0.14026341 -0.06586891
-0.037227195 0.12897772 0.0949898 0.2875997 -0.015171355 0.04770279 -0.10457776 0.046493564
00000000: 8a21 ff3c a5f3 b8bd 2133 013c fe8c 06bc
00000010: 0391 89bd 0074 8c3d 95de 8bbd e812 51bd
00000020: 65db f63d 7031 94bd 883b 07be f685 d3bc
00000030: 5d81 813d 9285 81bd aa0b ecbd fb9f 4f3d
00000040: c78f bebd e45e c23d 021c 10be fe29 06bd
00000050: f281 9c3d 3379 69bd 38e9 bbbc 9c9d c4bb
00000060: 7fa0 babd d953 ec3d 3130 85bc fe28 de3c
00000070: d34c 9b3c 70d5 d13d 5898 70bd 62e6 123d
00000080: 7c25 bb3a 83a7 88bd d8a2 c8bd 8dcc 8ebc
00000090: 5d87 9bbd 4201 eebc 004e 013e e103 5f3d
000000a0: f295 143d ebea 7dbc 0d99 20bd 67c2 813d
000000b0: b4c3 45bd 0fe4 5bbd 56f8 a4bd 9d94 1e3d
000000c0: d9af 3c3d 68b8 32bd efd8 043e d809 77bd
000000d0: 4e9b 3ebd 8dfa a83d c4dc 983d b3e4 ec3d
000000e0: 29a2 f13d 6f4a bdbd b28b 853d 44a2 cc3d
000000f0: 42d2 903d e268 4b3d 794d 0a3e 17e6 723c
00000100: 71cb 26bc dab3 863a d57f 333d bca7 05bd
00000110: 3f46 043e 88ba 62bb 46e7 723c 1c93 c0bd
00000120: 51d9 b83d 950a 8c3d ba31 71bd 55e5 36bd
00000130: 1b1f 043e 9876 383e 0a7c 00bd 2c7a ce3d
00000140: b367 e83b e52a 39be 866f 9f3d a6e5 793e
00000150: 38ae 38bd bc3e 2c3e a23f ce3c 0cc6 243e
00000160: 52c1 4e3e efb9 403d ec15 083d ebca af3d
00000170: 065b a8bd 60c5 b8bd 0eda 78bc 3b9c 26be
00000180: ccce 133e 7ec4 56bd 597e 85bd d6e9 03bd
00000190: 2c3f 37be c2bb ffbd a37f cab9 53e7 bebd
000001a0: fbb5 bfbd b13d 26be fb63 1c3e 120b 153a
000001b0: f627 c9bc 35c2 e2bd 2a09 47bd a339 18be
000001c0: 9622 ecbc 83dd c4bd 7b38 d83d eb19 22bd
000001d0: 4e8b cb3c b2d1 c63c b873 1ebc 3758 2f3e
000001e0: 4723 30bd 7291 a53d ced8 81bc cd86 e03b
000001f0: a282 4f3e 4881 53bd ef00 383e 8345 5a3e
00000200: b223 f0bd 9373 0b3e f1db bfbc 8fb1 cb3d
00000210: 692d 80bd dd73 df3d 9f40 8b3c 7e6a 17bc
00000220: 7e1a 55bd 2aa8 dcbd 05d0 1ebd 6ec5 e53d
00000230: fa7e a9bd 496a b7bd 9e88 4aba 7e9d a63d
00000240: 2ca2 7c3d 1ab2 483d e334 c63c acd6 0c3d
00000250: df87 673d 86c4 6fbd 2569 eabc 9e46 b4bc
00000260: bef8 74bd 5c57 95bd 3c95 cf3c 5280 e53b
00000270: 99d1 8e3c 562e 0f3e b21e 873d d255 8c3d
00000280: 231e d33d ebc9 803c 3d6c cfbd 53b9 bc3d
00000290: 2a79 ab3d ba97 a2bb 35ec f93d d151 3abd
000002a0: f795 03bc a72a 07be 534f 48bb 839d 9f3d
000002b0: c0c9 0e3e 4e3f a93d 592d bbbd ee79 413d
000002c0: 85da 953d 3cd9 6b3d 5a14 33b9 930b c0bd
000002d0: 99a7 183d 10c6 02ba e619 5abb 4148 8abd
000002e0: a872 4cbd 45c3 c13d c9f5 c1bd b099 ce3d
000002f0: 8cca e83a b481 c0bd cc5f 7ebc 2efc 3a3d
00000300: d0f9 933d a7f5 7ebd f639 293e 2436 30bd
00000310: bde6 873c 3862 edbd 3a5f 203e 0780 26be
00000320: ca4d 163d 7d31 1dbe 35ba 5ebe 505b 5b3d
00000330: 5c84 053d 1047 c5bd d2b8 4d3c 23e6 92bd
00000340: f40c 6b3d 21da c5bd acc4 963e 186b 493d
00000350: beb7 293d 7005 913d 35fe 2a3e 6d83 3b3e
00000360: 98a8 c93d df8b 1f3e b600 f33d fbc1 0a3d
00000370: 7223 5e3e 1cba 43bd c4f4 2fbe c736 693d
00000380: cd68 98bb 9e99 5e3d 233f 1fbd 9aa6 503d
00000390: ff5b cb3d ccb4 683d 2473 72ba deee 99b9
000003a0: d768 88bd 3264 1c3d 9e97 8c3d bcaf 973d
000003b0: bf3f 203e 4e70 b13d 5266 0cbe 7885 913d
000003c0: 360d 4fbd d0df 6a3e dc20 68bd d490 b8bd
000003d0: 686b 08be 8de6 9e3d 36a1 0fbe 47e6 86bd
000003e0: 8b7b 18bd bc12 043e 038a c23d 4540 933e
000003f0: 4691 78bc 0064 433d dd2c d6bd 0970 3e3d

unet.time_mlp.2.bias f4 [16]
-0.06784158 0.042382795 0.094521314 0.08331208 0.11962685 0.073893644 0.004828404 -0.023744559
-0.022588383 0.025020514 -0.029469538 0.09185965 0.08998106 -0.12618549 0.09364121 0.0695353
00000000: 87f0 8abd 9599 2d3d 6494 c13d 869f aa3d
00000010: ecfe f43d 8d55 973d 9737 9e3b f383 c2bc
00000020: 460b b9bc d2f7 cc3c 1a6a f1bc ea20 bc3d
00000030: fd47 b83d c536 01be f6c6 bf3d 8668 8e3d

unet.cond_mlp.0.weight f4 [16, 32]
-0.12064977 0.15832749 -0.09335936 -0.14095563 0.08941917 -0.005763806 -0.024076328 0.08194556
0.07038008 0.17597185 -0.0053111254 -0.085317224 0.08597116 -0.13097636 0.16078252 0.11262282
-0.11518726 -0.02397906 -0.13051796 0.094390675 0.13261938 0.097175874 -0.025976948 0.12894353
-0.1670922 0.039785855 0.09854023 -0.02068751 -0.06952325 -0.117143266 -0.11393775 0.1397926
0.20997256 0.002545625 -0.15571879 -0.055351604 -0.043987356 0.03192701 0.22113565 0.042365335
0.24209718 0.15594956 0.0032504166 -0.15605278 -0.052420303 0.031384014 0.07310801 0.013659064
-0.06447947 0.052660596 -0.10239051 0.078679815 -0.091901876 0.045267537 -0.11618355 0.033393744
0.13341376 0.07987459 -0.073135674 -0.075029776 0.049402673 0.07576683 -0.007291916 -0.15471943
-0.022975864 4.0656334e-05 0.057205275 -0.22207597 0.058937766 -0.011839561 -0.06678676 -0.12329649
-0.24940968 -0.23820297 0.027574308 0.14455977 -0.16725604 -0.14351805 0.14874884 -0.1112234
0.14137392 -0.0055418634 -0.01695551 -0.119735725 0.12455503 0.10801752 0.109641336 -0.09091491
-0.0077069392 -0.043688815 0.19437481 0.015333596 3.5975943e-05 0.10276098 -0.13304535 0.12852347
-0.029025719 -0.075581 0.1150405 -0.037832886 -0.1195837 -0.13236263 0.20632873 0.08805773
-0.031174148 0.038499862 0.063675426 0.11356949 0.0059776623 -0.100973636 0.012288273 -0.047983903
0.12753578 -0.15382592 -0.021929668 -0.048451036 0.004940235 0.17466938 0.019075036 0.057322104
-0.0065426496 0.06763199 0.1454418 0.11545143 -0.02697351 -0.15214187 0.14897849 0.11851128
0.16451244 -0.059230912 0.011250741 0.24692228 0.06722831 0.21966489 0.045095462 0.08688899
0.10172583 -0.14288804 0.0685785 0.03981791 0.084533624 0.17932853 0.058027267 -0.1278777
0.02681528 -0.030991502 -0.17520672 0.09513935 -0.0038514964 0.15905282 -0.11911246 0.05176261
-0.019827599 0.15412638 -0.18733457 -0.011518233 -0.091448836 0.05908724 0.1144048 -0.015527801
0.005197016 -0.15349768 -0.069660105 0.07234965 0.26958802 0.22451341 0.033134725 0.22306249
-0.1320155 0.33197796 -0.11025163 -0.024099518 0.1927706 0.09311549 0.022226967 0.17219082
-0.043213937 0.016236812 -0.254352 0.06538885 0.1162528 0.09903719 0.1472383 -0.03731335
-0.010685466 0.09006347 0.039150212 0.19577645 0.153074 0.13211636 -0.05863902 0.26015028
0.0287062 -0.11147305 -0.06695003 0.07729962 0.1261376 0.021288509 -0.12863104 0.11753772
0.05173739 0.106364176 0.10737214 -0.031679343 0.06539916 -0.059375674 0.022888917 0.14822873
-0.08047601 0.17968246 -0.025682416 -0.1676088 0.00014495503 -0.17150883 0.08565314 0.16215396
-0.01612775 -0.08996295 -0.11396978 -0.14042377 -0.029026974 0.10143239 -0.06063704 -0.10535255
-0.120786145 -0.079622105 0.14347364 0.10971359 -0.03949012 0.11433189 0.17847885 -0.055319782
0.2404058 0.17925066 0.11447968 -0.024110869 -0.002572893 0.02497516 0.1474079 -0.07586142
0.06436599 -0.0885401 -0.012512883 -0.09355778 0.17216557 -0.06386991 0.05903542 0.09228663
-0.016995663 0.009726768 0.077659555 -0.03697335 0.14077544 -0.09308522 -0.14787617 -0.16761497
00000000: 3a17 f7bd 9a20 223e 3133 bfbd ac56 10be
00000010: 6621 b73d 4fde bcbb b83b c5bc 13d3 a73d
00000020: 6e23 903d f731 343e f308 aebb ccba aebd
00000030: a611 b03d ab1e 06be 2ca4 243e cba6 e63d
00000040: 4ce7 ebbd bc6f c4bc 80a6 05be e64f c13d
00000050: 60cd 073e 2504 c73d 9ccd d4bc c609 043e
00000060: 381a 2bbe 7ef6 223d 76cf c93d da78 a9bc
00000070: 3562 8ebd cfe8 efbd 3258 e9bd cb25 0f3e
00000080: 0c03 573e 80d4 263b bf74 1fbe 5db8 62bd
00000090: 162c 34bd e5c5 023d 6271 623e 4687 2d3d
000000a0: 53e8 773e 3eb1 1f3e f104 553b 4dcc 1fbe
000000b0: acb6 56bd 868c 003d a7b9 953d 44ca 5f3c
000000c0: d00d 84bd a3b2 573d 1eb2 d1bd e222 a13d
000000d0: 0d37 bcbd 746a 393d a4f1 edbd e1c7 083d
000000e0: 9e9d 083e 4a95 a33d 28c8 95bd 36a9 99bd
000000f0: 755a 4a3d a42b 9b3d 06f1 eebb c56e 1ebe
00000100: e137 bcbc 6886 2a38 1450 6a3d e267 63be
00000110: ba68 713d b8fa 41bc 7fc7 88bd df82 fcbd
00000120: 4065 7fbe 7beb 73be 84e3 e13c 7a07 143e
00000130: 2b45 2bbe 65f6 12be 9e51 183e 18c9 e3bd
00000140: 53c4 103e 8598 b5bb 48e6 8abc 0138 f5bd
00000150: b516 ff3d 4a38 dd3d a38b e03d 9931 babd
00000160: 7e8a fcbb 0bf3 32bd 310a 473e c339 7b3c
00000170: e0e4 1638 5974 d23d 0a3d 08be a89b 033e
00000180: 58c7 edbc 36ca 9abd 5b9a eb3d a8f6 1abd
00000190: 4de8 f4bd 128a 07be d747 533e 9c57 b43d
000001a0: ed60 ffbc 08b2 1d3d 4368 823d 1f97 e83d
000001b0: 44e0 c33b 44cb cebd c154 493c c58a 44bd
000001c0: bd98 023e 8b84 1dbe d9a5 b3bc 9874 46bd
000001d0: b2e1 a13b 88dc 323e 4043 9c3c 95ca 6a3d
000001e0: b963 d6bb a482 8a3d b2ee 143e cd71 ec3d
000001f0: 8df7 dcbc 14cb 1bbe d18d 183e 0bb6 f23d
00000200: f375 283e 1d9c 72bd 0755 383c 32d9 7c3e
00000210: ffae 893d d5ef 603e 05b6 383d dbf2 b13d
00000220: a255 d03d 3e51 12be e272 8c3d 1b18 233d
00000230: f71f ad3d e6a1 373e 00ae 6d3d 5ff2 02be
00000240: b8ab db3c e4e1 fdbc 6469 33be 6bd8 c23d
00000250: 6369 7cbb bede 223e 3cf1 f3bd 0805 543d
00000260: 7d6d a2bc 4ed3 1d3e a2d4 3fbe f9b6 3cbc
00000270: 8749 bbbd 7605 723d 104d ea3d 5168 7ebc
00000280: bb4b aa3b 7f2e 1dbe f5a9 8ebd 0e2c 943d
00000290: 7107 8a3e d8e6 653e 47b8 073d 7e6a 643e
000002a0: 122f 07be 04f9 a93e 9bcb e1bd 5a6c c5bc
000002b0: a865 453e 56b3 be3d 5415 b63c ca52 303e
000002c0: 1901 31bd 1003 853c 6d3a 82be 97ea 853d
000002d0: f315 ee3d 03d4 ca3d a3c5 163e e2d5 18bd
000002e0: 1812 2fbc 3273 b83d f95b 203d 9f79 483e
000002f0: 6ebf 1c3e 8349 073e 782f 70bd 6b32 853e
00000300: 4429 eb3c fc4b e4bd 191d 89bd 434f 9e3d
00000310: 372a 013e 3d65 ae3c dbb7 03be 9eb7 f03d
00000320: 96ea 533d 76d5 d93d ede5 db3d 33c2 01bd
00000330: ffef 853d e833 73bd 8a81 bb3c 46c9 173e
00000340: 9bd0 a4bd aefe 373e ee63 d2bc a4a1 2bbe
00000350: 12ff 1739 03a0 2fbe ea6a af3d b00b 263e
00000360: 581e 84bc 7f3e b8bd fd68 e9bd 40cb 0fbe
00000370: fac9 edbc c9bb cf3d 8b5e 78bd 14c3 d7bd
00000380: ba5e f7bd ea10 a3bd c1ea 123e 85b1 e03d
00000390: 64c0 21bd d726 ea3d 29c3 363e ff96 62bd
000003a0: f02c 763e 7c8d 373e 5374 ea3d 2884 c5bc
000003b0: fb9d 28bb b598 cc3c 19f2 163e 3b5d 9bbd
000003c0: 51d2 833d 8354 b5bd d602 4dbc 399b bfbd
000003d0: 2c4c 303e 3ace 82bd 20cf 713d c600 bd3d
000003e0: 7d3a 8bbc 065d 1f3c f90b 9f3d 5e71 17bd
000003f0: 7027 103e 77a3 bebd da6c 17be 42a3 2bbe

unet.cond_mlp.0.bias f4 [16]
0.021264711 -0.01904806 -0.0034697594 0.08123302 0.16110212 0.055040993 -0.17297511 -0.12746836
0.043857444 0.07407195 -0.09519447 -0.119165786 -0.060036384 0.05558481 0.1099451 0.0017906569
00000000: 5533 ae3c ad0a 9cbc e764 63bb 7f5d a63d
00000010: f4f7 243e aa72 613d 6320 31be 1187 02be
00000020: dda3 333d 09b3 973d 51f5 c2bd 310d f4bd
00000030: b6e8 75bd e6ac 633d e62a e13d 7ab4 ea3a
