src/logs_example/run_20250719_180006_ws10_fd1_ed16_bc8_rb1_nt50_s0.008_sw100_lr0.001_bs32_4e065343/model_run_20250719_180006_ws10_fd1_ed16_bc8_rb1_nt50_s0.008_sw100_lr0.001_bs32_4e065343.pt (torch, 35459 bytes, 32 tensors)

betas f4 [50]
0.001747489 0.003688991 0.0056337714 0.007585764 0.0095489025 0.011526883 0.013524234 0.015544534
0.01759255 0.019673109 0.021790743 0.023950815 0.026158988 0.028421521 0.030744493 0.033135474
0.035602212 0.03815353 0.040798843 0.04354924 0.046416342 0.04941398 0.05255717 0.055863857
0.05935359 0.06304985 0.06697893 0.07117188 0.07566583 0.08050352 0.085736334 0.09142703
0.09765023 0.10449803 0.11208534 0.120556235 0.13009268 0.14093208 0.15338635 0.16787475
0.18497169 0.20549464 0.23063338 0.26219916 0.30307245 0.3581307 0.43622243 0.5548348
0.7497583 0.999
00000000: 000c e53a 00c3 713b 809b b83b 0092 f83b
00000010: 0073 1c3c 40db 3c3c c094 5d3c 80ae 7e3c
00000020: 401e 903c 8029 a13c 8082 b23c 8034 c43c
00000030: 604b d63c 40d4 e83c e0db fb3c 10b9 073d
00000040: a0d3 113d e046 1c3d b01c 273d b060 323d
00000050: 101f 3e3d 5066 4a3d 3046 573d 80d1 643d
00000060: c01c 733d 4820 813d 402c 893d 90c2 913d
00000070: b0f6 9a3d 08df a43d 8896 af3d 183e bb3d
00000080: d8fc c73d 1003 d63d 008d e53d 30e6 f63d
00000090: 0437 053e 8050 103e 5011 1d3e 5ce7 2b3e
000000a0: 3869 3d3e 306d 523e 282b 6c3e f83e 863e
000000b0: 502c 9b3e e85c b73e 8c58 df3e a709 0e3f
000000c0: 29f0 3f3f 77be 7f3f

alphas f4 [50]
0.9982525 0.996311 0.9943662 0.99241424 0.9904511 0.9884731 0.98647577 0.98445547
0.98240745 0.9803269 0.97820926 0.9760492 0.973841 0.9715785 0.9692555 0.9668645
0.9643978 0.9618465 0.95920116 0.95645076 0.95358366 0.950586 0.9474428 0.94413614
0.9406464 0.93695015 0.93302107 0.9288281 0.92433417 0.9194965 0.91426367 0.908573
0.90234977 0.895502 0.88791466 0.87944376 0.8699073 0.8590679 0.84661365 0.83212525
0.8150283 0.79450536 0.7693666 0.73780084 0.69692755 0.6418693 0.56377757 0.44516522
0.2502417 0.0009999871
00000000: 7a8d 7f3f 3d0e 7f3f c98e 7e3f dc0e 7e3f
00000010: 348e 7d3f 930c 7d3f ad89 7c3f 4605 7c3f
00000020: 0e7f 7b3f b4f6 7a3f ec6b 7a3f 5cde 793f
00000030: a54d 793f 5eb9 783f 2121 783f 6f84 773f
00000040: c6e2 763f 923b 763f 358e 753f f5d9 743f
00000050: 0f1e 743f 9b59 733f 9d8b 723f e8b2 713f
00000060: 34ce 703f f7db 6f3f 78da 6e3f aec7 6d3f
00000070: 2aa1 6c3f 1f64 6b3f 2f0d 6a3f 3d98 683f
00000080: 6500 673f 9e3f 653f 604e 633f 3a23 613f
00000090: 3fb2 5e3f e0eb 5b3f acbb 583f 2906 553f
000000a0: b2a5 503f b464 4b3f 36f5 443f 84e0 3c3f
000000b0: d869 323f 8c51 243f ba53 103f b2ec e33e
000000c0: ae1f 803e 0012 833a

alpha_bars f4 [50]
0.9982525 0.99456996 0.98896676 0.98146474 0.9720928 0.9608876 0.94789237 0.9331578
0.9167412 0.898706 0.87912256 0.85806686 0.8356207 0.81187105 0.78691053 0.7608359
0.73374844 0.7057533 0.6769594 0.64747834 0.6174248 0.5869154 0.5560687 0.52500457
0.49384367 0.46270692 0.4317153 0.40098932 0.37064812 0.34080964 0.31158987 0.28310212
0.25545713 0.22876237 0.20312147 0.17863391 0.15539494 0.13349481 0.11301853 0.09404557
0.0766498 0.06089868 0.046853412 0.034568485 0.02409173 0.015463742 0.008718111 0.0038809997
0.00097118795 9.711755e-07
00000000: 7a8d 7f3f 239c 7e3f ed2c 7d3f 4641 7b3f
00000010: 13db 783f bbfc 753f 13a9 723f 6ee3 6e3f
00000020: 8daf 6a3f 9911 663f 2d0e 613f 45aa 5b3f
00000030: 3deb 553f c8d6 4f3f f872 493f 24c6 423f
00000040: f0d6 3b3f 40ac 343f 364d 2d3f 24c1 253f
00000050: 8d0f 1e3f 1640 163f 855a 0e3f b366 063f
00000060: 14d9 fc3e ece7 ec3e ca09 dd3e 794e cd3e
00000070: 97c5 bd3e 9a7e ae3e b588 9f3e c3f2 903e
00000080: 47cb 823e af40 6a3e 13ff 4f3e cfeb 363e
00000090: da1f 1f3e ddb2 083e 4276 e73d f79a c03d
000000a0: 92fa 9c3d e570 793d 5de9 3f3d af97 0d3d
000000b0: 055c c53c a35b 7d3c 68d6 0e3c 5f58 7e3b
000000c0: 5297 7e3a 5659 8235

stat_predictor.cond_mlp.0.weight f4 [16, 32]
0.033362355 -0.027700545 -0.13972817 0.13839686 0.06541856 0.04118697 0.057524066 -0.078786284
-0.012120756 0.1302388 0.03577825 0.08966929 -0.067039825 0.055454087 0.09110466 -0.05810531
-0.105241254 0.09856433 0.098774344 -0.15058912 0.00024302083 0.053116303 -0.13458118 -0.085473105
-0.003803966 0.028879775 -0.09134139 -0.11364184 0.0042170268 -0.12632419 0.14177108 0.11802864
-0.09342096 0.044631135 0.10585016 0.10207909 0.09974891 0.14393991 0.14058986 -0.037114955
0.15696582 -0.0035971277 0.061455037 0.08494374 0.05435146 0.044523474 -0.020859616 -0.017899262
-0.15686402 0.021874638 0.15165377 0.020091278 0.14711437 0.049421486 0.032696005 0.1438413
-0.0048055183 0.11797091 0.027211161 0.11623666 -0.060596187 0.078076154 -0.12674484 0.16226852
0.09301171 0.11111683 0.15599352 0.111622274 -0.060157944 0.024737163 -0.12500972 0.13477057
-0.032553066 -0.17051114 -0.03928219 -0.008779349 -0.10721382 0.10854551 0.15966243 0.07086524
0.005263673 -0.1685899 0.069933504 -0.078964494 -0.05491789 0.009680314 0.13685334 0.0021995879
0.002591433 -0.16126506 -0.031636085 -0.027332561 0.16024515 -0.024207057 0.15524435 -0.1360085
0.038892016 -0.017413525 0.051741008 0.10037851 0.12079942 0.024425955 -0.0387731 -0.07872498
0.111130685 -0.13798341 0.054150138 -0.05769242 0.1318962 -0.113036714 0.05704877 -0.16465655
-0.13758644 -0.03263584 0.03686547 0.08818096 -0.0096071195 -0.062023725 -0.05033038 -0.06367464
-0.0017429761 -0.07112264 -0.14040287 0.0775269 0.097289056 -0.0038540938 -0.06719443 0.11426088
0.016204823 0.1260123 -0.09400819 0.12715131 0.14568916 -0.020148573 -0.043767106 0.01642755
0.043198902 0.16493624 0.16630462 -0.14217277 -0.0075008404 -0.035517525 0.17325208 -0.15584838
-0.0077032465 0.002104012 0.14603856 0.115457445 0.05863041 0.15114826 -0.11170352 -0.07776001
-0.14494397 0.15982303 0.022734849 0.036682848 -0.15356413 0.05269249 -0.09213712 0.10185686
-0.027031701 -0.03192245 0.09837198 -0.11360676 -0.11373023 -0.15665834 0.02841128 0.15031184
-0.045766328 -0.018536495 -0.010422828 -0.011044057 0.14759797 -0.03088534 -0.08413608 -0.024833294
-0.088554725 -0.17216541 -0.1182932 -0.09077535 0.053382125 -0.113384545 -0.061080668 0.06825594
-0.105550446 -0.13706294 0.0052554924 0.042794924 -0.0037653616 -0.15342432 0.03374709 0.13952625
0.09604281 0.14738396 0.08062035 -0.0011752673 0.08466631 -0.023282867 -0.025894666 0.10870693
-0.16312174 0.009195613 0.17403519 0.07093209 0.05904976 -0.17664854 0.071154594 0.077444375
-0.1326982 0.02102962 -0.14794064 -0.045023646 0.06733443 -0.13328092 -0.15738393 0.14856118
-0.09150226 0.16752273 -0.15228048 0.17247942 -0.15407194 0.0599148 -0.12837686 0.0105911065
-0.09454074 -0.17034972 -0.075629376 0.15040651 0.049383666 -0.12519632 -0.013168324 -0.11768106
0.059920873 -0.049673993 0.14057565 0.016535012 0.0046623033 -0.09480303 0.09258121 -0.069806345
0.04252546 0.11327693 0.09528333 0.021605803 -0.015719505 -0.12838484 0.14511749 -0.0155837275
-0.09313166 0.1256836 0.16357818 -0.05867183 0.09100428 -0.08667491 -2.3858855e-05 -0.006640123
00000000: f7a6 083d 41ec e2bc e714 0fbe e8b7 0d3e
00000010: 2afa 853d abb3 283d 5b9e 6b3d b45a a1bd
00000020: 2396 46bc 525d 053e 378c 123d 88a4 b73d
00000030: 2d4c 89bd d323 633d 1495 ba3d d5ff 6dbd
00000040: ba88 d7bd 18dc c93d 344a ca3d 0934 1abe
00000050: 68d3 7e39 7b90 593d a6cf 09be 860c afbd
00000060: f64b 79bb 4795 ec3c 3211 bbbd 0ebd e8bd
00000070: fc2e 8a3b 215b 01be 702c 113e 00b9 f13d
00000080: 7d53 bfbd 23cf 363d f8c7 d83d d80e d13d
00000090: 2849 cc3d fc64 133e caf6 0f3e da05 18bd
000000a0: a6bb 203e cabd 6bbb 47b8 7b3d fcf6 ad3d
000000b0: a39f 5e3d 3f5e 363d c9e1 aabc 79a1 92bc
000000c0: f6a0 20be 7132 b33c 204b 1b3e 7796 a43c
000000d0: 26a5 163e 2f6e 4a3d 3fec 053d 224b 133e
000000e0: 9c77 9dbb bc9a f13d f1e9 de3c 7c0d ee3d
000000f0: b533 78bd 64e6 9f3d 66c9 01be b829 263e
00000100: ec7c be3d 3891 e33d c4bc 1f3e 389a e43d
00000110: 2d68 76bd 97a5 ca3c 8c02 00be 4c01 0a3e
00000120: 5d56 05bd 799a 2ebe 5de6 20bd 42d7 0fbc
00000130: eb92 dbbd 1c4d de3d 8c7e 233e cc21 913d
00000140: e47a ac3b d5a2 2cbe 4c39 8f3d 23b8 a1bd
00000150: 95f1 60bd 2e9a 1e3c 4823 0c3e f626 103b
00000160: 08d5 293b ab22 25be d794 01bd 89e8 dfbc
00000170: 4e17 243e e14d c6bc 60f8 1e3e d045 0bbe
00000180: 3c4d 1f3d cfa6 8ebc 61ee 533d 4093 cd3d
00000190: b065 f73d f118 c83c 8bd0 1ebd 903a a1bd
000001a0: 7c98 e33d 864b 0dbe 89cc 5d3d e34e 6cbd
000001b0: cc0f 073e cb7f e7bd f9ab 693d ba9b 28be
000001c0: 76e3 0cbe 29ad 05bd 3f00 173d 3898 b43d
000001d0: 2e67 1dbc 970c 7ebd 3b27 4ebd da67 82bd
000001e0: 9374 e4ba bfa8 91bd c5c5 0fbe 6cc6 9e3d
000001f0: 7c3f c73d f794 7cbb 3c9d 89bd 9c01 ea3d
00000200: fabf 843c 5e09 013e 5e87 c0bd f433 023e
00000210: 8a2f 153e 9f0e a5bc 2345 33bd 1293 863c
00000220: 55f1 303d 0ce5 283e c24b 2a3e bd95 11be
00000230: 9cc9 f5bb d37a 11bd fe68 313e b896 1fbe
00000240: 846b fcbb 77e3 093b 228b 153e f474 ec3d
00000250: 7126 703d 9cc6 1a3e d1c4 e4bd a440 9fbd
00000260: 316c 14be a6a8 233e 6f3e ba3c c140 163d
00000270: ea3f 1dbe 15d4 573d 63b2 bcbd 549a d03d
00000280: 9671 ddbc 1dc1 02bd 4077 c93d a9aa e8bd
00000290: 65eb e8bd 0b6b 20be c6be e83c 59eb 193e
000002a0: 7975 3bbd d9d9 97bc 82c4 2abc 22f2 34bc
000002b0: ec23 173e 4103 fdbc 8a4f acbd 316f cbbc
000002c0: 2e5c b5bd 214c 30be b543 f2bd 6de8 b9bd
000002d0: 37a7 5a3d 2836 e8bd b92f 7abd c5c9 8b3d
000002e0: d52a d8bd 3a5a 0cbe 4436 ac3b bb49 2f3d
000002f0: 49c4 76bb 441b 1dbe 633a 0a3d f8df 0e3e
00000300: 18b2 c43d d2eb 163e 481c a53d 6d0b 9aba
00000310: 8865 ad3d b6bb bebc 0d21 d4bc bda1 de3d
00000320: 6309 27be 32a9 163c 4836 323e d844 913d
00000330: 29de 713d 5be3 34be 80b9 913d 289b 9e3d
00000340: 09e2 07be 4f46 ac3c c07d 17be b76a 38bd
00000350: a2e6 893d cb7a 08be 4129 21be 6c20 183e
00000360: 8965 bbbd 148b 2b3e 6aef 1bbe 729e 303e
00000370: 09c5 1dbe 3969 753d 3975 03be 5286 2d3c
00000380: 939e c1bd 2870 2ebe 93e3 9abd 2a04 1a3e
00000390: 8746 4a3d 7733 00be f4bf 57bc c502 f1bd
000003a0: 976f 753d f576 4bbd 10f3 0f3e 6f74 873c
000003b0: 3cc6 983b 1728 c2bd 389b bd3d a1f6 8ebd
000003c0: 2d2f 2e3d bcfd e73d e823 c33d a7fe b03c
000003d0: 31c6 80bc 5177 03be ae99 143e e452 7fbc
000003e0: d0bb bebd 34b3 003e 0a81 273e df51 70bd
000003f0: 7460 ba3d 9d82 b1bd 8024 c8b7 6495 d9bb

stat_predictor.cond_mlp.0.bias f4 [16]
-0.109544836 -0.108605236 0.08610955 -0.06692189 0.12663585 0.13634399 0.03707953 0.030973641
-0.027275143 0.058846485 -0.0337233 -0.13804205 0.062407043 -0.15451345 -0.1271301 0.16706726
00000000: 0b59 e0bd 6c6c debd 345a b03d 580e 89bd
00000010: d4ac 013e c29d 0b3e b5e0 173d 6fbc fd3c
00000020: 1f70 dfbc 0309 713d 7121 0abd e55a 0dbe
00000030: 879e 7f3d c638 1ebe 652e 02be ae13 2b3e

stat_predictor.cond_mlp.2.weight f4 [16, 16]
-0.0074497885 0.19007345 -0.10943906 0.24209462 0.2058806 0.061878186 0.074033484 -0.12779073
-0.115223184 -0.04546122 0.13108476 0.012356954 -0.05083238 0.093042955 -0.064466074 -0.041249562
0.18183748 -0.24750246 -0.083840385 -0.011183126 -0.16723235 0.022815095 -0.09713404 0.12448348
-0.061974604 -0.1540881 -0.038758945 0.09052394 0.07970737 -0.22924702 0.01954223 0.023066835
0.026260508 0.2253081 -0.19603078 0.23752992 0.24435447 -0.048803728 0.16754584 -0.22326873
-0.090108946 -0.21343197 -0.0063565797 -0.1151918 -0.21668352 0.12170352 -0.09614949 -0.2282993
-0.123234674 -0.13458852 -0.011548383 0.21560033 -0.16777472 0.20420738 -0.23631181 0.19500954
0.05870713 0.23375078 -0.1956891 0.05025227 -0.112907216 0.1342421 -0.15265177 -0.04385079
0.09159903 0.16940866 0.103783414 -0.0073206592 0.22624822 -0.13435836 -0.24323006 -0.1844212
-0.077222064 0.19562621 0.1795925 -0.105030015 -0.086615905 0.18376084 -0.0048574037 -0.07519974
0.21653785 0.16318978 0.2168956 0.07833962 -0.1705922 -0.03765421 0.035517316 0.16235088
0.03281494 -0.15908684 -0.23009618 0.21866481 0.03789152 -0.17341326 0.22061627 0.1961237
-0.014541698 0.01073624 -0.10440858 -0.093000904 -0.19214602 -0.035629053 -0.09400518 0.047881413
-0.17997159 0.12380086 -0.06873362 0.06376256 0.24900003 0.16126399 -0.19599144 0.07650836
0.20150618 0.17644577 -0.00979452 0.2277676 -0.03930815 0.0089377 0.05287568 0.10534273
0.07813023 0.082890734 -0.010957675 0.1495003 -0.09132214 -0.12298004 -0.21446054 0.14201303
0.17617796 0.0034121403 0.16851838 0.15871038 -0.23657139 0.10905363 0.07704039 0.18553995
-0.068709955 -0.028563542 0.22578572 -0.0018677542 -0.09124486 -0.18026702 -0.10927431 -0.15159701
0.09787883 0.16134901 0.08713658 -0.10189028 -0.09290029 0.062056046 0.033828 -0.24685068
0.086273864 0.13362096 -0.11918421 -0.11968078 0.21480037 0.16569747 0.0007586053 0.06732719
0.16692425 -0.067490116 0.060825188 0.033003915 -0.107769236 -0.03251977 -0.0691459 0.079287365
-0.23032065 -0.062188316 0.09509297 -0.19711147 -0.06033833 0.22100107 -0.16123737 -0.18485157
0.1435958 -0.15056561 0.116896674 -0.20704876 -0.13263653 -0.092834845 -0.18348895 -0.06466885
-0.106593475 -0.19563438 0.014932675 0.11816545 0.09793942 -0.18639769 0.2190739 0.12946628
0.24390338 0.19314505 0.22650246 -0.12092771 0.24282603 -0.061775286 -0.22012834 0.13150977
-0.122601196 0.029536711 -0.048632015 0.020862268 0.116667435 0.09072985 -0.1746461 -0.16366549
0.06367944 0.19538714 0.029269563 -0.09360172 0.11709316 -0.12648238 -0.03097014 0.006062282
-0.20625265 0.0963117 0.15026353 -0.19013588 0.19228055 0.09543474 0.11876257 -0.070060745
-0.14451621 -0.14713533 -0.028985513 -0.07797657 0.14381899 -0.18298878 0.21168666 0.0063282377
0.2399918 0.06495075 0.04199158 0.19760738 -0.20235284 -0.1933857 0.067220375 0.089233324
0.1906472 0.04291754 -0.09037505 0.106507614 0.10663988 -0.00394435 -0.20694475 0.02402599
0.23053001 0.006555242 0.05856018 0.050874304 -0.021539612 -0.03692173 -0.24746175 -0.20778699
00000000: 5b1d f4bb 9da2 423e 9621 e0bd a7e7 773e
00000010: 5dd2 523e fb73 7d3d de9e 973d 93db 02be
00000020: 22fa ebbd 8b35 3abd 153b 063e d274 4a3c
00000030: 9d35 50bd 4e8d be3d ca06 84bd 4df5 28bd
00000040: 9b33 3a3e 4971 7dbe 82b4 abbd 6e39 37bc
00000050: f53e 2bbe b9e6 ba3c 36ee c6bd 32f1 fe3d
00000060: 15d9 7dbd 45c9 1dbe b3c1 1ebd 9e64 b93d
00000070: 9e3d a33d bbbf 6abe 0717 a03c a9f6 bc3c
00000080: 4720 d73c 2bb7 663e 4bbc 48be 0b3b 733e
00000090: 0f38 7a3e 6be6 47bd 2391 2b3e 8fa0 64be
000000a0: 0a8b b8bd e98d 5abe db4a d0bb aee9 ebbd
000000b0: 49e2 5dbe b23f f93d 06ea c4bd 4bc7 69be
000000c0: 7662 fcbd 93d1 09be 6e35 3dbc 55c6 5c3e
000000d0: 23cd 2bbe bd1b 513e b9fb 71be 95b0 473e
000000e0: e376 703d 5d5c 6f3e b962 48be 53d5 4d3d
000000f0: e63b e7bd c376 093e bf50 1cbe e39c 33bd
00000100: 4698 bb3d 7779 2d3e 668c d43d 24e2 efbb
00000110: 9dad 673e 3d95 09be 4d11 79be e9d8 3cbe
00000120: 9a26 9ebd 3d52 483e 19e7 373e fa19 d7bd
00000130: ae63 b1bd cd2b 3c3e db2a 9fbb 5202 9abd
00000140: 19bc 5d3e 391b 273e e119 5e3e 8670 a03d
00000150: b9af 2ebe 4d3b 1abd 9b7a 113d 4f3f 263e
00000160: f568 063d a9e7 22be 559e 6bbe abe9 5f3e
00000170: 2334 1b3d 3f93 31be 3be9 613e a7d4 483e
00000180: 4d40 6ebc 0ee7 2f3c 2ad4 d5bd 4277 bebd
00000190: edc1 44be c5ef 11bd ca85 c0bd 4d1f 443d
000001a0: 794a 38be 4e8b fd3d 36c4 8cbd f295 823d
000001b0: ddf9 7e3e 6322 253e fbb1 48be 6ab0 9c3d
000001c0: a357 4e3e 33ae 343e 3279 20bc e93b 693e
000001d0: 9501 21bd 6e6f 123c 2b94 583d eebd d73d
000001e0: be02 a03d 9ec2 a93d d287 33bc 9b16 193e
000001f0: 1a07 bbbd f6dc fbbd 8b9b 5bbe dd6b 113e
00000200: ff67 343e 379e 5f3b 1590 2c3e f984 223e
00000210: c53f 72be 8257 df3d 5ac7 9d3d 2ffe 3d3e
00000220: ceb7 8cbd 17fe e9bc 5f34 673e 6ecf f4ba
00000230: 96de babd eb97 38be 36cb dfbd 3f3c 1bbe
00000240: b274 c83d ad38 253e aa74 b23d daab d0bd
00000250: 8242 bebd 7b2e 7e3d 3b8f 0a3d 6dc6 7cbe
00000260: 5ab0 b03d efd3 083e da16 f4bd 321b f5bd
00000270: a1f4 5b3e 99ac 293e 24dd 463a d6e2 893d
00000280: 31ee 2a3e 4238 8abd d523 793d 1d2f 073d
00000290: 1eb6 dcbd 7333 05bd 5e9c 8dbd 6a61 a23d
000002a0: 2dd9 6bbe 2db9 7ebd 1ac0 c23d 97d7 49be
000002b0: 5325 77bd 1b4e 623e 691b 25be bb49 3dbe
000002c0: c70a 133e df2d 1abe 8667 ef3d 9704 54be
000002d0: dfd1 07be 3220 bebd 87e4 3bbe 1a71 84bd
000002e0: ae4d dabd 6154 48be 2ea8 743c ba00 f23d
000002f0: 7694 c83d 09df 3ebe e954 603e cf92 043e
00000300: cfc1 793e d1c7 453e 43f0 673e f2a8 f7bd
00000310: 63a7 783e 1508 7dbd 5369 61be 7faa 063e
00000320: 5616 fbbd f9f6 f13c 5d32 47bd 59e7 aa3c
00000330: 56ef ee3d 92d0 b93d 6dd6 32be ed97 27be
00000340: 5e6a 823d 9113 483e b9c6 ef3c 42b2 bfbd
00000350: 8ace ef3d 9984 01be 17b5 fdbc 1ba6 c63b
00000360: e533 53be 123f c53d afde 193e fbb2 42be
00000370: 31e5 443e 4a73 c33d ca39 f33d 027c 8fbd
00000380: 0ffc 13be a5aa 16be 0773 edbc 2eb2 9fbd
00000390: 4945 133e 6961 3bbe 63c4 583e 1b5d cf3b
000003a0: 69c0 753e e604 853d 5dff 2b3d 9759 4a3e
000003b0: 9535 4fbe e706 46be d6aa 893d f6bf b63d
000003c0: 0539 433e 4dca 2f3d 8e16 b9bd aa20 da3d
000003d0: 0266 da3d 9b3f 81bb 53e9 53be 27d2 c43c
000003e0: 0f10 6c3e 5bcd d63b cddc 6f3d 9361 503d
000003f0: d773 b0bc 3d3b 17bd 9d66 7dbe 1dc6 54be

stat_predictor.cond_mlp.2.bias f4 [16]
0.07794605 -0.23786543 0.038577963 0.009134011 -0.086484 0.012061609 0.047195684 0.13589571
-0.07094644 -0.21870883 -0.22395034 -0.0944577 0.24550019 -0.16969837 -0.14617015 -0.066151515
00000000: 2ea2 9f3d ff92 73be ed03 1e3d d2a6 153c
00000010: 861e b1bd 0e9e 453c 4350 413d 3f28 0b3e
00000020: 5e4c 91bd 35f5 5fbe 3d53 65be 0a73 c1bd
00000030: 6764 7b3e 69c5 2dbe a1ad 15be 727a 87bd

stat_predictor.stat_mlp.0.weight f4 [16, 16]
0.010686444 0.14777555 0.21810316 -0.16046785 0.07925539 -0.24207158 0.03844552 0.21443258
0.00414191 0.09546165 -0.007210957 -0.04175969 -0.15246142 -0.027847515 -0.020383315 0.17190774
0.142071 -0.19166411 -0.016238915 -0.050632913 0.056577962 -0.17439918 0.17791422 0.07040952
0.115248635 -0.14191438 0.030459417 0.15371646 -0.12983374 0.16983284 -0.009948002 0.13352247
-0.077674136 0.14549999 0.24733774 0.19831137 -0.052351464 0.10226299 -0.055363547 0.0049319137
-0.0781724 -0.23678027 0.06979515 0.022028191 -0.04370908 -0.12701117 0.07996537 0.11691819
-0.06998406 0.08420326 -0.19709708 0.08353154 0.06765325 0.1378959 -0.15636201 -0.13204615
0.07439275 0.18985467 -0.18387948 0.22408055 -0.21363576 0.13857482 0.1987739 -0.2174796
-0.058215667 -0.18591501 -0.09508063 -0.15306933 -0.028266562 0.09527065 0.085955665 0.107927725
0.24463443 0.04876386 0.023703115 0.14309777 -0.02275999 0.16374008 -0.21110784 -0.08202608
0.083104566 0.13111235 0.003093081 -0.092460945 -0.039791953 -0.24175541 0.01744829 -0.020275043
-0.14065357 -0.043566953 0.013512539 0.20446993 -0.18589012 0.20672502 0.15010147 -0.20195471
-0.24645121 -0.02992426 0.21944429 -0.03146382 -0.23611395 0.09838821 0.22820385 -0.09808643
-0.13370131 0.02738942 0.21316148 0.21493576 -0.010001881 -0.0045004357 -0.16172178 0.16386698
-0.2459598 0.21214692 -0.02053638 0.16774522 -0.17391558 -0.15975995 -0.08400558 -0.1476328
-0.24039109 -0.2161145 0.086294934 -0.22359975 0.02516638 0.104889765 -0.11442964 -0.13153984
0.08958016 0.10183106 -0.24814911 -0.011887981 0.23019569 -0.011197345 0.169753 0.20150872
0.025168138 0.121306285 -0.1920637 -0.21298711 -0.016397195 -0.01757933 0.021700786 0.023068504
-0.09561683 0.20269375 -0.22595091 -0.11697315 -0.08102004 -0.2258573 -0.15153985 0.17462485
-0.22685693 0.12141089 0.20744191 -0.03348233 0.027173953 0.048574876 0.043469977 0.22506432
-0.108274266 0.17598222 -0.007838262 0.007492738 -0.22114553 -0.075477436 -0.030458318 -0.06454454
0.025107907 -0.14800324 0.15755104 0.08728902 0.21951659 -0.15269913 0.07446115 -0.013531251
0.111496165 -0.15070535 0.19136067 0.12920971 0.15167914 0.009602355 0.20330735 0.012527065
-0.056987215 -0.22748847 -0.12675591 -0.09530263 0.036475647 0.19439124 -0.05385225 0.19747396
0.19258447 -0.17591067 0.04908545 -0.030725615 0.008743955 -0.07622029 -0.07772444 -0.008130444
0.084318295 0.108469054 -0.09260841 0.12631722 0.23727368 0.12995179 0.24188872 0.21237956
0.18836685 -0.21930887 -0.045506734 0.14527737 -0.18737008 -0.17864273 0.18901254 -0.053242248
0.2093807 0.027991964 0.14427055 0.019183977 -0.20264243 0.2333139 0.1935486 0.063389465
0.20657028 0.11777635 0.014193374 0.06499554 -0.04239277 0.20179264 -0.056447465 -0.09426154
-0.15771334 0.12359594 0.15967397 -0.113508806 -0.042764265 -0.04674084 -0.10078032 0.079893336
-0.09862943 0.05618764 0.15715726 -0.12086408 -0.08177422 0.08992143 -0.060204368 -0.19791521
-0.230433 -0.08623664 0.019975526 -0.21746133 -0.17018087 0.02717097 -0.01390581 -0.17181121
00000000: 3216 2f3c 7952 173e 6f56 5f3e af51 24be
00000010: a650 a23d 9de1 77be 0d79 1d3d 3794 5b3e
00000020: dcb8 873b 6681 c33d e449 ecbb 350c 2bbd
00000030: d91e 1cbe 7920 e4bc e9fa a6bc 9508 303e
00000040: 0f7b 113e 9943 44be 7907 85bc 7564 4fbd
00000050: 4bbe 673d b395 32be 252f 363e de32 903d
00000060: 7a07 ec3d 0152 11be 0786 f93c d967 1d3e
00000070: 23f3 04be a9e8 2d3e f2fc 22bc 1dba 083e
00000080: 9e13 9fbd f3fd 143e 1b46 7d3e 2312 4b3e
00000090: 7d6e 56bd 426f d13d e3c4 62bd e49b a13b
000000a0: da18 a0bd 8776 72be c2f0 8e3d 7774 b43c
000000b0: 4b08 33bd 370f 02be e2c4 a33d ce72 ef3d
000000c0: ce53 8fbd c272 ac3d d1d3 49be 9612 ab3d
000000d0: ca8d 8a3d 9534 0d3e 5d1d 20be 1b37 07be
000000e0: 3a5b 983d 4369 423e e74a 3cbe 5f75 653e
000000f0: 55c3 5abe 8fe6 0d3e 638b 4b3e f9b2 5ebe
00000100: 8d73 6ebd 8160 3ebe a2b9 c2bd 35be 1cbe
00000110: 478f e7bc 421d c33d 8609 b03d 3609 dd3d
00000120: 7381 7a3e 9dbc 473d 092d c23c 3988 123e
00000130: 2973 babc 7bab 273e a72c 58be 4afd a7bd
00000140: ba32 aa3d 5142 063e 4ab5 4a3b 2a5c bdbd
00000150: e3fc 22bd bb8e 77be b7ef 8e3c d917 a6bc
00000160: 7d07 10be 4373 32bd b263 5d3c 9160 513e
00000170: fb59 3ebe b9af 533e 33b4 193e 37cd 4ebe
00000180: b55d 7cbe b923 f5bc 01b6 603e 35e0 00bd
00000190: dbc7 71be c27f c93d 45ae 693e 8ae1 c8bd
000001a0: ffe8 08be c75f e03c 0147 5a3e 1f18 5c3e
000001b0: eede 23bc 6478 93bb 659a 25be bfcc 273e
000001c0: e3dc 7bbe 0b3d 593e e93b a8bc 67c5 2b3e
000001d0: ed16 32be 1d98 23be 1e0b acbd 0d2d 17be
000001e0: 1529 76be 1f4d 5dbe 66bb b03d 55f7 64be
000001f0: b929 ce3c 72d0 d63d 165a eabd 61b2 06be
00000200: ce75 b73d ce8c d03d cd1a 7ebe cec5 42bc
00000210: 6bb8 6b3e 1275 37bc bbd3 2d3e 4d58 4e3e
00000220: 692d ce3c 6e6f f83d 59ac 44be 4b19 5abe
00000230: 6953 86bc 8702 90bc d9c5 b13c 29fa bc3c
00000240: c2d2 c3bd f38e 4f3e ad5f 67be 9e8f efbd
00000250: d6ed a5bd 2347 67be 432d 1bbe dbd0 323e
00000260: 2f4d 68be 46a6 f83d a76b 543e c524 09bd
00000270: e99b de3c 73f6 463d 930d 323d 4377 663e
00000280: e6be ddbd af34 343e 0e6c 00bc a485 f53b
00000290: f973 62be ea93 9abd b983 f9bc ee2f 84bd
000002a0: 19af cd3c 298e 17be 0f55 213e 96c4 b23d
000002b0: f5c8 603e 295d 1cbe 167f 983d 2eb2 5dbc
000002c0: 1a58 e43d 8152 1abe 0df4 433e 8d4f 043e
000002d0: c751 1b3e 3253 1d3c cd2f 503e 523e 4d3c
000002e0: 6d6b 69bd bdf2 68be 4dcc 01be 062e c3bd
000002f0: 7d67 153d 7f0e 473e 2d94 5cbd 9d36 4a3e
00000300: dd34 453e ed21 34be d30d 493d 49b4 fbbc
00000310: ce42 0f3c 6219 9cbd fe2d 9fbd 8e35 05bc
00000320: 12af ac3d 0625 de3d 7aa9 bdbd 4d59 013e
00000330: dff7 723e 1512 053e adb1 773e 077a 593e
00000340: 3de3 403e 8192 60be 4565 3abd 97c3 143e
00000350: f1dd 3fbe 1fee 36be 818c 413e 8b14 5abd
00000360: e567 563e 674f e53c a9bb 133e b727 9d3c
00000370: 7f81 4fbe d7e9 6e3e 9b31 463e 56d2 813d
00000380: 2987 533e ba34 f13d 538b 683c 621c 853d
00000390: 0ba4 2dbd bba2 4e3e 7535 67bd 320c c1bd
000003a0: 9b7f 21be de1f fd3d 9381 233e 4e77 e8bd
000003b0: 9529 2fbd 5373 3fbd ea65 cebd 1e9f a33d
000003c0: 3afe c9bd 0325 663d d5ed 203e 9687 f7bd
000003d0: 3e79 a7bd ba28 b83d db98 76bd 49aa 4abe
000003e0: a1f6 6bbe d69c b0bd b7a3 a33c 2fae 5ebe
000003f0: e543 2ebe a795 de3c 32d5 63bc 47ef 2fbe

stat_predictor.stat_mlp.0.bias f4 [16]
-0.24611087 0.110128745 -0.1658129 -0.06792469 0.10098131 -0.054649103 0.05019905 -0.078997746
0.1860909 0.08040421 0.0142400395 -0.112010226 0.11571829 -0.1013283 0.14368291 0.039310325
00000000: 7d04 7cbe 2e8b e13d dbca 29be 1a1c 8bbd
00000010: 4acf ce3d bdd7 5fbd 859d 4d3d 92c9 a1bd
00000020: 9d8e 3e3e f6aa a43d 0e4f 693c 9e65 e5bd
00000030: b6fd ec3d 3685 cfbd 9d21 133e dd03 213d

stat_predictor.stat_mlp.2.weight f4 [2, 16]
0.07002269 -0.22427793 0.07697703 0.15923359 0.036946643 -0.11290978 0.13341646 -0.2058716
-0.22075535 0.20735897 -0.04359736 0.112972036 0.033166934 0.020872308 0.23502524 -0.07488744
0.23118718 0.16931744 0.21474706 0.104271755 -0.17299138 -0.029927032 0.06698163 0.2344345
-0.023665024 0.08705415 -0.14360757 0.13793771 0.038366336 0.030090911 -0.07446377 0.2365927
00000000: 0e68 8f3d 1da9 65be 22a6 9d3d 210e 233e
00000010: 5d55 173d 3e3d e7bd 539e 083e 01d0 52be
00000020: b10d 62be e955 543e 2593 32bd e25d e73d
00000030: 0dda 073d 67fc aa3c 75aa 703e 965e 99bd
00000040: 55bc 6c3e 8d61 2d3e a7e6 5b3e 6e8c d53d
00000050: a724 31be 8929 f5bc aa2d 893d 990f 703e
00000060: 27dd c1bc 7249 b23d dd0d 13be 8b3f 0d3e
00000070: 0526 1d3d 3781 f63c 7680 98bd 5b45 723e

stat_predictor.stat_mlp.2.bias f4 [2]
0.113453045 0.08373554
00000000: 125a e83d 8a7d ab3d

unet.init_conv.weight f4 [8, 1, 3]
0.07822962 0.5412913 0.1687987 0.088572636 0.09680195 -0.054303776 0.33580047 0.31159097
-0.427543 0.1171978 0.24620096 -0.23150773 -0.11532365 0.055770982 0.3427595 0.14318986
-0.3890111 -0.28957003 -0.56632364 0.4171632 -0.57247895 -0.36897087 0.36067468 -0.55452985
00000000: da36 a03d 1192 0a3f 91d9 2c3e 9265 b53d
00000010: 1a40 c63d a36d 5ebd 0aee ab3e da88 9f3e
00000020: ebe6 dabe 6605 f03d 1b1c 7c3e 5d10 6dbe
00000030: ce2e ecbd 1d70 643d 2c7e af3e 5da0 123e
00000040: 772c c7be 8642 94be 96fa 10bf 6a96 d53e
00000050: fb8d 12bf c0e9 bcbe 5aaa b83e abf5 0dbf

unet.init_conv.bias f4 [8]
0.12791608 -0.26429674 0.24918564 -0.3317184 0.12354802 0.28123492 0.48531908 -0.0025389665
00000000: 6ffc 023e e751 87be 852a 7f3e fed6 a9be
00000010: bf06 fd3d 06fe 8f3e be7b f83e ca64 26bb

unet.time_mlp.0.weight f4 [64, 16]
-0.09078857 0.12590261 -0.22508729 -0.114061184 0.13482386 0.037546434 -0.24134018 0.04882167
0.015213936 0.022584705 -0.0577419 0.08563589 0.054703135 0.24660514 0.20950232 -0.04162417
0.08556079 -0.12627752 -0.20880353 0.19848002 -0.13676691 -0.18528076 -0.2395564 -0.20732193
0.009306729 -0.11519169 0.09005346 0.19456188 -0.11746382 0.01757432 -0.14714147 0.1527466
0.018277261 -0.16001508 0.007087692 0.13822436 -0.22682524 -0.021382842 0.20353524 0.24634562
0.23946503 0.21232696 0.20419191 0.005710334 0.16248077 -0.10498371 -0.051877163 -0.021642976
-0.041196793 -0.19961122 -0.042683985 -0.14564362 0.025334405 0.23423618 0.15452534 0.19019975
0.041560598 -0.06397 -0.0021933294 0.04186866 0.20739222 0.21930963 -0.032816045 0.11505116
-0.06340803 -0.07939752 0.112344414 0.04330934 0.032860335 -0.1764668 0.14364205 0.14019027
0.037405245 -0.0032370077 0.11594208 0.14996278 -0.03591212 -0.19742106 -0.19662265 0.21136717
-0.16270347 0.01788938 0.021328278 0.22312638 0.038994897 -0.004896174 -0.15967174 -0.24757032
0.05690105 0.21141428 -0.13347825 -0.023018792 0.025036275 0.07550302 -0.08194208 -0.23681858
-0.03616083 0.011422009 0.18507409 0.10312734 0.14755583 0.15278873 0.04726611 0.13068843
-0.24667618 0.1326206 0.16604196 -0.1251964 -0.0478382 0.21797453 -0.062159467 0.20756494
0.21136095 0.24784964 -0.106090695 -0.2506492 -0.1480361 -0.21939832 -0.2377902 0.08903333
0.2082311 0.019644665 0.15250374 -0.16617706 -0.23405714 0.09783164 0.030185312 -0.2080391
0.010836977 0.21624476 -0.080762856 -0.12994964 -0.05773245 -0.16928324 -0.005572201 0.19604807
-0.13295491 -0.123527385 -0.029126056 -0.19410639 0.06665008 -0.033369415 0.046429224 -0.24718723
-0.19852757 -0.07357054 0.0364567 0.22605881 -0.13185763 0.049851134 0.13979428 -0.05138763
-0.10885375 0.1653273 -0.2245377 0.23356941 -0.25077343 0.017177396 0.104508154 -0.069975175
0.06257652 -0.12015247 0.07204594 0.24037108 0.22529323 -0.15377864 -0.1011751 -0.17869252
-0.035487235 -0.030787623 -0.11628619 -0.17696604 -0.24172595 0.11188698 0.09138441 -0.013588812
-0.04330864 -0.04949956 0.0099287 0.18107796 0.028536247 -0.24760707 0.122416236 -0.0710437
0.24380828 0.1583825 0.073402315 0.18583423 -0.039934285 -0.12597507 0.2107589 0.12321406
0.06078009 0.0077043143 -0.046862364 -0.0855652 -0.21079476 -0.1769017 -0.15147318 0.09536404
-0.09144797 0.17781556 0.09114603 -0.15401593 0.22850406 -0.02400028 0.24205941 -0.09567072
-0.17625253 -0.24241793 0.015213636 -0.115065075 -0.11419683 0.026352055 -0.13187987 -0.047098342
-0.24247155 -0.19459157 0.18186647 0.10985876 -0.03129692 -0.069479786 0.117310464 -0.070325166
-0.10191543 0.13656463 -0.06500869 -0.12045747 0.072944365 -0.08452704 -0.10152658 -0.15206534
0.1834004 -0.17958589 0.17441674 0.09136048 -0.19593388 0.08650803 -0.20509672 0.18372175
-0.010107747 0.020866105 -0.14465222 -0.16008058 -0.13711146 -0.001696455 0.20757475 -0.16219519
0.12926272 -0.03946661 0.017999707 0.085578926 0.24826369 0.20079073 0.102254756 -0.2409321
00000000: 5cef b9bd 9dec 003e 487d 66be e998 e9bd
00000010: 440f 0a3e 4aca 193d e121 77be 3bf9 473d
00000020: df43 793c 8f03 b93c c582 6cbd df61 af3d
00000030: 6510 603d 0f86 7c3e c787 563e 1b7e 2abd
00000040: 7f3a af3d e54e 01be 98d0 55be 593e 4b3e
00000050: a00c 0cbe 3dba 3dbe 464e 75be 334c 54be
00000060: 407b 183c 9fe9 ebbd f36d b83d 3b3b 473e
00000070: df90 f0bd 05f8 8f3c 41ac 16be 9b69 1c3e
00000080: 32ba 953c feda 23be df3f e83b b08a 0d3e
00000090: e044 68be 122b afbc 8b6b 503e 0742 7c3e
000000a0: 5236 753e 3d6c 593e af17 513e c11d bb3b
000000b0: 5c61 263e b301 d7bd 267d 54bd 9c4c b1bc
000000c0: f8bd 28bd e266 4cbe 67d5 2ebd 9a23 15be
000000d0: 198a cf3c 9cdb 6f3e e43b 1e3e b9c3 423e
000000e0: 723b 2a3d b402 83bd f6bd 0fbb 797e 2b3d
000000f0: a05e 543e b492 603e 1e6a 06bd f19f eb3d
00000100: 12dc 81bd 2b9b a2bd d414 e63d 2265 313d
00000110: 8f98 063d b6b3 34be e716 133e 0a8e 0f3e
00000120: 3e36 193d fa23 54bb 0b73 ed3d d88f 193e
00000130: 9618 13bd bf28 4abe 7357 49be a370 583e
00000140: bd9b 26be c08c 923c a4b8 ae3c 3e7b 643e
00000150: 1db9 1f3d 1670 a0bb fd80 23be 1383 7dbe
00000160: 1311 693d fc7c 583e 86ae 08be e891 bcbc
00000170: e018 cd3c 54a1 9a3d 40d1 a7bd 9280 72be
00000180: 611d 14bd 6123 3b3c 1084 3d3e 6d34 d33d
00000190: e018 173e a674 1c3e 1c9a 413d 30d3 053e
000001a0: ae98 7cbe b2cd 073e e706 2a3e 7c33 00be
000001b0: fdf1 43bd b734 5f3e ed9a 7ebd e78b 543e
000001c0: 016f 583e 4ccc 7d3e 1446 d9bd 1855 80be
000001d0: c796 17be f4a9 60be 467f 73be 1b57 b63d
000001e0: 893a 553e d9ed a03c f129 1c3e 522a 2abe
000001f0: adac 6fbe f45b c83d 3047 f73c 3408 55be
00000200: 938d 313c 446f 5d3e ff66 a5bd 8511 05be
00000210: dd78 6cbd 9658 2dbe 0397 b6bb d3c0 483e
00000220: 5525 08be edfb fcbd c499 eebc d3c3 46be
00000230: d67f 883d 5eae 08bd 922c 3e3d a61e 7dbe
00000240: d04a 4bbe 27ac 96bd 9f53 153d f67b 673e
00000250: b005 07be b430 4c3d 3b26 0f3e d67b 52bd
00000260: b7ee debd 8f4b 293e 36ed 65be d22c 6f3e
00000270: 6065 80be 9cb7 8c3c 5f08 d63d 254f 8fbd
00000280: 1e28 803d 8012 f6bd d28c 933d d623 763e
00000290: 45b3 663e 2678 1dbe e434 cfbd 2cfb 36be
000002a0: 105b 11bd 5336 fcbc 7427 eebd 9636 35be
000002b0: 0287 77be 0025 e53d c027 bb3d 9ca3 5ebc
000002c0: 6764 31bd 0dc0 4abd fcab 223c 806c 393e
000002d0: d9c4 e93c b58c 7dbe 5db5 fa3d 5c7f 91bd
000002e0: e1a8 793e 062f 223e f453 963d 544b 3e3e
000002f0: 2292 23bd 9cff 00be 2ed1 573e a757 fc3d
00000300: 8bf4 783d 7974 fc3b c0f2 3fbd cf3c afbd
00000310: 95da 57be b825 35be c91b 1bbe 394e c33d
00000320: 1349 bbbd 4815 363e c5aa ba3d 5ab6 1dbe
00000330: f8fc 693e 3c9c c4bc 6cde 773e 03ef c3bd
00000340: 8b7b 34be 683c 78be 9d42 793c 3da7 ebbd
00000350: 07e0 e9bd 44e0 d73c 840b 07be 31ea 40bd
00000360: 764a 78be 0343 47be 343b 3a3e a1fd e03d
00000370: 3331 00bd 6b4b 8ebd 7840 f03d a406 90bd
00000380: 09b9 d0bd 99d7 0b3e 4723 85bd 68b2 f6bd
00000390: db63 953d 831c adbd 2bed cfbd 04b7 1bbe
000003a0: 51cd 3b3e 5de5 37be 4d9a 323e 341b bb3d
000003b0: e4a2 48be 1f2b b13d e004 52be 8e21 3c3e
000003c0: f79a 25bc 65ef aa3c b61f 14be 2aec 23be
000003d0: f266 0cbe 955b deba 7a8e 543e 7f16 26be
000003e0: 725d 043e bda7 21bd 1f74 933c 0144 af3d
000003f0: d638 7e3e 169c 4d3e f16a d13d e8b6 76be

unet.time_mlp.0.bias f4 [64]
0.22505902 0.08915848 0.05114586 0.010708517 0.24759464 0.23916155 0.15979888 0.048261285
-0.11707073 0.07138141 -0.1793488 0.061496012 0.115573354 -0.045687135 -0.034454055 0.11140049
-0.18007413 -0.088731855 0.116385706 0.17865737 -0.21080264 -0.033230014 0.18516666 -0.06608645
-0.06823496 -0.2116874 0.23362628 0.07913079 0.047899358 -0.07258606 0.12535155 -0.23022322
0.16952258 0.0028883158 -0.00481781 -0.11713653 0.00796998 0.234529 -0.15448269 -0.089862265
0.0924753 0.24638097 -0.21268593 0.04217386 0.19622046 -0.12435009 -0.06790342 0.12549391
0.01662855 0.18795286 0.03641949 0.111750744 -0.21876372 0.20072539 -0.13598755 -0.07393419
0.23771752 0.22004955 -0.04659257 0.056823205 -0.12753314 0.0076288558 -0.1354225 -0.24289933
00000000: df75 663e b998 b63d 527e 513d c772 2f3c
00000010: 7389 7d3e c4e6 743e 51a2 233e a0ad 453d
00000020: c7c2 efbd 6b30 923d 36a7 37be 3ee3 7b3d
00000030: b9b1 ec3d 6f22 3bbd b21f 0dbd f125 e43d
00000040: 5a65 38be 0cb9 b5bd a15b ee3d f5f1 363e
00000050: a6dc 57be 321c 08bd 549c 3d3e 5558 87bd
00000060: c5be 8bbd 95c4 58be ba3b 6f3e 530f a23d
00000070: 1e32 443d 00a8 94bd 285c 003e a3bf 6bbe
00000080: 5497 2d3e e649 3d3b b8de 9dbb 47e5 efbd
00000090: 8594 023c 5f28 703e b630 1ebe b509 b8bd
000000a0: b163 bd3d 4b4b 7c3e 57ca 59be 7fbe 2c3d
000000b0: 04ee 483e 43ab febd f310 8bbd 7a81 003e
000000c0: 9938 883c b776 403e 9a2c 153d 93dd e43d
000000d0: 9903 60be f58a 4d3e 5240 0bbe cf6a 97bd
000000e0: 396c 733e ab54 613e dad7 3ebd 73bf 683d
000000f0: 0c98 02be 7bfb f93b 32ac 0abe 9aba 78be

unet.time_mlp.2.weight f4 [16, 64]
-0.0017323835 0.03862582 -0.063111365 0.06639438 0.041580997 0.0021653827 0.033509023 -0.12095801
-0.03235244 -0.08228847 -0.037490185 0.090390004 0.10792157 0.02648446 0.11329115 0.08885389
-0.011152274 -0.092707984 0.04191981 0.031919535 0.11711122 -0.056481697 -0.085534394 -0.09732029
-0.024901379 -0.048097156 -0.057856206 -0.049955692 0.042942297 0.10335559 0.09664055 0.039417733
-0.04461263 0.04058692 0.11110634 0.08633422 0.04831102 -0.037745494 -0.1170566 -0.0444701
0.09213474 -0.11874063 -0.1016634 -0.12028197 -0.08041092 -0.023896867 0.091604754 0.067042716
-0.0036660214 -0.02858584 0.024898 0.07506076 0.028443083 0.061126564 0.013098293 0.007908186
0.06278736 -0.087870814 -0.056880448 0.014168865 0.11345309 -0.033015735 0.08150719 0.09220111
0.11124511 -0.012850113 0.049694788 -0.076376095 0.086546265 0.06286848 0.07781191 0.0018394253
0.055945333 0.04784717 -0.07609939 0.057232175 -0.023883812 -0.017809024 0.058371805 0.07264378
0.03775699 -0.06993135 -0.10408177 0.07896212 0.0903529 -0.031011919 0.039822984 -0.0018167451
0.09827485 0.11025008 0.10978183 0.124716654 0.119196504 -0.088426 0.081159875 0.1141627
-0.0745888 0.08538186 -0.022330398 0.12147153 -0.076319456 -0.028606243 -0.02826715 -0.105304725
0.0102364225 0.05419279 0.08976937 0.044146072 -0.0050545745 -0.021295566 -0.06874992 -0.01855286
-0.094306886 -0.032934282 0.06634208 -0.10461051 0.07778194 -0.071393825 0.1153243 -0.033329707
-0.028469184 0.0004993414 0.08916318 -0.1056473 0.09012351 0.109456725 0.119751595 0.02030056
0.049678847 0.08664456 0.052936953 -0.1229407 0.07982366 -0.0020796717 0.04108652 0.083354995
-0.07600064 -0.05706646 -0.07853076 0.025842503 -0.043690935 -0.095173575 0.04655311 -0.002015585
-0.05820953 -0.11721829 0.035095073 0.12294034 0.0061723045 -0.09422061 -0.068262465 -0.03915166
0.071513444 -0.06864339 -0.06410696 -0.026922083 -0.079621084 0.048766766 -0.03503939 0.12154136
-0.11884896 -0.05941422 0.11391518 -0.015529186 0.04814839 0.086861365 0.03421375 0.1138025
0.036092535 -0.04979769 -0.10135428 0.046148296 0.09038072 -0.10408783 -0.018592477 0.04570251
0.0015563965 0.05304678 0.04156909 -0.015564412 0.044295765 -0.030458348 0.041343402 0.083979234
0.11807614 -0.123470336 0.09131265 -0.113416165 -0.028422365 -0.036788736 0.0485584 0.09372409
0.09934239 -0.1046971 -0.11389414 0.082837604 0.09689254 0.120793454 -0.09665475 -0.007810121
0.032806765 0.10813073 -0.075468436 0.04204503 0.09872649 0.03548985 0.03544683 0.07046416
0.11214771 0.07988753 -0.07219503 -0.1161254 -0.04892298 -0.003301917 -0.06644495 0.07721353
-0.0972666 -0.047136407 -0.10147028 0.08483489 -0.11388585 -0.015838405 -0.10263575 0.05087857
-0.025699412 0.00035490654 -0.10700414 -0.071699105 0.11579366 0.0028024318 0.052579828 0.05728028
0.039878733 -0.022675494 -0.013583789 0.068220414 -0.018457884 -0.07860846 0.119746506 0.07438209
-0.087401874 -0.006303766 -0.08874259 -0.053601153 0.0115094185 0.05395376 -0.075494416 0.06778336
-0.049416654 0.0708623 0.114040755 0.08900315 0.008303154 0.08590168 0.032707382 0.08451573
00000000: 2511 e3ba 1c36 1e3d 8840 81bd c7f9 873d
00000010: d650 2a3d 18e9 0d3b c240 093d d5b8 f7bd
00000020: fe83 04bd db86 a8bd 4f8f 19bd 651e b93d
00000030: fc05 dd3d f0f5 d83c 3105 e83d 07f9 b53d
00000040: 07b8 36bc afdd bdbd 1bb4 2b3d 0fbe 023d
00000050: 02d8 ef3d 5a59 67bd a82c afbd dc4f c7bd
00000060: fafd cbbc 8601 45bd a1fa 6cbd 579e 4cbd
00000070: 43e4 2f3d 18ac d33d 7beb c53d 7d74 213d
00000080: bcbb 36bd 783e 263d b98b e33d ffcf b03d
00000090: c7e1 453d 059b 1abd 5fbb efbd 4826 36bd
000000a0: 23b1 bc3d 4a2e f3bd e734 d0bd 6556 f6bd
000000b0: 7bae a4bd 5dc3 c3bc 469b bb3d b14d 893d
000000c0: a241 70bb da2c eabc e4f6 cb3c 75b9 993d
000000d0: 7801 e93c d95f 7a3d 399a 563c 5691 013c
000000e0: a996 803d 9df5 b3bd 79fb 68bd 8724 683c
000000f0: 185a e83d 823b 07bd 3eed a63d f0d3 bc3d
00000100: 7ad4 e33d 4889 52bc c38c 4b3d 126b 9cbd
00000110: 2b3f b13d 31c1 803d da5b 9f3d df18 f13a
00000120: ef26 653d 65fb 433d ffd9 9bbd 496c 6a3d
00000130: fca7 c3bc 3be4 91bc 4617 6f3d 43c6 943d
00000140: 13a7 1a3d 2b38 8fbd d328 d5bd e4b6 a13d
00000150: f10a b93d b50c febc 6d1d 233d da1f eeba
00000160: 5344 c93d cbca e13d 4cd5 e03d 726b ff3d
00000170: 4c1d f43d b118 b5bd 2637 a63d 22ce e93d
00000180: 03c2 98bd afdc ae3d 3dee b6bc 11c6 f83d
00000190: 604d 9cbd a457 eabc 8390 e7bc 01aa d7bd
000001a0: abb6 273c 42f9 5d3d 01d9 b73d 83d2 343d
000001b0: d8a0 a5bb 0a74 aebc c2cc 8cbd 2bfc 97bc
000001c0: f823 c1bd 19e6 06bd 5bde 873d 093e d6bd
000001d0: 234c 9f3d ed36 92bd 262f ec3d bb84 08bd
000001e0: 3538 e9bc 3ce6 023a 2f9b b63d 9d5d d8bd
000001f0: ad92 b83d d92a e03d 5340 f53d 5c4d a63c
00000200: 0c7c 4b3d b472 b13d 6bd4 583d 55c8 fbbd
00000210: 967a a33d 1a4b 08bb 574a 283d 06b6 aa3d
00000220: 39a6 9bbd 85be 69bd bcd4 a0bd a8b3 d33c
00000230: 44f5 32bd 5dea c2bd 79ae 3e3d e817 04bb
00000240: 1e6d 6ebd 2510 f0bd dabf 0f3d 25c8 fb3d
00000250: 0b41 ca3b bcf6 c0bd 31cd 8bbd 7e5d 20bd
00000260: a475 923d e894 8cbd 834a 83bd b38b dcbc
00000270: 6110 a3bd a9bf 473d 7785 0fbd adea f83d
00000280: 1567 f3bd 535c 73bd 5d4c e93d 216e 7ebc
00000290: 3f37 453d 5fe4 b13d b823 0c3d 4911 e93d
000002a0: c4d5 133d aaf8 4bbd d592 cfbd ff05 3d3d
000002b0: 8719 b93d 002c d5bd 404f 98bc 8e32 3b3d
000002c0: 0000 cc3a 9547 593d 5a44 2a3d e001 7fbc
000002d0: 7a6f 353d c983 f9bc b357 293d 4efd ab3d
000002e0: e7d1 f13d 04de fcbd 2002 bb3d bc46 e8bd
000002f0: 05d6 e8bc c9af 16bd 2ce5 463d 6af2 bf3d
00000300: 0674 cb3d 6f6b d6bd 5541 e9bd c3a6 a93d
00000310: 996f c63d 8f62 f73d edf2 c5bd 0bec ffbb
00000320: 6360 063d a573 dd3d 328f 9abd 6937 2c3d
00000330: 1d31 ca3d ce5d 113d b230 113d 834f 903d
00000340: b3ad e53d 139c a33d fdda 93bd 27d3 edbd
00000350: 7663 48bd fa64 58bb 4a14 88bd 2122 9e3d
00000360: b633 c7bd 1b12 41bd a6cf cfbd eabd ad3d
00000370: fc3c e9bd 8bbf 81bc b132 d2bd 0c66 503d
00000380: 9387 d2bc c012 ba39 fd24 dbbd fbd6 92bd
00000390: 3a25 ed3d 01a9 373b f25d 573d ba9e 6a3d
000003a0: e257 233d f5c1 b9bc 8a8e 5ebc 25b7 8b3d
000003b0: fd34 97bc 79fd a0bd a83d f53d a355 983d
000003c0: c1ff b2bd d28f cebb adbe b5bd e28c 5bbd
000003d0: 0092 3c3c 9efe 5c3d d19c 9abd 01d2 8a3d
000003e0: 1e69 4abd 4120 913d 338e e93d 4947 b63d
000003f0: f409 083c 38ed af3d 2df8 053d 9516 ad3d

unet.time_mlp.2.bias f4 [16]
0.11393581 0.013507712 -0.047126815 -0.05977739 -0.004269111 -0.0029928354 -0.00397541 -0.019067366
-0.12099367 -0.07009235 0.07878393 -0.102919266 -0.09935226 0.007913285 -0.08856364 -0.06516851
00000000: 2e57 e93d 734f 5d3c 0c08 41bd 23d9 74bd
00000010: e6e3 8bbb 7223 44bb 2844 82bb 2a33 9cbc
00000020: 87cb f7bd 948c 8fbd 7859 a13d 56c7 d2bd
00000030: 3379 cbbd b9a6 013c db60 b5bd 1177 85bd

unet.cond_mlp.0.weight f4 [16, 32]
-0.022204349 -0.08290041 0.088282906 -0.106860526 0.11902739 -0.085343525 -0.06396224 -0.14287674
0.16405073 0.024497578 0.15535207 -0.0325531 -0.037760563 0.023423873 0.00202208 0.04984533
-0.048628267 -0.009061299 0.018523693 0.04859369 -0.0050508995 -0.02351772 0.028009053 0.095487244
-0.09708183 -0.09299315 0.038386412 -0.12006509 -0.081252396 -0.073433526 -0.03467352 -0.083044395
0.07548331 -0.084451154 0.083693825 0.020970663 -0.08920237 -0.15561393 0.05071178 -0.07686479
-0.011129459 -0.11536266 -0.028401257 0.10557734 -0.15401337 0.15702155 0.1535466 0.08280691
-0.061012596 0.13393426 0.15875809 0.060631808 0.104261 0.022262918 0.13496754 0.051122077
-0.057405356 0.08843432 -0.040029775 -0.16992255 -0.017848184 -0.089001626 -0.16015142 -0.064932786
0.16186012 -0.051435247 0.061511032 0.09952188 0.06043733 -0.08773322 0.17397705 0.1640092
-0.081092015 -0.14126655 -0.08164344 -0.17567022 -0.15706035 0.13494995 0.024134045 0.020194134
-0.15523043 -0.004841542 -0.065849446 0.13158873 -0.032163937 0.08658088 0.07215607 -0.10145803
0.1283716 0.06643321 0.05483436 -0.06182221 0.15156865 -0.14629309 0.012132397 -0.015669445
0.124761105 0.058151133 -0.029951481 -0.011130024 -0.11610494 -0.12021358 -0.07997745 -0.14512889
0.10684776 0.07430541 -0.17235704 0.13000984 0.07896288 0.1154498 -0.14179611 0.063845575
-0.03745492 -0.03653772 -0.080035925 0.019354524 0.035730194 -0.15594976 0.14919166 0.07965423
-0.09947321 0.026630405 0.06815888 0.052262962 -0.08933725 -0.031075507 0.0044276863 -0.16469784
0.093824744 0.053031966 -0.068099186 -0.1776133 -0.05608908 0.022770425 0.041132458 -0.12094229
0.0035757842 0.02761069 0.03830757 0.09833274 -0.060037106 -0.14403212 0.001998374 -0.062435918
0.12642191 -0.06256059 0.007937737 0.10889969 0.17482948 -0.14901012 0.13736984 -0.014598676
-0.03393924 -0.1277528 0.008430606 0.04787234 0.005158553 -0.15894882 0.1698644 -0.1147614
-0.13574043 0.14496632 0.05543233 0.11348557 0.1082115 0.0031860394 0.11421097 0.124792784
-0.15432158 -0.0028520734 -0.10758554 -0.056499306 0.028039943 0.17073306 -0.020305026 -0.07588698
-0.125222 0.05232576 0.041848533 0.07871737 0.13353696 -0.102068104 0.15576096 -0.071517736
-0.03649747 -0.03046132 0.0063251294 -0.034350045 -0.13250495 0.09851727 -0.0115579255 -0.103554174
0.06803447 -0.08454734 0.15960652 -0.09145071 -0.04289931 0.08192126 -0.15303345 -0.051604114
0.1388743 0.11851231 -0.06289478 0.008321498 -0.059033487 -0.0068929754 -0.077486366 -0.16561246
0.021256723 0.14775869 -0.13165693 -0.12925237 0.11152757 0.08757542 -0.17446621 -0.07826287
-0.040827695 0.117651254 0.07989719 0.046661206 0.081324555 -0.093688585 -0.15874684 0.05574349
0.13016483 0.13073128 -0.05618705 -0.14581719 -0.1427314 0.13605626 -0.005045763 0.10005415
-0.08449056 0.1299054 0.01318 0.042658783 -0.077005416 -0.101747364 0.021007229 0.04047296
-0.038806424 0.16057807 0.090669796 0.17606682 -0.04382156 0.10954489 0.056393433 -0.021342952
-0.15771689 0.03370453 -0.041297033 0.07702458 0.017676683 -0.08272356 0.022285972 -0.0719487
00000000: e5e5 b5bc b1c7 a9bd abcd b43d b1d9 dabd
00000010: a2c4 f33d 96c8 aebd a3fe 82bd 484e 12be
00000020: eafc 273e 25af c83c 9d14 1f3e 6656 05bd
00000030: d2aa 1abd 6ce3 bf3c df84 043b 9e2a 4c3d
00000040: 6f2e 47bd d875 14bc 00bf 973c 2d0a 473d
00000050: 0482 a5bb 3ca8 c0bc 3e73 e53c d18e c33d
00000060: d7d2 c6bd 3173 bebd 123b 1d3d b0e4 f5bd
00000070: a867 a6bd 5164 96bd d205 0ebd 2e13 aabd
00000080: fe96 9a3d baf4 acbd ab67 ab3d abca ab3c
00000090: bbaf b6bd 4259 1fbe 28b7 4f3d 496b 9dbd
000000a0: 5658 36bc 4243 ecbd c1a9 e8bc ef38 d83d
000000b0: aeb5 1dbe 42ca 203e 523b 1d3e ab96 a93d
000000c0: 58e8 79bd 1026 093e 7b91 223e 0f59 783d
000000d0: cb86 d53d b960 b63c ee34 0a3e 6265 513d
000000e0: e121 6bbd 0e1d b53d 43f6 23bd 2d00 2ebe
000000f0: 5b36 92bc 7c46 b6bd bcfe 23be 7bfb 84bd
00000100: a9be 253e c4ad 52bd fef2 7b3d 21d2 cb3d
00000110: 228d 773d 79ad b3bd 0a27 323e 07f2 273e
00000120: 9213 a6bd 2ea8 10be ad34 a7bd e5e2 33be
00000130: 6ed4 20be 5230 0a3e c3b4 c53c 2b6e a53c
00000140: baf4 1ebe cca5 9ebb 13dc 86bd 32bf 063e
00000150: 55be 03bd 5151 b13d 90c6 933d 3ac9 cfbd
00000160: d873 033e 230e 883d fe99 603d 4939 7dbd
00000170: d034 1b3e dbcd 15be f6c6 463c 355d 80bc
00000180: c082 ff3d e22f 6e3d cf5c f5bc b45a 36bc
00000190: 6dc8 edbd 8a32 f6bd 38cb a3bd ab9c 14be
000001a0: 00d3 da3d 6f2d 983d 5d7e 30be 4d21 053e
000001b0: 4ab7 a13d f270 ec3d 0033 11be 78c1 823d
000001c0: 556a 19bd 94a8 15bd e0e9 a3bd 618d 9e3c
000001d0: d359 123d 4bb1 1fbe b3c5 183e c221 a33d
000001e0: 9cb8 cbbd 0228 da3c e296 8b3d b011 563d
000001f0: 73f6 b6bd 1092 febc 2016 913b 8da6 28be
00000200: 3027 c03d 0c38 593d 9677 8bbd 43e0 35be
00000210: aabd 65bd 0b89 ba3c 827a 283d 97b0 f7bd
00000220: b457 6a3b d02f e23c 66e8 1c3d ad62 c93d
00000230: 78e9 75bd 287d 13be 27f7 023b cebc 7fbd
00000240: bf74 013e c41f 80bd 480d 023c cd06 df3d
00000250: 8006 333e 1c96 18be aeaa 0c3e 492f 6fbc
00000260: df03 0bbd a1d1 02be 8620 0a3c c915 443d
00000270: 1409 a93b 7bc3 22be eff0 2d3e 0608 ebbd
00000280: 8aff 0abe 0d72 143e 030d 633d 1f6b e83d
00000290: fe9d dd3d dfcc 503b 71e7 e93d 5c93 ff3d
000002a0: 7a06 1ebe dae9 3abb cf55 dcbd d16b 67bd
000002b0: 06b4 e53c a6d4 2e3e ba56 a6bc a26a 9bbd
000002c0: 323a 00be 8953 563d 5e69 2b3d 9336 a13d
000002d0: eabd 083e 1509 d1bd cd7f 1f3e e477 92bd
000002e0: 5f7e 15bd 058a f9bc 0843 cf3b a2b2 0cbd
000002f0: 61af 07be 6cc3 c93d 745d 3dbc 3614 d4bd
00000300: a855 8b3d 2827 adbd e46f 233e 834a bbbd
00000310: 30b7 2fbd 55c6 a73d cdb4 1cbe d65e 53bd
00000320: 1135 0e3e 95b6 f23d face 80bd e456 083c
00000330: 19cd 71bd 78de e1bb 2cb1 9ebd 5096 29be
00000340: 9422 ae3c 0e4e 173e 13d1 06be bc5a 04be
00000350: 9168 e43d be5a b33d 45a7 32be 4948 a0bd
00000360: f13a 27bd 24f3 f03d 23a1 a33d d21f 3f3d
00000370: 7d8d a63d cddf bfbd 888e 22be 4953 643d
00000380: ee49 053e 6cde 053e 6424 66bd 1a51 15be
00000390: 2e28 12be 5552 0b3e ee56 a5bb 31e9 cc3d
000003a0: 6309 adbd ec05 053e edf0 573c faba 2e3d
000003b0: 04b5 9dbd ec60 d0bd 5a17 ac3c f9c6 253d
000003c0: 7cf3 1ebd 946e 243e 16b1 b93d dc4a 343e
000003d0: 3c7e 33bd 1259 e03d cdfc 663d 6ad7 aebc
000003e0: 8980 21be c30d 0a3d 1427 29bd 10bf 9d3d
000003f0: b1ce 903c f86a a9bd 1291 b63c d759 93bd

unet.cond_mlp.0.bias f4 [16]
0.13183486 -0.08039476 -0.040606715 0.07451044 0.14096455 -0.051067267 0.11374692 0.10372335
-0.0015308782 0.013598213 -0.053033236 0.1747109 -0.012206513 -0.10844053 0.016482133 0.14858109
00000000: b8ff 063e 02a6 a4bd 3a53 26bd ee98 983d
00000010: 0359 103e e92b 51bd 25f4 e83d e86c d43d
00000020: c0a7 c8ba 0acb 5e3c 6139 59bd 6ae7 323e
00000030: d4fd 47bc 1216 debd 8a05 873c a425 183e
