src/logs_example/run_20250720_011205_ws10_fd1_ed16_bc8_rb1_nt50_s0.008_sw100_lr0.001_bs32_f6be3fe8/model_run_20250720_011205_ws10_fd1_ed16_bc8_rb1_nt50_s0.008_sw100_lr0.001_bs32_f6be3fe8.pt (torch, 35459 bytes, 32 tensors)

betas f4 [50]
0	0x3ae50c00	0.001747489
1	0x3b71c300	0.003688991
2	0x3bb89b80	0.0056337714
3	0x3bf89200	0.007585764
4	0x3c1c7300	0.0095489025
5	0x3c3cdb40	0.011526883
6	0x3c5d94c0	0.013524234
7	0x3c7eae80	0.015544534
8	0x3c901e40	0.01759255
9	0x3ca12980	0.019673109
10	0x3cb28280	0.021790743
11	0x3cc43480	0.023950815
12	0x3cd64b60	0.026158988
13	0x3ce8d440	0.028421521
14	0x3cfbdbe0	0.030744493
15	0x3d07b910	0.033135474
16	0x3d11d3a0	0.035602212
17	0x3d1c46e0	0.03815353
18	0x3d271cb0	0.040798843
19	0x3d3260b0	0.04354924
20	0x3d3e1f10	0.046416342
21	0x3d4a6650	0.04941398
22	0x3d574630	0.05255717
23	0x3d64d180	0.055863857
24	0x3d731cc0	0.05935359
25	0x3d812048	0.06304985
26	0x3d892c40	0.06697893
27	0x3d91c290	0.07117188
28	0x3d9af6b0	0.07566583
29	0x3da4df08	0.08050352
30	0x3daf9688	0.085736334
31	0x3dbb3e18	0.09142703
32	0x3dc7fcd8	0.09765023
33	0x3dd60310	0.10449803
34	0x3de58d00	0.11208534
35	0x3df6e630	0.120556235
36	0x3e053704	0.13009268
37	0x3e105080	0.14093208
38	0x3e1d1150	0.15338635
39	0x3e2be75c	0.16787475
40	0x3e3d6938	0.18497169
41	0x3e526d30	0.20549464
42	0x3e6c2b28	0.23063338
43	0x3e863ef8	0.26219916
44	0x3e9b2c50	0.30307245
45	0x3eb75ce8	0.3581307
46	0x3edf588c	0.43622243
47	0x3f0e09a7	0.5548348
48	0x3f3ff029	0.7497583
49	0x3f7fbe77	0.999

alphas f4 [50]
0	0x3f7f8d7a	0.9982525
1	0x3f7f0e3d	0.996311
2	0x3f7e8ec9	0.9943662
3	0x3f7e0edc	0.99241424
4	0x3f7d8e34	0.9904511
5	0x3f7d0c93	0.9884731
6	0x3f7c89ad	0.98647577
7	0x3f7c0546	0.98445547
8	0x3f7b7f0e	0.98240745
9	0x3f7af6b4	0.9803269
10	0x3f7a6bec	0.97820926
11	0x3f79de5c	0.9760492
12	0x3f794da5	0.973841
13	0x3f78b95e	0.9715785
14	0x3f782121	0.9692555
15	0x3f77846f	0.9668645
16	0x3f76e2c6	0.9643978
17	0x3f763b92	0.9618465
18	0x3f758e35	0.95920116
19	0x3f74d9f5	0.95645076
20	0x3f741e0f	0.95358366
21	0x3f73599b	0.950586
22	0x3f728b9d	0.9474428
23	0x3f71b2e8	0.94413614
24	0x3f70ce34	0.9406464
25	0x3f6fdbf7	0.93695015
26	0x3f6eda78	0.93302107
27	0x3f6dc7ae	0.9288281
28	0x3f6ca12a	0.92433417
29	0x3f6b641f	0.9194965
30	0x3f6a0d2f	0.91426367
31	0x3f68983d	0.908573
32	0x3f670065	0.90234977
33	0x3f653f9e	0.895502
34	0x3f634e60	0.88791466
35	0x3f61233a	0.87944376
36	0x3f5eb23f	0.8699073
37	0x3f5bebe0	0.8590679
38	0x3f58bbac	0.84661365
39	0x3f550629	0.83212525
40	0x3f50a5b2	0.8150283
41	0x3f4b64b4	0.79450536
42	0x3f44f536	0.7693666
43	0x3f3ce084	0.73780084
44	0x3f3269d8	0.69692755
45	0x3f24518c	0.6418693
46	0x3f1053ba	0.56377757
47	0x3ee3ecb2	0.44516522
48	0x3e801fae	0.2502417
49	0x3a831200	0.0009999871

alpha_bars f4 [50]
0	0x3f7f8d7a	0.9982525
1	0x3f7e9c23	0.99456996
2	0x3f7d2ced	0.98896676
3	0x3f7b4146	0.98146474
4	0x3f78db13	0.9720928
5	0x3f75fcbb	0.9608876
6	0x3f72a913	0.94789237
7	0x3f6ee36e	0.9331578
8	0x3f6aaf8d	0.9167412
9	0x3f661199	0.898706
10	0x3f610e2d	0.87912256
11	0x3f5baa45	0.85806686
12	0x3f55eb3d	0.8356207
13	0x3f4fd6c8	0.81187105
14	0x3f4972f8	0.78691053
15	0x3f42c624	0.7608359
16	0x3f3bd6f0	0.73374844
17	0x3f34ac40	0.7057533
18	0x3f2d4d36	0.6769594
19	0x3f25c124	0.64747834
20	0x3f1e0f8d	0.6174248
21	0x3f164016	0.5869154
22	0x3f0e5a85	0.5560687
23	0x3f0666b3	0.52500457
24	0x3efcd914	0.49384367
25	0x3eece7ec	0.46270692
26	0x3edd09ca	0.4317153
27	0x3ecd4e79	0.40098932
28	0x3ebdc597	0.37064812
29	0x3eae7e9a	0.34080964
30	0x3e9f88b5	0.31158987
31	0x3e90f2c3	0.28310212
32	0x3e82cb47	0.25545713
33	0x3e6a40af	0.22876237
34	0x3e4fff13	0.20312147
35	0x3e36ebcf	0.17863391
36	0x3e1f1fda	0.15539494
37	0x3e08b2dd	0.13349481
38	0x3de77642	0.11301853
39	0x3dc09af7	0.09404557
40	0x3d9cfa92	0.0766498
41	0x3d7970e5	0.06089868
42	0x3d3fe95d	0.046853412
43	0x3d0d97af	0.034568485
44	0x3cc55c05	0.02409173
45	0x3c7d5ba3	0.015463742
46	0x3c0ed668	0.008718111
47	0x3b7e585f	0.0038809997
48	0x3a7e9752	0.00097118795
49	0x35825956	9.711755e-07

stat_predictor.cond_mlp.0.weight f4 [16, 32]
0	0xbde900c9	-0.11377103
1	0x3d21aaf9	0.039469693
2	0x3e026773	0.12734775
3	0xbdb723da	-0.08942385
4	0x3cacfc1f	0.021116314
5	0xbc8adc43	-0.016950732
6	0x3dec8fc9	0.11550862
7	0x3d18af36	0.03727647
8	0xbda582ad	-0.08081565
9	0xbaa36a8c	-0.0012467667
10	0xbd99eb35	-0.07515565
11	0xbe0c379a	-0.13693085
12	0x3de8e9a4	0.113726884
13	0x3e105aee	0.14097187
14	0x3e08102e	0.13287422
15	0xbd5332f2	-0.051562257
16	0xbd9da1b2	-0.076968566
17	0xbd08d24b	-0.033403676
18	0xbd5f8afc	-0.054575905
19	0xbe35b782	-0.17745784
20	0xbd8ae4b6	-0.067819044
21	0x3da5b3b4	0.08090916
22	0x3d408d19	0.04700956
23	0xbda4b4d2	-0.08042301
24	0xbcf0cd4d	-0.02939477
25	0x3e37468e	0.17898008
26	0x3dbe38bc	0.09288165
27	0x3d18492f	0.03717917
28	0x3da0bec8	0.07848889
29	0x3e2a73de	0.16645762
30	0xbdc6edb2	-0.097133055
31	0x3df2402c	0.11828646
32	0xbd521fd3	-0.05129988
33	0xbc168ece	-0.009189321
34	0xbdc23077	-0.094819
35	0x3d94dc3a	0.072685674
36	0xbd2e8379	-0.04260585
37	0x3d7ab2fe	0.061205857
38	0x3d81fef9	0.0634746
39	0x3d429240	0.047502756
40	0xbdcbcd5c	-0.099512786
41	0xbd432a82	-0.04764796
42	0x3e348743	0.17629723
43	0xbd806d99	-0.06270904
44	0x3e2e27ce	0.17007372
45	0x3d9c4624	0.07630566
46	0x3e0a7829	0.135224
47	0xbe119922	-0.14218572
48	0xbc9cc8be	-0.01913869
49	0x3da984cc	0.08277282
50	0xbe05735a	-0.13032284
51	0x3e091683	0.13387494
52	0xbb9b1207	-0.0047323736
53	0x3d410654	0.047125176
54	0x3d20fecc	0.039305493
55	0x3cbc2389	0.022966163
56	0x3e26ba37	0.16281973
57	0x3ca938ca	0.020656962
58	0xbe0d24e0	-0.13783598
59	0x3b680874	0.003540543
60	0x3e1773b1	0.14790227
61	0xba81e0dc	-0.0009908932
62	0x3cf31972	0.02967522
63	0xbb8bfff9	-0.0042724577
64	0x3dd278de	0.1027696
65	0xbe2cda25	-0.1688009
66	0xbdcb093c	-0.09913871
67	0x3e237cb4	0.15965539
68	0xbe21ad2b	-0.15788715
69	0xbdf7fbea	-0.12108596
70	0x3e1f465c	0.15554184
71	0xbe34a04d	-0.17639275
72	0x3d40674d	0.046973515
73	0xbb203db9	-0.0024450852
74	0xbdbb7555	-0.09153239
75	0xbe259dba	-0.16173449
76	0xbe2181cd	-0.15772171
77	0x3df02a34	0.117267996
78	0x3d819b2e	0.06328426
79	0xbe0a6979	-0.13516797
80	0x3a06a8a6	0.0005136825
81	0x3d1a4a58	0.037668556
82	0x3e07a0cc	0.13244933
83	0x3d507ae9	0.050898466
84	0x3d9a1ddc	0.075252265
85	0xbd14a81e	-0.03629314
86	0x3d8dec70	0.069298625
87	0x3c8f9960	0.01752919
88	0xbd103f58	-0.03521666
89	0xbd6008b6	-0.054695807
90	0xbcf86416	-0.030321162
91	0x3dd01c14	0.101616055
92	0x3e0f0dd6	0.13970122
93	0x3d068b6f	0.032847818
94	0xbda6b25a	-0.081394866
95	0xbd9396c8	-0.072064936
96	0xbdd5a05d	-0.104309775
97	0xbd25cf12	-0.04048068
98	0x3e0b5251	0.1360562
99	0xbde2614c	-0.11053714
100	0x3dc84885	0.09779457
101	0x3d940a93	0.07228579
102	0x3e0dcdaa	0.13847986
103	0xbd13e859	-0.036110256
104	0xbe009e4c	-0.12560385
105	0xbe190c98	-0.1494621
106	0xbdce3c00	-0.10070038
107	0xbc924b35	-0.017858127
108	0x3e17c65f	0.14821766
109	0xbd24e903	-0.04026128
110	0x3d51eb54	0.051249817
111	0xbd81de32	-0.063412085
112	0xbd9c2000	-0.07623291
113	0xbe11809c	-0.14209217
114	0x3c7c81f8	0.015411846
115	0x3df1d65e	0.118084654
116	0x3e1e6aa9	0.15470375
117	0xbd2c5fc8	-0.04208353
118	0x3ad0e4b8	0.0015937304
119	0xbdc4578b	-0.0958701
120	0x3da5bd26	0.08092718
121	0x3e22363f	0.15841006
122	0xbba5c271	-0.0050585796
123	0xbd5c0ce0	-0.053723216
124	0xbd9be802	-0.07612611
125	0xbca47854	-0.020076908
126	0xbc751c69	-0.014960387
127	0xbdb1737c	-0.08664605
128	0x39d69046	0.00040924753
129	0xbe10fe42	-0.14159492
130	0xbe075b9d	-0.13218541
131	0x3c3e4106	0.0116121825
132	0x3e18cd8c	0.1492216
133	0x3dd6c8f9	0.10487551
134	0xbd61a833	-0.055092048
135	0x3e0fa235	0.14026721
136	0xbe12f169	-0.14349903
137	0xbdabec24	-0.083946496
138	0x3e0b060e	0.13576528
139	0xbdfc08aa	-0.1230634
140	0xbe19fe3e	-0.15038392
141	0xbdac766a	-0.08421023
142	0x3d8ccb17	0.06874674
143	0x3e3687a9	0.17825188
144	0x3c58d165	0.013233517
145	0x3c9c041a	0.019044925
146	0xbde5cb90	-0.11220467
147	0x3d2c63fe	0.042087547
148	0xbd0f963a	-0.035055377
149	0xbdc6620b	-0.09686669
150	0x3e2a6b3a	0.16642466
151	0x3cd9c77a	0.026584376
152	0xbe08f88a	-0.1337606
153	0xbc4672cc	-0.012112331
154	0xbb02b894	-0.0019946443
155	0x3db109ba	0.08644433
156	0xbdcb7b73	-0.099356554
157	0x3d81a347	0.06329971
158	0x3dcd2f7a	0.10018821
159	0xbe108df0	-0.14116645
160	0xbc9189ec	-0.017765962
161	0x3dcf1f14	0.101133496
162	0xbd712276	-0.058870755
163	0x3b24b2ca	0.002513098
164	0x3d821de5	0.06353358
165	0x3d1bc144	0.03802611
166	0xbcd32afb	-0.02577733
167	0x3dd2d2f6	0.10294144
168	0xbdb1499a	-0.086566165
169	0x3d7b97a2	0.061423905
170	0x3e2ae26f	0.1668794
171	0xbe2ebe22	-0.17064717
172	0x3cbda513	0.023150003
173	0xbe031e19	-0.1280445
174	0x3e336ebc	0.1752271
175	0xbde5c86a	-0.112198666
176	0xbdb95bad	-0.09050689
177	0x3dfa435b	0.12219878
178	0xbd708152	-0.05871708
179	0xbe2970ae	-0.1654689
180	0xbca5d0a6	-0.020241093
181	0x3e08fc69	0.13377537
182	0x3d9a20ba	0.07525773
183	0x3cbde678	0.023181185
184	0x3dbaa7aa	0.09114011
185	0x3c3796e7	0.0112054115
186	0x3dc85505	0.09781841
187	0x3dfa1d92	0.12212671
188	0x3cbc9d2b	0.023024162
189	0xbdde960d	-0.10868464
190	0xbe122e13	-0.14275388
191	0x3b59b431	0.0033218975
192	0xbe39e4b7	-0.18153654
193	0x3d86d7a4	0.06584099
194	0x3e26e844	0.1629954
195	0xbd7883b7	-0.060672488
196	0xbe1c5dcb	-0.15270154
197	0x3db93911	0.09044088
198	0xbb9f6bc8	-0.0048651434
199	0x3dc42d9e	0.09579013
200	0x3d17b984	0.037042156
201	0xbdac485c	-0.08412239
202	0x3e235906	0.15951928
203	0xbdb5e746	-0.088820025
204	0x3e1bd2f7	0.15217195
205	0xbe26a1c5	-0.16272648
206	0x3df07d93	0.117427014
207	0xbd4d8150	-0.05017215
208	0x3d02205c	0.03176914
209	0xbd43d8f4	-0.047814324
210	0x3e04f6a9	0.12984718
211	0xbe19a631	-0.15004803
212	0x3d92392c	0.07139811
213	0x3db95604	0.09049609
214	0x3d4eee94	0.050520495
215	0x3e0ef7bd	0.13961692
216	0xbe38dcc2	-0.18052962
217	0xbc57866f	-0.01315461
218	0x3e0038d3	0.12521677
219	0xbd9dcb7b	-0.077048264
220	0xbc818550	-0.015810639
221	0xbe15dcd2	-0.14635018
222	0xbd26c2ac	-0.040712997
223	0xbc0e619e	-0.008690266
224	0xbdd2daba	-0.10295625
225	0x3da3140a	0.079628065
226	0x3d72f507	0.059315708
227	0xbe18d8e7	-0.14926492
228	0xbdacea8b	-0.08443173
229	0xbdc6f5ae	-0.097148284
230	0xbbd75bba	-0.006572214
231	0xbdd0c04a	-0.10192926
232	0x3dda1420	0.1064837
233	0xbe14f1a5	-0.14545305
234	0xbd58484d	-0.052803326
235	0xbe356025	-0.17712457
236	0x3d79fdae	0.061032943
237	0xbda9241a	-0.08258839
238	0x3cb821d7	0.022477074
239	0xbb0423f9	-0.0020163043
240	0xbda8ad48	-0.08236176
241	0x3e157daf	0.14598726
242	0x3e0c30fc	0.13690561
243	0xbe33a136	-0.17541966
244	0xbe04fc78	-0.12986934
245	0xbde25f05	-0.1105328
246	0x3cdc1c70	0.026869029
247	0xbe003817	-0.12521397
248	0xbdeaf80e	-0.11473094
249	0xbdbbbc16	-0.09166734
250	0x3de10cc2	0.109887615
251	0x3dcf4cc2	0.10122062
252	0xbd5a5db3	-0.053312015
253	0x3d09d680	0.03365183
254	0xbdbecfce	-0.09316979
255	0x3cac7e38	0.02105628

stat_predictor.cond_mlp.0.bias f4 [16]
0	0xbcd954ed	-0.026529754
1	0x3d1ca1e4	0.03824033
2	0x3d2d4e2e	0.042310886
3	0x3e100e47	0.14067946
4	0x3dec7a56	0.11546771
5	0x3d012957	0.031533565
6	0x3cc2cf90	0.023780614
7	0x3e215689	0.15755667
8	0x3e05a7de	0.13052318
9	0xbdd471a2	-0.10373236
10	0xbdab2df7	-0.083583765
11	0x3ddf69b2	0.10908832
12	0x3d04c58c	0.032414958
13	0x3e325a11	0.1741717
14	0xbbd595ae	-0.0065180873
15	0xbd0c056e	-0.034184866

stat_predictor.cond_mlp.2.weight f4 [16, 16]
0	0x3e49eaa9	0.19718422
1	0x3cfa8344	0.03058017
2	0xbe5cfe11	-0.21581294
3	0xbb751b79	-0.0037400408
4	0xbe42878c	-0.1899702
5	0xbdd6b8b2	-0.104844466
6	0x3dc1b94a	0.09459169
7	0x3c96a7d5	0.018390575
8	0x3df1c1d6	0.118045494
9	0xbe35558e	-0.17708418
10	0x3e2db6c8	0.16964257
11	0xbe16c647	-0.14724074
12	0x3ce198ba	0.027538646
13	0xbdc2b09f	-0.09506344
14	0xbdd6f8f5	-0.104967035
15	0xbe789f92	-0.24279621
16	0x3ddffc8b	0.109368406
17	0x3d79c7dd	0.06098162
18	0xbe051859	-0.12997569
19	0x3d960553	0.07325234
20	0x3da5b571	0.08091248
21	0x3dd41670	0.10355842
22	0xbe4b5229	-0.1985556
23	0xbda3f93c	-0.08006522
24	0xbe5a4195	-0.2131408
25	0xbc7980f2	-0.015228497
26	0x3e487506	0.19575891
27	0xbe29398c	-0.16525859
28	0xbe24beba	-0.16088381
29	0xbe413e00	-0.18871307
30	0x3d4feac9	0.050761018
31	0xbd97a660	-0.074047804
32	0xbdbf2b1c	-0.09334394
33	0x3e61364f	0.21993373
34	0x3b9b65db	0.0047423667
35	0x3e33e5ae	0.17568085
36	0x3e0bc6ed	0.13650103
37	0x3d0b3b72	0.03399224
38	0x3e547617	0.20748173
39	0xbe14be4b	-0.14525716
40	0x3e3a5797	0.18197475
41	0x3e65d603	0.2244492
42	0xbe09956b	-0.13435905
43	0x3e22e503	0.15907674
44	0x3e1f6b63	0.15568309
45	0x3d892fc7	0.06698566
46	0xbcdf3abf	-0.027249692
47	0x3e258b4f	0.16166423
48	0x3db2e7b1	0.08735598
49	0xbe4daf18	-0.20086324
50	0xbe32434e	-0.17408487
51	0xbe3b4ae5	-0.18290289
52	0xbd4bd1fb	-0.0497608
53	0x3e6924e4	0.22767979
54	0x3e810a8f	0.25203368
55	0x3e622d83	0.22087674
56	0xbe0bd8e0	-0.1365695
57	0x3e67e74f	0.22646831
58	0xbe743835	-0.23849566
59	0x3e5f9e31	0.21837689
60	0x3d1982d5	0.037478287
61	0xbdd000a6	-0.10156374
62	0xbdb68d2e	-0.08913647
63	0xbba5fc0e	-0.0050654477
64	0xbe18213c	-0.14856428
65	0xbe3fcc1a	-0.18730202
66	0x3d8bf595	0.068339504
67	0xbe097c66	-0.1342636
68	0x3c06d61c	0.008229759
69	0x3d33586b	0.043785494
70	0xbde0bc62	-0.10973431
71	0x3dafdfe1	0.085876234
72	0x3e1610c6	0.14654836
73	0xbd8fc9f8	-0.07020944
74	0xbd3675e8	-0.044546038
75	0x3dc951d4	0.098300606
76	0xbdd8687f	-0.10566806
77	0xbd90acaa	-0.07064183
78	0x3d5c873e	0.053839915
79	0xbbdc8bd0	-0.006730534
80	0xbe5dba13	-0.21653013
81	0xbe64af8c	-0.22332591
82	0x3da2a286	0.07941155
83	0xbe679bda	-0.22618046
84	0x3dd6c5c4	0.104869395
85	0xbd9cace1	-0.076501615
86	0xbe35dcab	-0.1775996
87	0xbc92fade	-0.017941888
88	0x3dfbf9c8	0.12303501
89	0x3e2dae46	0.16961011
90	0x3d6d69d7	0.057962265
91	0xbdfc7952	-0.123278275
92	0x3e06dbfc	0.13169855
93	0xbe3be777	-0.18350016
94	0xbd3f7aa7	-0.04674783
95	0x3dfb21cc	0.122623056
96	0xbd2096a6	-0.03920617
97	0x3dacc6fe	0.08436392
98	0x3e3abb1d	0.1823544
99	0x3e8125d4	0.25224173
100	0xbe1f06b9	-0.15529908
101	0xbd73cfac	-0.059524223
102	0xbe0b4a57	-0.13602577
103	0xbe4c81e7	-0.19971429
104	0xbe2f1fa7	-0.17101918
105	0x3e0b4b7b	0.13603012
106	0xbcefaab2	-0.029256199
107	0x3e5b34b5	0.21406825
108	0xbcb53e3f	-0.022124408
109	0xbe595a6e	-0.21225902
110	0x3e7a6e75	0.24456199
111	0xbdad5aab	-0.08464559
112	0xbd0a0b66	-0.033702277
113	0xbe2d779a	-0.16940156
114	0xbe4ba731	-0.19887997
115	0x3e5844a0	0.21119928
116	0x3d99bd87	0.075068526
117	0xbd95de9d	-0.07317851
118	0xbe70484b	-0.23465078
119	0xbe0068b5	-0.12539943
120	0xbde332da	-0.110936835
121	0xbdd2008e	-0.10254012
122	0x3d9f31b5	0.07773153
123	0xbcc53ae7	-0.024075938
124	0xbe3dd44b	-0.18538015
125	0x3e167b39	0.14695443
126	0xbd0d0083	-0.034424316
127	0xbe16b5d7	-0.14717804
128	0x3e662521	0.22475101
129	0x3e4c55fb	0.19954674
130	0x3d5613b0	0.05226487
131	0x3dd37f1b	0.10326978
132	0xbd5f3b81	-0.054500107
133	0x3d0ca039	0.034332488
134	0x3e192f5d	0.14959474
135	0x3cf4ed08	0.029898182
136	0xbe2a621a	-0.16638985
137	0x3e1481c1	0.14502622
138	0x3d06e06c	0.03292887
139	0x3d056446	0.03256633
140	0x3ce4b1ad	0.027916754
141	0xbe5357c6	-0.20638952
142	0x3e0c7b85	0.13718994
143	0xbe47aae2	-0.1949878
144	0xbd94d799	-0.072676845
145	0xbe39d4ae	-0.18147537
146	0x3da742c9	0.08167035
147	0x3cbd0140	0.023071885
148	0xbe1c3585	-0.15254791
149	0xbda1a7f9	-0.07893366
150	0xbe04a85e	-0.12954852
151	0x3de7aea0	0.11312604
152	0x3e1861bf	0.14881037
153	0x3dbee3c6	0.09320788
154	0x3dd7b886	0.10533242
155	0xbe174ef9	-0.1477622
156	0xbc2d5970	-0.010580406
157	0x3e474763	0.19460826
158	0x3df5e81b	0.12007161
159	0xbb14f02c	-0.0022726161
160	0x3c6e20be	0.0145341735
161	0xbe6f3bfe	-0.23362729
162	0xbe170a4c	-0.14750022
163	0xbdf6a285	-0.12042717
164	0xbe6e3db2	-0.23265722
165	0x3e67c22a	0.22632661
166	0x3e0849b5	0.13309367
167	0x3bb951ed	0.0056555183
168	0x3de87831	0.1135105
169	0xbe08184d	-0.1329052
170	0x3dfe06d8	0.12403649
171	0xbe5b7568	-0.21431506
172	0x3d8f4abf	0.069966786
173	0xbdea65c7	-0.11445194
174	0x3dbcf91a	0.092272
175	0x3e6977db	0.22799627
176	0x3e43e5b8	0.191306
177	0xbe3f33bf	-0.18672083
178	0xbe3fc452	-0.18727234
179	0xbdb0b520	-0.08628297
180	0xbe6ba74a	-0.23013034
181	0xbe1ffe9e	-0.15624472
182	0x3c1ce801	0.009576798
183	0x3e112b24	0.14176613
184	0x3e25632b	0.16151111
185	0x3d8a4d7b	0.067530595
186	0xbdafae95	-0.08578221
187	0x3c98b904	0.01864291
188	0x3e525719	0.20541038
189	0x3e5a93e9	0.21345486
190	0x3e3b3676	0.18282494
191	0x3e480f98	0.19537199
192	0x3e50dc66	0.20396575
193	0xbe68c656	-0.22731909
194	0x3e476c95	0.19475015
195	0x3def46cf	0.116834275
196	0xbe005392	-0.1253188
197	0x3e497bd2	0.1967614
198	0xbe1a4063	-0.15063624
199	0x3d86d90f	0.065843694
200	0xbe5773f4	-0.21040326
201	0xbdc26c3a	-0.09493299
202	0x3d434d43	0.047681104
203	0x3ca2069f	0.019778548
204	0x3d83b840	0.06431627
205	0xbe6fd20f	-0.23419975
206	0xbe58b85c	-0.21164078
207	0x3e37f6cb	0.17965238
208	0x3dc5b777	0.09654134
209	0x3ba15f61	0.0049247
210	0xbd99e69e	-0.0751469
211	0x3e3be02f	0.18347238
212	0xbcc8900f	-0.024482755
213	0x3e05503f	0.13018893
214	0xbbc241fc	-0.005928276
215	0xbe025ec9	-0.1273147
216	0x3c8bc41e	0.01706129
217	0xbe72f207	-0.23725139
218	0xbe843469	-0.25821236
219	0x3e218729	0.15774216
220	0x3d19708a	0.03746084
221	0x3c93c704	0.018039234
222	0xbe6a4ba0	-0.22880411
223	0xbb55b4aa	-0.0032608905
224	0x3e344c4a	0.17607227
225	0x3e111ded	0.14171572
226	0x3d974fa1	0.07388235
227	0xbcf18a90	-0.029485017
228	0xbe2a5ac4	-0.16636187
229	0xbd2aeaa2	-0.04172767
230	0x3e058878	0.1304034
231	0xbe7355b1	-0.23763157
232	0xbe16ab67	-0.14713822
233	0xbc1712d7	-0.0092208
234	0x3cd13bdb	0.025541237
235	0xbe019e70	-0.12658095
236	0x3e58223b	0.21106808
237	0x3d9e7c57	0.0773856
238	0xbe3ca449	-0.18422045
239	0xbdbd92f4	-0.09256545
240	0xbe29c80b	-0.16580217
241	0x3e210075	0.1572283
242	0x3e07a9d1	0.13248374
243	0xbdc81b74	-0.09770861
244	0x3db8f153	0.09030404
245	0x3bf61cd8	0.0075107627
246	0xbe0fa3c3	-0.14027314
247	0x3d1b2d18	0.0378848
248	0xbc8893b8	-0.016672
249	0xbbf3a37e	-0.0074352613
250	0xbd99b0f1	-0.07504452
251	0xbe016986	-0.1263791
252	0x3d92371f	0.0713942
253	0x3d87cf5d	0.06631348
254	0x3d70abae	0.058757477
255	0x3d92d77a	0.07170005

stat_predictor.cond_mlp.2.bias f4 [16]
0	0xbe7a0b9f	-0.24418496
1	0x3e549b88	0.20762455
2	0x3e224c2d	0.15849371
3	0x3e49cf88	0.19708073
4	0x3d9df957	0.077135734
5	0xbe1c43b5	-0.15260203
6	0xbe29dc41	-0.16587926
7	0xbe179b3c	-0.14805311
8	0x3d8003b8	0.06250709
9	0x3e6506f5	0.22365935
10	0x3dcdff86	0.10058503
11	0x3e6af496	0.22944865
12	0x3ddeb496	0.10874288
13	0xbca7b101	-0.020470144
14	0xbd8be627	-0.068310075
15	0xbd81943b	-0.06327101

stat_predictor.stat_mlp.0.weight f4 [16, 16]
0	0x3cc3b3ac	0.023889385
1	0xbdb636ed	-0.08897195
2	0x3c53e40d	0.0129327895
3	0x3e747abf	0.23874949
4	0x3e6dd41e	0.23225448
5	0x3e73feb5	0.23827632
6	0xbe099a70	-0.1343782
7	0xbe6cff35	-0.23144229
8	0xbc7ee8be	-0.01555842
9	0xbe0c22e3	-0.13685183
10	0xbe6f30e3	-0.23358493
11	0xbe3ab3f8	-0.18232715
12	0xbe78ad02	-0.24284747
13	0xbcd349a7	-0.025791956
14	0x3e64c28b	0.22339837
15	0x3e52da3f	0.20591067
16	0x3e448d33	0.19194488
17	0x3e5c7895	0.21530373
18	0x3e807ddb	0.2509602
19	0xbe3b2148	-0.18274415
20	0x3e133ffa	0.14379874
21	0x3e3b3de8	0.18285334
22	0xbe7dac74	-0.24772817
23	0x3e719a9d	0.23594137
24	0x3de79a40	0.11308718
25	0xbe0d672c	-0.13808888
26	0x3c46d2ff	0.012135266
27	0x3db02261	0.08600307
28	0x3d33fe99	0.043943975
29	0xbcbc628d	-0.022996211
30	0x3bbef9d1	0.0058281203
31	0x3df6b198	0.12045592
32	0x3db97ab6	0.090566084
33	0xbde61396	-0.112342045
34	0xbd711fa1	-0.058868054
35	0xbbf15a63	-0.0073655113
36	0x3e4e25f3	0.20131664
37	0xbdeb1e48	-0.11480385
38	0xbddcca37	-0.10780757
39	0x3e21c8c9	0.1579925
40	0x3e5bcd08	0.21464932
41	0xbe6dcf78	-0.23223674
42	0xbda7cab5	-0.0819296
43	0xbe0e917f	-0.1392269
44	0xbd85cac1	-0.06532813
45	0x3bb49216	0.005510579
46	0xbe06e089	-0.13171591
47	0x3e209ab7	0.15684019
48	0x3c57a86e	0.013162715
49	0x3d8781c5	0.066165484
50	0x3e5512df	0.2080798
51	0x3e50990d	0.20370884
52	0x3e2fd249	0.17170061
53	0x3dff9048	0.12478691
54	0xbe025b9c	-0.12730259
55	0xbc73a798	-0.0148715
56	0x3e05c9b2	0.13065222
57	0x3db9dde8	0.090755284
58	0x3c0d47df	0.008623092
59	0x3d9087f2	0.070571795
60	0xbe06d112	-0.13165691
61	0xbd747f20	-0.05969155
62	0x3d96b1d8	0.0735814
63	0xbb3778fa	-0.0027995692
64	0x3e202c9c	0.15642017
65	0xbb7f13cc	-0.0038921712
66	0xbd959b58	-0.0730502
67	0x3c7b8581	0.015351654
68	0x3d3825f4	0.04495807
69	0x3d30b704	0.043143287
70	0x3e2ccab8	0.16874206
71	0xbe65c3f6	-0.22438034
72	0x3d38b6b6	0.04509612
73	0xbd3cdb8f	-0.046107825
74	0xbe58dfd4	-0.21179134
75	0xbdb3b42e	-0.08774601
76	0xbcce004f	-0.025146632
77	0xbd0dd32d	-0.03462522
78	0x3e0843dd	0.13307138
79	0xbe7797cd	-0.24179001
80	0x3e48bf53	0.19604234
81	0x3e1ca2d6	0.15296492
82	0xbe0ac90c	-0.13553256
83	0xbe4f5434	-0.20246965
84	0xbe2f209a	-0.1710228
85	0xbd3216e0	-0.043478847
86	0x3e60a0b0	0.21936297
87	0x3e2dbf25	0.16967447
88	0x3e0e196c	0.13876885
89	0x3cdf67a7	0.027271105
90	0xbc8e75a6	-0.017390084
91	0x3ddec0cf	0.10876619
92	0x3dfca729	0.12336571
93	0xbdbcca65	-0.09218291
94	0xbe15b903	-0.14621358
95	0xbe0578bc	-0.13034338
96	0xbe307d0c	-0.17235202
97	0x3cb55ec8	0.022139922
98	0x3d7ce4a1	0.061741475
99	0xbdea4bb0	-0.114402175
100	0xbcc11e3f	-0.023573993
101	0x3e683c5a	0.22679272
102	0xbe4eb391	-0.20185687
103	0xbe84368e	-0.25822872
104	0x3e73edad	0.23821135
105	0x3d83b770	0.06431472
106	0x3ddf6e7f	0.10909747
107	0xbd83857c	-0.064219445
108	0xbe06d18e	-0.13165876
109	0x3de0b1e4	0.1097143
110	0x3c0b7b77	0.008513323
111	0x3e435224	0.19074303
112	0x3e4361f8	0.19080341
113	0x3e623242	0.22089484
114	0x3e7583b1	0.23976018
115	0xbcd69844	-0.026195653
116	0x3e1d8a6d	0.15384836
117	0x3e200590	0.15627122
118	0xbd9f96f6	-0.077924654
119	0xbe2ef6e5	-0.1708637
120	0xbcd3fe85	-0.0258782
121	0x3d6a7028	0.057235867
122	0x3e525ea0	0.20543909
123	0xbe75b8ba	-0.23996249
124	0xbe68d9f6	-0.22739395
125	0xbe820f52	-0.25402313
126	0x3e4ebea6	0.20189914
127	0x3e7681e2	0.24072984
128	0xbe2b2f1c	-0.1671719
129	0xbe582061	-0.21106102
130	0x3dfedbae	0.12444244
131	0x3e22977c	0.15878099
132	0xbe4b3c04	-0.19847113
133	0x3e858d84	0.2608453
134	0x3e43be40	0.19115543
135	0x3e60c97e	0.21951863
136	0xbc0a9942	-0.008459391
137	0x3dd8899f	0.10573124
138	0xbd875eff	-0.06609916
139	0xbe4dee08	-0.20110333
140	0x3df158c4	0.11784509
141	0xbe6ecfa5	-0.23321398
142	0xbc842c4e	-0.016134407
143	0x3df0350a	0.117288664
144	0x3ddef9f7	0.10887521
145	0x3c91e8b3	0.017811155
146	0xbe53c7aa	-0.20681635
147	0xbe4080d9	-0.18799151
148	0xba903c67	-0.001100433
149	0xbdd54299	-0.10413093
150	0x3e4d7387	0.20063601
151	0xbe204beb	-0.1565396
152	0xbe397f3c	-0.18114942
153	0xbd892995	-0.06697384
154	0xbc53c197	-0.012924573
155	0xbe0cae56	-0.13738379
156	0x3df4e319	0.11957378
157	0x3e13fe06	0.14452371
158	0xbe74a37e	-0.23890492
159	0x3d1d62f9	0.038424466
160	0xbe593fb4	-0.21215707
161	0x3da30d7c	0.07961556
162	0x3dc663e9	0.09687025
163	0xbdc62ffd	-0.09677122
164	0x3df5c069	0.1199959
165	0xbd92dbfb	-0.07170864
166	0xbe0bf47c	-0.13667482
167	0xbd8f9aed	-0.070119716
168	0x3e091a7d	0.1338901
169	0xbdcea95b	-0.10090896
170	0xbe6a81b3	-0.22901039
171	0xbd6d6a14	-0.057962492
172	0x3e4dcc22	0.20097402
173	0xbdc56c5c	-0.096398085
174	0xba5afa88	-0.0008353372
175	0xbd9c27af	-0.076247565
176	0xbe54d373	-0.20783786
177	0xbdcd7cac	-0.10033545
178	0x3bf0175f	0.007327005
179	0xbd15d664	-0.036581412
180	0xbdb9f725	-0.09080342
181	0xbce6a5e1	-0.02815527
182	0xbdfad037	-0.12246745
183	0xbe5ac44d	-0.21363945
184	0x3de2917b	0.110629044
185	0x3caee760	0.021350563
186	0xbda191fb	-0.07889172
187	0x3d1d9b32	0.038478084
188	0x3e0b9603	0.13631444
189	0xbda4145d	-0.080116965
190	0x3b6da432	0.0036261198
191	0xbd42d6f5	-0.04756828
192	0x3d973d0c	0.07384691
193	0x3e089b19	0.13340415
194	0xbe331ff9	-0.17492665
195	0x3e2b1819	0.16708411
196	0x3ddcf339	0.107885785
197	0x3e2eeea7	0.17083226
198	0xbd4345e4	-0.047674075
199	0xbcf62fe5	-0.030052135
200	0x3d6f94e3	0.0584916
201	0xbe6d8696	-0.23195872
202	0xbe519061	-0.20465232
203	0x3e1e8d81	0.15483667
204	0xbe1dbc26	-0.15403804
205	0x3e0e9b37	0.13926397
206	0x3e5588c1	0.20852949
207	0x3e1eb4a3	0.15498595
208	0xbe3feaa9	-0.1874186
209	0x3c91b9d2	0.017788801
210	0x3e6718c5	0.22568043
211	0xbd814f2a	-0.063139275
212	0x3e6731d7	0.22577606
213	0x3df5e0c5	0.12005762
214	0x3e36a6b5	0.17837031
215	0xbe41a380	-0.18910027
216	0x3d95192a	0.0728019
217	0x3e69de47	0.22838698
218	0xbd077bf3	-0.03307719
219	0x3db34a7a	0.0875444
220	0x3dbb3f06	0.0914288
221	0xbdb46875	-0.08808986
222	0xbdda3245	-0.106541194
223	0x3e0003a5	0.1250139
224	0x3d243ac4	0.040095106
225	0xbdca2acb	-0.09871443
226	0xbe23ab9f	-0.15983437
227	0xbad234d8	-0.0016037477
228	0x3d53a0a8	0.051666886
229	0x3e0d60f4	0.13806516
230	0x3e63730a	0.22211853
231	0x3dc9bcb4	0.098504454
232	0x3c2096d9	0.00980159
233	0x3df959ba	0.12175317
234	0x3e34f5bd	0.17671867
235	0x3dcd4229	0.10022385
236	0x3e470660	0.19436026
237	0x3d4c5751	0.04988796
238	0xbdfdfacb	-0.124013506
239	0x3e49cbdf	0.19706677
240	0x3e613021	0.21991016
241	0xbd3d12a3	-0.04616035
242	0xbe25d559	-0.16194667
243	0xbd5d2761	-0.053992633
244	0x3e82c946	0.25544184
245	0x3e29f002	0.16595462
246	0x3c7f41ba	0.015579635
247	0xbcedb12d	-0.029015148
248	0x3e0dcd31	0.13847806
249	0xbd5922f1	-0.05301184
250	0x3cb904a6	0.022585224
251	0x3e1a2372	0.15052584
252	0xbe4fd037	-0.20294271
253	0x3e3751a7	0.17902242
254	0xbca18785	-0.019717941
255	0x3e49c440	0.1970377

stat_predictor.stat_mlp.0.bias f4 [16]
0	0x3d483238	0.048876017
1	0xbe2d1ae9	-0.16904797
2	0x3d87978a	0.06620701
3	0xbe276332	-0.16346434
4	0xbbec87de	-0.007218345
5	0xbe4fa235	-0.20276721
6	0x3d493523	0.04912294
7	0x3dd0c53a	0.10193868
8	0x3d99fa4d	0.07518444
9	0xbe395466	-0.18098602
10	0x3e39763e	0.18111512
11	0x3e5cfe3c	0.21581358
12	0x3e288476	0.1645678
13	0xbe0d7dfb	-0.13817589
14	0xbe2dbbba	-0.16966143
15	0xbe08cfd4	-0.1336053

stat_predictor.stat_mlp.2.weight f4 [2, 16]
0	0xbe711c55	-0.23545964
1	0xbd9b06a0	-0.07569623
2	0x3e492a13	0.19644956
3	0x3e2edbe9	0.17076077
4	0x3e3b3e33	0.18285446
5	0xbd8a016f	-0.06738555
6	0x3a9b99c1	0.0011871384
7	0x3d309890	0.043114245
8	0x3cac54ff	0.021036623
9	0x3dacc7ff	0.08436584
10	0xbc136810	-0.008996978
11	0xbd49f996	-0.04931029
12	0xbda80623	-0.082042955
13	0xbd10727e	-0.03526544
14	0xbe40ec14	-0.18840057
15	0x3d02e04a	0.03195218
16	0x3dbe96ca	0.093061045
17	0x3e0aae98	0.13543165
18	0xbe4ee546	-0.20204648
19	0x3d44f7d6	0.048087917
20	0xbe5e7fbd	-0.21728416
21	0xbc8bc15d	-0.017059976
22	0x3e0370d0	0.12836003
23	0xbd96fc9c	-0.073724
24	0xbe5b755c	-0.21431488
25	0xbe4f1707	-0.20223628
26	0x3dd8e348	0.105902255
27	0x3e7997d9	0.24374332
28	0x3de53362	0.11191441
29	0xb9f3b4a4	-0.0004648316
30	0xbe4f70e6	-0.20257911
31	0xbc8ab8fc	-0.01693391

stat_predictor.stat_mlp.2.bias f4 [2]
0	0xbe37f81d	-0.17965741
1	0xbe01dac0	-0.12681103

unet.init_conv.weight f4 [8, 1, 3]
0	0xbe216f2c	-0.15765065
1	0x3d6dba69	0.058039103
2	0x3dcbb3cb	0.09946402
3	0xbe8c5797	-0.27410576
4	0x3c05b09f	0.0081597855
5	0x3e59342d	0.2121131
6	0x3e661f81	0.22472955
7	0xbeb40234	-0.3515793
8	0x3dc47091	0.09591783
9	0x3f0ff259	0.5622917
10	0xbe290428	-0.16505492
11	0xbca58815	-0.02020649
12	0x3d5137fa	0.051078774
13	0x3e035b23	0.12827735
14	0x3f035d8b	0.5131461
15	0x3f003e7c	0.50095344
16	0xbe4f6637	-0.20253836
17	0x3da95194	0.08267513
18	0x3e2e6f1e	0.17034575
19	0xbeac375a	-0.3363598
20	0x3e3f928a	0.18708244
21	0xbb62fd24	-0.0034635747
22	0xbf0f351a	-0.559404
23	0x3eafb331	0.343164

unet.init_conv.bias f4 [8]
0	0xbee3440e	-0.4438786
1	0xbeb055e1	-0.3444052
2	0xbe9b57ff	-0.30340573
3	0xbed03bc2	-0.40670592
4	0x3e0a1597	0.13484798
5	0x3eaed1e4	0.3414451
6	0x3ddca6d9	0.10774011
7	0xbe8a0c14	-0.2696234

unet.time_mlp.0.weight f4 [64, 16]
0	0x3cbf7be4	0.023374505
1	0xbcfea34d	-0.031083727
2	0xbe71985f	-0.23593281
3	0x3da81076	0.08206265
4	0x3e7da21b	0.2476887
5	0xbe40d6aa	-0.18831888
6	0x3e4e062b	0.2011954
7	0x3e080b12	0.13285473
8	0x3d6ab2a1	0.05729926
9	0xbe34ac92	-0.17643955
10	0xbe02469c	-0.12722248
11	0x3dc14ccd	0.09438477
12	0xbded620b	-0.11590966
13	0x3e389cca	0.1802856
14	0xbe29f1a5	-0.16596086
15	0x3dffa8d4	0.12483373
16	0x3e0480df	0.12939785
17	0x3e2eea07	0.17081462
18	0xbe26c5ee	-0.16286442
19	0x3e41e17b	0.1893367
20	0xbe025b01	-0.12730028
21	0x3e0a593d	0.13510604
22	0x3e4c9135	0.19977267
23	0xbe03bc55	-0.12864812
24	0xbcd1f46b	-0.025629243
25	0x3e5d2a1f	0.21598099
26	0x3dca1ec9	0.09869153
27	0x3dc8a311	0.097967274
28	0x3e2d2553	0.1690877
29	0xbdd44500	-0.10364723
30	0xbd024979	-0.03180835
31	0x3ddb5f91	0.10711587
32	0x3e32f14f	0.17474864
33	0xbd6da3a4	-0.058017388
34	0xbdba07f6	-0.0908355
35	0xbe6abb93	-0.22923116
36	0xbbd5fdad	-0.0065304847
37	0xbe57b5f6	-0.21065506
38	0x3df7c88e	0.120988
39	0x3e1fc391	0.15601946
40	0xbe7c4e6a	-0.24639288
41	0x3e7755f8	0.24153888
42	0xbe25817f	-0.1616268
43	0x3dca8e07	0.09890371
44	0x3b2aef25	0.0026082483
45	0xbd264f1c	-0.04060279
46	0xbe2f540b	-0.17121904
47	0x3e792d3e	0.24333665
48	0x3e316c80	0.17326546
49	0xbe61ef27	-0.22063886
50	0xbd0f839f	-0.035037633
51	0xbd432e72	-0.047651716
52	0x3e41b098	0.18915021
53	0xbdcaaef1	-0.09896649
54	0xbe613ca4	-0.21995789
55	0x3ddf64df	0.109079115
56	0xbcc1a430	-0.023637861
57	0xbe2b3085	-0.16717727
58	0xbe4ce284	-0.20008284
59	0x3db17a80	0.08665943
60	0x3d053b96	0.03252753
61	0xbd758837	-0.059944358
62	0xbda94244	-0.08264592
63	0x3e3387b6	0.17532238
64	0xbc14fd89	-0.009093651
65	0x3e3ead20	0.1862073
66	0xbe5bbdaf	-0.21459077
67	0xbd40410f	-0.046937045
68	0xbc35d8dc	-0.011099067
69	0x3e612eda	0.21990529
70	0xbe4e440d	-0.20143147
71	0x3c9cf92b	0.019161781
72	0x3bad6c76	0.0052924706
73	0xbe03efb9	-0.12884416
74	0xbe6ec878	-0.2331866
75	0x3db663a8	0.08905727
76	0xbd7533a4	-0.0598637
77	0xbd22ecea	-0.03977672
78	0x3e4e6122	0.2015424
79	0x3bc4e60c	0.006008869
80	0xbd38a6ce	-0.045080952
81	0x3c64d304	0.013966326
82	0x3d0a9840	0.033836603
83	0xbd99ea48	-0.07515389
84	0x3e46420b	0.19361131
85	0x3e64bacc	0.22336882
86	0x3de98cd1	0.11403812
87	0xbe781f9e	-0.24230811
88	0x3dfa6381	0.1222601
89	0xbd042499	-0.032261465
90	0x3e13ffec	0.14453095
91	0x3e3d2789	0.18472113
92	0x3e716d25	0.23576792
93	0xbe7136e0	-0.2355609
94	0xbe698122	-0.22803167
95	0xbd3cf1ed	-0.046129156
96	0x3d0850e8	0.033280283
97	0xbe22e29c	-0.15906757
98	0x3e34bd97	0.17650448
99	0xbe1740b1	-0.14770772
100	0x3d7cc847	0.061714437
101	0xbd66c113	-0.056336474
102	0x3cde192c	0.027111612
103	0xbe428fd3	-0.19000177
104	0x3e56f16d	0.20990534
105	0xbddaf9cc	-0.10692176
106	0x3c3c18a6	0.011480486
107	0x3d268383	0.040652763
108	0xbe097792	-0.13424519
109	0x3e63bab8	0.22239196
110	0xbe15d91e	-0.14633605
111	0x3d7be571	0.06149811
112	0x3e4986f4	0.19680387
113	0xbdb1a0e5	-0.08673266
114	0x3e0c4883	0.13699536
115	0xbe73bbfd	-0.2380218
116	0x3de5891b	0.112077914
117	0x3e2d1132	0.1690109
118	0xbe3f82d3	-0.18702249
119	0x3e4c7a44	0.19968516
120	0xbe2a04fe	-0.16603467
121	0xbe4436db	-0.1916155
122	0x3e217a10	0.1576922
123	0x3e0d9308	0.13825619
124	0x3c7dba69	0.015486338
125	0x3e29c059	0.16577281
126	0x3e2f9282	0.17145732
127	0x3e27b4c4	0.1637755
128	0xbe069161	-0.13141395
129	0xbda0d4a8	-0.07853061
130	0xbe5a1eb0	-0.21300769
131	0xbe8446c1	-0.2583523
132	0x3c859326	0.016305517
133	0x3d574806	0.05255892
134	0x3e58a136	0.21155247
135	0xbe327e9b	-0.17431109
136	0xbe0cbf37	-0.13744818
137	0x3cee25ff	0.029070852
138	0xbd391fd8	-0.045196384
139	0xbc2c72ed	-0.010525447
140	0xbe818f30	-0.25304556
141	0xbdfb1411	-0.12259687
142	0x3da52207	0.08063131
143	0x3e6caac3	0.23112015
144	0xbe6540d0	-0.22388005
145	0xbd5c5548	-0.053792268
146	0x3d822ae1	0.06355835
147	0x3d98e391	0.0746528
148	0xbd2e17f8	-0.042503327
149	0x3ab3d4ca	0.0013720032
150	0x3e087241	0.13324834
151	0xbd73efd2	-0.059554882
152	0x3e47a782	0.19497493
153	0xbdf70e28	-0.12063247
154	0x3dda2708	0.10651976
155	0x3e317bfb	0.17332451
156	0xbe5f42b2	-0.21802786
157	0x3de7fd07	0.11327558
158	0x3d2bea72	0.04197163
159	0xbe59af92	-0.21258381
160	0xbdb25c46	-0.08709006
161	0xbe7451a2	-0.23859265
162	0x3ad0bd93	0.0015925638
163	0x3e7fa8e2	0.24966767
164	0x3df0ec9f	0.11763882
165	0x3d107f38	0.035277575
166	0xbe1a368c	-0.1505987
167	0xbdc8e739	-0.09809727
168	0x3dbfbb44	0.0936189
169	0x3e4e8e41	0.20171453
170	0xbe093c76	-0.1340197
171	0x3e4b387c	0.19845766
172	0xbe5748f6	-0.21023926
173	0xbca4c1cb	-0.020111939
174	0x3db2f7e4	0.08738688
175	0xbdd1e221	-0.10248209
176	0xbe20cf93	-0.15704183
177	0xbd296bc7	-0.04136255
178	0xbe1080d4	-0.14111644
179	0x3e03aa2a	0.12857881
180	0x3db97d4e	0.09057103
181	0x3d73be16	0.059507452
182	0xbda95b1e	-0.08269332
183	0x3e3d3c29	0.1847998
184	0xbe189ced	-0.14903612
185	0xbe48187a	-0.19540587
186	0xbe03c51c	-0.1286816
187	0xbd005a57	-0.031336155
188	0x3d37e281	0.044893745
189	0x3e630ea5	0.22173555
190	0x3e124651	0.14284636
191	0xbc4c64eb	-0.012475233
192	0x3d71dfcd	0.059051324
193	0x3b82898e	0.003983683
194	0xbe73c393	-0.23805074
195	0xbcbf1a12	-0.023327861
196	0xbd23683c	-0.039894328
197	0xbe074450	-0.13209653
198	0xbdffcce2	-0.1249025
199	0x3d68977f	0.056785103
200	0xbcd4d384	-0.025979765
201	0x3db9ee8b	0.090787016
202	0xbdab0f0c	-0.08352479
203	0xbd9fd17a	-0.07803626
204	0x3e1845b8	0.14870346
205	0x3ca2bb0c	0.019864582
206	0xbda1c35d	-0.07898591
207	0xbe6ce57f	-0.23134421
208	0xbe1eeac7	-0.15519248
209	0xbd5c6249	-0.05380467
210	0xbe39452a	-0.1809279
211	0xbd0ea450	-0.03482467
212	0xbc8e4d0c	-0.017370723
213	0x3e12e15a	0.14343777
214	0x3b91596c	0.0044357087
215	0x3e06f69a	0.13180009
216	0x3e6d5ae7	0.23179208
217	0x3d8fe454	0.07025972
218	0x3d0040b0	0.03131169
219	0xbc91e66f	-0.017810075
220	0xbe279b69	-0.16367878
221	0xbd6cbb89	-0.057796035
222	0xbdc96d9f	-0.09835362
223	0x3d68d7f0	0.05684656
224	0x3daf43e5	0.08557872
225	0xbd3f90e5	-0.04676904
226	0xbd6386ee	-0.0555486
227	0x3e759736	0.23983464
228	0xbc98e288	-0.018662706
229	0x3dcd3855	0.1002051
230	0xbe231424	-0.15925652
231	0xbd354e62	-0.044264205
232	0x3e240d82	0.16020778
233	0x3e3fc3f8	0.187271
234	0x3ab924ce	0.0014125349
235	0x3e16d526	0.14729747
236	0xbe5bfa3b	-0.21482174
237	0x3d3e2e95	0.046431143
238	0xbe27c0f1	-0.16382195
239	0x3e12e966	0.14346847
240	0x3e17b651	0.14815642
241	0x3e58e192	0.21179798
242	0xbd360788	-0.044440776
243	0x3d940583	0.07227614
244	0xbbe21f66	-0.0069007156
245	0xbd075a06	-0.033044837
246	0xbbc0fc44	-0.0058894474
247	0x3d9dc12f	0.077028625
248	0x3d2baacc	0.04191093
249	0xbe115d28	-0.14195693
250	0xbcc1d4ed	-0.023661101
251	0xbde80e26	-0.113308236
252	0x3e389a9b	0.18027727
253	0x3e6776fc	0.22603983
254	0xbe09ac18	-0.13444555
255	0x3e0af1e6	0.1356884

unet.time_mlp.0.bias f4 [64]
0	0x3e56d823	0.20980887
1	0x3bf70f04	0.007539632
2	0xbd8dec3f	-0.06929826
3	0x3d0d7498	0.03453502
4	0xbc96f4c0	-0.018427253
5	0x3da676c6	0.08128123
6	0xbdf27578	-0.11838812
7	0x3df03c52	0.11730255
8	0x3dda01bd	0.10644863
9	0xbb0db079	-0.0021620078
10	0x3dafd43d	0.08585403
11	0x3cb04c65	0.021520803
12	0xbde7443a	-0.1129231
13	0x3db3f29f	0.08786511
14	0xbccf4d4a	-0.025305409
15	0x3dffb79b	0.12486192
16	0x3e0d55ff	0.13802336
17	0xbe481bee	-0.19541904
18	0x3e7c944a	0.24665943
19	0x3e225240	0.15851688
20	0xbd9a5a05	-0.07536701
21	0xbd85ed4d	-0.06539402
22	0xbca8cc3b	-0.020605197
23	0x3e41f26e	0.18940136
24	0x3e36e959	0.17862453
25	0xbdf6a96e	-0.12044035
26	0xbda38a50	-0.079853654
27	0xbb0d5b9d	-0.0021569498
28	0x3d065f59	0.032805774
29	0xbe086c96	-0.13322672
30	0xbe20373c	-0.1564607
31	0xbe46c231	-0.19410016
32	0xbdef19f6	-0.116748735
33	0xbe50f74c	-0.20406836
34	0x3d89f619	0.067363925
35	0xbe27501f	-0.16339158
36	0x3e1f9c37	0.15586935
37	0x3e5a3dc3	0.21312623
38	0xbe4360bc	-0.1907987
39	0xbdf9adec	-0.12191376
40	0x3e5cd799	0.21566619
41	0xbe38ccd8	-0.18046892
42	0x3de90c5c	0.113793105
43	0xbdede1c5	-0.11615328
44	0xbe1befb9	-0.15228166
45	0xbcf9de75	-0.030501584
46	0x3d98272a	0.07429345
47	0xbd8a6993	-0.06758418
48	0x3c7bf9e5	0.015379404
49	0x3d13e55a	0.0361074
50	0x3d7d70d7	0.06187519
51	0xbdb90920	-0.090349436
52	0xbe054f0e	-0.13018438
53	0x3e20aa30	0.15689921
54	0xbdc0e008	-0.094177306
55	0xbd0be282	-0.03415156
56	0xbd07c445	-0.03314616
57	0x3e4878a7	0.19577275
58	0x3e0c1dd9	0.13683261
59	0xbcbec9e5	-0.02328963
60	0x3e02d544	0.12776667
61	0x3e374a79	0.17899503
62	0x3e5875b2	0.21138647
63	0x3e754a85	0.23954208

unet.time_mlp.2.weight f4 [16, 64]
0	0x3cbb9450	0.02289787
1	0xbd4bb8eb	-0.0497369
2	0xbe08aa83	-0.13346295
3	0x3c1b5a20	0.009481937
4	0x3dbfa193	0.0935699
5	0xbda2d858	-0.079514205
6	0xbd77b91a	-0.06047926
7	0x3d95f700	0.07322502
8	0xbde3b684	-0.111187965
9	0x3d1cd469	0.038288508
10	0x3ddbeac0	0.107381344
11	0xbc86df74	-0.016463973
12	0xbd7bad80	-0.06144476
13	0xbd04fe0e	-0.032468848
14	0xbde15be7	-0.11003857
15	0x3de14a22	0.11000468
16	0x3da517c3	0.08061173
17	0xbdd82b65	-0.10555152
18	0x3e0a0d5b	0.13481657
19	0x3d242578	0.040074795
20	0x3db746f8	0.08949083
21	0xbd50fdff	-0.05102348
22	0x3e017538	0.12642372
23	0x3dbdb0e3	0.09262254
24	0xbce08b99	-0.027410315
25	0x3d05a060	0.03262365
26	0xbce94259	-0.02847402
27	0x3cb1720d	0.021660829
28	0xbcbe7476	-0.023248892
29	0xbc652f94	-0.013988394
30	0xbdb27635	-0.087139525
31	0xbcd349aa	-0.025791962
32	0xbcaccda5	-0.021094153
33	0x3c7995a0	0.015233427
34	0x3da24b4b	0.07924517
35	0xbdac4562	-0.08411671
36	0x3ccd8698	0.025088593
37	0xbde70324	-0.11279896
38	0xbc46eab5	-0.012140919
39	0x3d86850e	0.06568347
40	0xbc843102	-0.01613665
41	0xbd29b892	-0.041435786
42	0x3d49a891	0.049233023
43	0x3d0bbcb6	0.034115516
44	0x3cb1f56f	0.021723477
45	0xbd5c9559	-0.053853367
46	0x3d97144b	0.073769175
47	0x3d7bf391	0.06151158
48	0x3d1d6c2d	0.038433243
49	0x3d646d2c	0.055768177
50	0x3b85008b	0.0040589026
51	0x3ab3a56c	0.0013705916
52	0x3c192839	0.009347969
53	0xbd7e1223	-0.062029015
54	0x3e01a79b	0.12661593
55	0xbcd8f822	-0.026485506
56	0xbdb19308	-0.08670622
57	0x3e07862d	0.13234778
58	0x3d60ff0a	0.054930724
59	0x3df0314a	0.11728151
60	0xbd2af165	-0.041734118
61	0xbdb92f58	-0.09042233
62	0xbde19c18	-0.11016101
63	0x3d899d6c	0.06719479
64	0xbda6c9c5	-0.08143953
65	0xbdedb1cf	-0.1160618
66	0xbd9d3abc	-0.07677218
67	0x3a424c89	0.00074119173
68	0xbdff64b5	-0.1247038
69	0xbbde5afc	-0.0067857485
70	0x3d15eafd	0.036601055
71	0xbdd44067	-0.10363846
72	0x3d209558	0.039204925
73	0xbd029665	-0.03188171
74	0xbd7e7b12	-0.062129088
75	0x3c84d364	0.01621408
76	0x3c459b5d	0.012060967
77	0x3d02494c	0.031808183
78	0xbc015d6c	-0.007895809
79	0x3d0d932d	0.034564186
80	0xbd313a99	-0.043268774
81	0x3db93a2a	0.09044297
82	0x3d0dc0c2	0.034607656
83	0x3d2dac0c	0.042400405
84	0xbdbfa533	-0.09357681
85	0x3dcc7583	0.09983351
86	0xbc956dea	-0.018240888
87	0x3db2b424	0.08725765
88	0xbe08be10	-0.13353753
89	0x3c163939	0.009168916
90	0x3d94cc5d	0.07265542
91	0x3d915f8d	0.07098303
92	0xbc65c3b5	-0.014023711
93	0xbcbc095a	-0.022953678
94	0xbdd74d89	-0.105128355
95	0x3db5b4fa	0.08872409
96	0xbd102a0f	-0.03519636
97	0xbd93cd70	-0.072169185
98	0x3dd6fa3e	0.10496949
99	0x3dd1fe3e	0.10253571
100	0xbd1a1556	-0.037618004
101	0xbb8b02ee	-0.0042422926
102	0xbde3eba7	-0.111289315
103	0x3c668dee	0.014071925
104	0xbd738b3d	-0.05945896
105	0xbd70af92	-0.058761187
106	0xbcb35bf1	-0.021894427
107	0xbd15b8d6	-0.036553226
108	0xbda0958c	-0.07841024
109	0xbdf727ed	-0.12068162
110	0xbdc195a1	-0.094523676
111	0xbdf5d8fd	-0.12004278
112	0x3de74c91	0.11293901
113	0xbdb5cf08	-0.08877379
114	0x3c90a408	0.017656341
115	0xbdc75cec	-0.0973452
116	0x3d609775	0.05483194
117	0xbd21029d	-0.039309133
118	0xbe04c96e	-0.12967464
119	0x3e0249d7	0.1272348
120	0x3d3de629	0.046362076
121	0xbdcd689b	-0.100297175
122	0xbbfe724f	-0.0077650915
123	0xbd6bf92c	-0.057610676
124	0x3a95006b	0.0011367922
125	0xbd26fa7e	-0.04076623
126	0xbdd2985d	-0.10282967
127	0x3dbb12fe	0.09134482
128	0x3dd1f38d	0.10251532
129	0xbdcc51bb	-0.09976526
130	0xbe03cebc	-0.12871832
131	0xbda31598	-0.07963103
132	0xbde66f22	-0.11251666
133	0xbde9ddb3	-0.11419239
134	0xbd6e26b9	-0.058142398
135	0xbc7f8875	-0.015596499
136	0x3db52db8	0.08846611
137	0x3de61014	0.112335354
138	0xbbb7cdad	-0.0056092353
139	0xbdd66b45	-0.10469679
140	0x3d976437	0.07392161
141	0x3db974e1	0.09055496
142	0x3d95dfb3	0.07318058
143	0xbcda577f	-0.02665305
144	0xbd515cf8	-0.051114053
145	0xbd858dbd	-0.06521175
146	0xbd32c5a6	-0.043645523
147	0xbc2a2a7d	-0.010386107
148	0xbd9d1849	-0.07670648
149	0xbd8de3d6	-0.06928222
150	0xbdb5f4c8	-0.08884579
151	0xbc407aac	-0.011747997
152	0xbd2902c7	-0.041262414
153	0xbca149e9	-0.019688563
154	0x3d98652c	0.07441172
155	0x3d9fa4a6	0.07795076
156	0x3dc16a49	0.094441004
157	0xbbc33cf9	-0.0059581962
158	0xbdc2c922	-0.09511019
159	0x3de7ad62	0.11312367
160	0x3de58faf	0.11209046
161	0x3dd555e2	0.104167715
162	0x3def963f	0.11698579
163	0xbd20b9db	-0.039239746
164	0xbdd8d539	-0.10587544
165	0x3cd0d256	0.025490921
166	0xbd10d3af	-0.035358127
167	0x3c7422b8	0.014900856
168	0xbd8494fb	-0.06473728
169	0x3d825709	0.06364257
170	0x3d464fc4	0.048415914
171	0xbdf30500	-0.11866188
172	0x3dd0465b	0.10169669
173	0xbd9e86fc	-0.0774059
174	0x3ded6d9e	0.115931734
175	0xbc27e141	-0.010246576
176	0x3d1d1fe0	0.038360476
177	0xbd85419e	-0.06506656
178	0xbdd2d349	-0.10294206
179	0x3db0bb56	0.086294815
180	0xbd531b78	-0.051539868
181	0xbdad718e	-0.084689245
182	0x3df7f49e	0.12107204
183	0x3d92b4eb	0.071634136
184	0xbd8ecc2c	-0.069725364
185	0xbc597903	-0.01327348
186	0x3d5f2a1f	0.05448353
187	0x3d5b012e	0.053467922
188	0x3dd603aa	0.104499176
189	0x3cc24150	0.023712784
190	0x3c585b5d	0.013205376
191	0x3d8b8b92	0.0681373
192	0xbd8cc4c6	-0.06873469
193	0xbdef9d18	-0.11699885
194	0xbdbd8790	-0.09254372
195	0xbd9a87c3	-0.07545426
196	0xbde83d2e	-0.11339794
197	0x3dc839c1	0.09776641
198	0xbdd7793c	-0.105211705
199	0x3dc801f8	0.097660005
200	0x3dae393c	0.0850701
201	0x3dfd2b9c	0.123618335
202	0x3da6a9d9	0.081378646
203	0x3d985778	0.07438558
204	0x3dc9915f	0.098421805
205	0xbdd186e4	-0.102308065
206	0x3d8606fd	0.06544302
207	0x3d6189bd	0.055062998
208	0xbdfbd53e	-0.12296532
209	0xbd731c50	-0.059353173
210	0x3d87736d	0.066138126
211	0x3d726504	0.059178367
212	0x3da76c98	0.081750095
213	0x3cdbc83e	0.026828881
214	0xbdbe094a	-0.092791155
215	0xbda55acf	-0.08073961
216	0xbce501c1	-0.027954938
217	0x3ddc7b2a	0.10765679
218	0x3dabf91d	0.08397124
219	0xbd638617	-0.0555478
220	0xbc4de02f	-0.012565657
221	0xbdbb3332	-0.09140624
222	0xbde5de23	-0.1122401
223	0x3d248d27	0.040173676
224	0x3c57cce0	0.013171405
225	0x3deb2e3b	0.11483427
226	0x3c6a6d32	0.014308261
227	0xbd33c615	-0.043890078
228	0x3dd71b6b	0.105032764
229	0xbd4e8f99	-0.050429914
230	0xbc1f9073	-0.009739029
231	0xbddd4de2	-0.108058706
232	0xbdc3b3a6	-0.095557496
233	0x3dd8c47f	0.10584354
234	0x3d28165e	0.041036956
235	0xbd4b5239	-0.04963896
236	0xbdd9ad12	-0.10628714
237	0x3cd2c062	0.0257265
238	0xbdc4c0a1	-0.096070535
239	0x3de449b9	0.11146874
240	0x3db3a377	0.08771413
241	0x3d9f9ce7	0.077935986
242	0xbd855034	-0.06509438
243	0xbd9e8382	-0.07739927
244	0x3ddaae9d	0.10677836
245	0xbd8e99be	-0.06962918
246	0x3d0fbdcc	0.035093114
247	0x3d939f99	0.07208175
248	0x3d370b0e	0.044688277
249	0x3c9bc11c	0.01901298
250	0xbc8e8e60	-0.017401874
251	0x3dd4a928	0.103838265
252	0xbccf166e	-0.02527925
253	0xbd88c330	-0.06677854
254	0xbde16892	-0.11006273
255	0x3dbc25db	0.09186908

unet.time_mlp.2.bias f4 [16]
0	0x3d475cd0	0.048672497
1	0xbd5e373a	-0.054251887
2	0x3bd637d4	0.006537417
3	0xbda1211a	-0.07867642
4	0xbe08e3c1	-0.13368131
5	0xbd8aa4b6	-0.06769697
6	0xbc2fc607	-0.010728366
7	0xbdd431f3	-0.103610896
8	0xbdf831f5	-0.121189035
9	0xbcb6b069	-0.022300916
10	0x3dba8681	0.09107686
11	0x3d701b50	0.058619797
12	0x3c8c77d3	0.01714698
13	0xbde1554a	-0.11002596
14	0xbdb59a26	-0.08867292
15	0xbd549c1a	-0.051906683

unet.cond_mlp.0.weight f4 [16, 32]
0	0xbcef0523	-0.029177254
1	0x3d8ecf33	0.06973114
2	0xbc09d24b	-0.008411954
3	0x3df8094a	0.12111147
4	0xbdd8967a	-0.10575576
5	0xbe086c3f	-0.13322543
6	0xbdafeec0	-0.0859046
7	0x3e0a7c9f	0.13524102
8	0xbce7f2f7	-0.028314097
9	0x3d0755e0	0.03304088
10	0x3d58ba06	0.05291178
11	0x3df4ed5b	0.119593345
12	0xbe01b3f7	-0.12666307
13	0xbd1e7482	-0.03868533
14	0xbd91a95c	-0.07112381
15	0xbe292777	-0.16518961
16	0xbd86e8b1	-0.06587351
17	0xbc5fb780	-0.01365459
18	0x3c80187a	0.015636671
19	0x3cfe077b	0.031009426
20	0x3df94ef8	0.12173265
21	0x3e168e74	0.14702779
22	0xbdca4fe3	-0.098785184
23	0x3da0f625	0.07859448
24	0xbd189ce8	-0.037259012
25	0xbe05ea27	-0.13077603
26	0xbd5199a1	-0.051171903
27	0xbdb97110	-0.09054768
28	0xbc1bfb98	-0.009520434
29	0xbd7759bc	-0.06038831
30	0xbc56f63b	-0.013120229
31	0x3cee291d	0.029072339
32	0xbe048b67	-0.12943803
33	0x3c61532d	0.013752741
34	0x3dc62d2f	0.09676587
35	0xbd418d6b	-0.047254007
36	0xbd0e7630	-0.03478068
37	0xbd624d33	-0.055249404
38	0xbe1cd8bb	-0.15317051
39	0x3db9bf87	0.09069734
40	0x3e25c8bd	0.16189857
41	0x3c69b9e7	0.014265514
42	0x3d252611	0.040319506
43	0xbc419f7d	-0.01181781
44	0xbdecd4c0	-0.11564016
45	0xbd14fafb	-0.036372166
46	0x3d9f769e	0.07786296
47	0x3d7f6acb	0.062357705
48	0xbddd6da7	-0.1081193
49	0xbcb79fcc	-0.022415064
50	0xbdf4ba57	-0.11949604
51	0x3dbf222c	0.0933269
52	0xbc939d36	-0.0180193
53	0xbe2e916a	-0.17047659
54	0x3d819524	0.063272744
55	0xbe1800bf	-0.14844035
56	0xbcf7592d	-0.03019389
57	0x3defb892	0.11705126
58	0x3e030415	0.12794526
59	0x3e03a639	0.12856378
60	0x3c937b0a	0.018003006
61	0x3c0f6647	0.008752412
62	0xbdcc98cd	-0.09990082
63	0xbe3e43fe	-0.18580624
64	0xbd59e219	-0.05319414
65	0xbde69cf3	-0.112604044
66	0xbe27ae19	-0.16375007
67	0xbe355ffc	-0.17712396
68	0xbd02f673	-0.031973314
69	0xbe3f3fb7	-0.18676649
70	0xbe14174a	-0.14462009
71	0xbd754049	-0.05987576
72	0x3d207212	0.039171286
73	0x3df1901a	0.11795063
74	0x3e1e6659	0.1546873
75	0xbde78341	-0.113043316
76	0x3d9e3b39	0.077261396
77	0x3df95547	0.121744685
78	0xbe33df8e	-0.17565748
79	0x3e15202a	0.14563051
80	0x3d700ad6	0.058604084
81	0xbe0108f4	-0.12601072
82	0xbd3fb45e	-0.04680287
83	0x3cacadef	0.021079032
84	0x3cb6167e	0.022227522
85	0xbe08033f	-0.13282488
86	0xbcb8cbe6	-0.022558164
87	0xbce0e4ea	-0.027452905
88	0xbd93a289	-0.072087355
89	0x3da570e8	0.08078176
90	0x3e28670a	0.16445556
91	0xbd9ec298	-0.077519596
92	0x3dfb755b	0.12278243
93	0xbdc0b77b	-0.09409996
94	0xbd2353c8	-0.039874822
95	0xbde1372a	-0.1099685
96	0x3d2ec3cb	0.04266719
97	0xbd9480e2	-0.07251145
98	0xbddc7744	-0.107649356
99	0xbda5df5d	-0.08099244
100	0xbccc7091	-0.02495602
101	0xbd43170e	-0.04762941
102	0x3d021cba	0.031765677
103	0x3e0e2c49	0.13884081
104	0x3e0211e7	0.12702142
105	0x3c6ffe34	0.014648009
106	0xbdc0ddbb	-0.09417292
107	0xbd888722	-0.066663995
108	0xbcc9b8fb	-0.024624338
109	0xbdadff49	-0.084959574
110	0xbd08c5cb	-0.033391755
111	0x3d16f4a0	0.036854386
112	0x3d2f8f4a	0.04286126
113	0xbe108213	-0.1411212
114	0xbe1940db	-0.14966147
115	0x3b953e70	0.0045545623
116	0x3db8ed31	0.09029616
117	0x3c923249	0.017846243
118	0xbdb003c5	-0.08594469
119	0x3d28dced	0.041226316
120	0xbdfc9c21	-0.12334467
121	0xbdbe5977	-0.09294408
122	0x3e2c555f	0.16829441
123	0xba08df41	-0.00052212557
124	0xbe05dbe3	-0.13072161
125	0x3dd43c60	0.10363078
126	0xbe09ef81	-0.1347027
127	0xbe1d43e7	-0.15357934
128	0x3d81c402	0.06336214
129	0xbd6c607d	-0.057709206
130	0x3d929afd	0.07158468
131	0x3d0f9571	0.035054628
132	0xbdb0a102	-0.0862446
133	0xbdc17dc3	-0.09447815
134	0xbd4c87dd	-0.049934257
135	0x3d44ab7d	0.048015106
136	0xbd346409	-0.044040713
137	0xbdbb446c	-0.0914391
138	0xbd64634e	-0.055758767
139	0x3d31bec0	0.043394804
140	0xbe1527d2	-0.14565971
141	0xbc80112d	-0.01563319
142	0xbe1a23f1	-0.15052773
143	0xbdbe85b5	-0.09302846
144	0x3c1d2ea6	0.009593641
145	0xbe0e70ff	-0.13910292
146	0x3e0ca44d	0.13734551
147	0x3e088e8f	0.13335632
148	0xbdb163a9	-0.08661587
149	0xbd4b1d30	-0.049588382
150	0xbdfb76d4	-0.12278524
151	0x3e0d7dc5	0.13817509
152	0xbe246305	-0.16053398
153	0x3cfddb87	0.030988468
154	0xbdc2d133	-0.09512558
155	0xbe143884	-0.14474684
156	0xbdc5c581	-0.096568115
157	0x3d1ac145	0.037781972
158	0xbba2da8f	-0.004969902
159	0xbda6d0f5	-0.08145324
160	0x3ca46add	0.020070488
161	0x3ca85c48	0.020551816
162	0x3c46a994	0.0121253915
163	0xbdc50860	-0.09620738
164	0xbe200e25	-0.15630396
165	0xbddca32a	-0.107733086
166	0xbdb07710	-0.08616459
167	0x3d923a43	0.07140019
168	0x3d1ba104	0.037995353
169	0xbda995b1	-0.082805045
170	0xbe2c8d67	-0.16850816
171	0x3d28f7e5	0.041252036
172	0xbd491918	-0.049096197
173	0x3ba38da3	0.0049912496
174	0x3da9b38f	0.08286201
175	0x3d816f5c	0.06320068
176	0xbc252361	-0.010079236
177	0x3d04f182	0.032456882
178	0x3d177755	0.03697904
179	0xbc41fccf	-0.011840059
180	0xbe33abc7	-0.17545997
181	0xbd9dd8cb	-0.077073656
182	0xbd2d88ea	-0.0423669
183	0x3dca7c25	0.0988696
184	0xbd899da8	-0.06719524
185	0xbd42a33e	-0.04751896
186	0x3c13ff23	0.009032997
187	0xbe26ac95	-0.16276772
188	0x3e1edbf0	0.15513587
189	0x3e1f0c2e	0.1553199
190	0xbdc44495	-0.095833935
191	0xbe27ef09	-0.16399778
192	0x3cf70855	0.03015534
193	0x3e2132e5	0.15742071
194	0x3e05cf83	0.1306744
195	0x3d56871f	0.052374955
196	0xbd91cf32	-0.071195975
197	0x3dc6cb96	0.097068
198	0xbdb0fa67	-0.086415105
199	0x3da1f285	0.07907585
200	0xbd501d82	-0.05080939
201	0x3e164458	0.14674509
202	0xbdfbc8cc	-0.12294158
203	0xbd9f477b	-0.07777306
204	0xbd8c4529	-0.06849129
205	0x3bc0c36e	0.005882672
206	0x3df4b4f6	0.11948578
207	0xbe0da06b	-0.13830726
208	0x3d0122e3	0.03152741
209	0x3d2ae19c	0.041719064
210	0xbe0c46c7	-0.13698874
211	0xbd699527	-0.05702701
212	0xbd90730e	-0.07053195
213	0xbe2b0c1b	-0.16703837
214	0x3d053a2e	0.032526188
215	0x3d372cc0	0.04472041
216	0xbce247c0	-0.027622104
217	0xbe0dffe7	-0.1386715
218	0x3e0aa26a	0.13538519
219	0xbe173159	-0.14764918
220	0xbe0c577a	-0.13705245
221	0x3e1fa599	0.15590514
222	0x3d7c460e	0.061590247
223	0xbd9b0119	-0.07568569
224	0xbde5fa4c	-0.11229381
225	0x3e12cc17	0.14335667
226	0x3dc589e7	0.096454434
227	0xbdec5a4f	-0.115406625
228	0x3dc05db8	0.093928754
229	0x3de3bca5	0.111199655
230	0x3c39e051	0.011344985
231	0x3d93d8fa	0.07219119
232	0x3e18bc9e	0.14915702
233	0xbe129dca	-0.14318004
234	0xbc3c8a97	-0.011507652
235	0xbda65970	-0.081225276
236	0x3de922f5	0.11383621
237	0xbc9cf296	-0.019158643
238	0xbd9c64bf	-0.07636403
239	0xbc27b553	-0.010236102
240	0x3e38deca	0.18053737
241	0xbd57dcd3	-0.05270083
242	0xbd07bcc9	-0.033139024
243	0x3e284718	0.1643337
244	0xbe2ec34c	-0.17066687
245	0x3e338054	0.17529422
246	0x3c825aae	0.01591238
247	0xbde1d269	-0.11026461
248	0xbe076afc	-0.13224405
249	0x3dda24c0	0.10651541
250	0x3d91bbaa	0.07115872
251	0xbdc53701	-0.09629632
252	0xbca1e8ae	-0.01976427
253	0xbdb6c7af	-0.089248054
254	0xbdbdf5ff	-0.09275436
255	0xbe161978	-0.14658153

unet.cond_mlp.0.bias f4 [16]
0	0xb71559c0	-8.901989e-06
1	0x3dc160d3	0.09442296
2	0xbe21922f	-0.15778421
3	0xbc00f259	-0.00787028
4	0x3c340c16	0.01098921
5	0x3e269d00	0.16270828
6	0x3cd36ad6	0.02580778
7	0x3cda6806	0.02666093
8	0xbe265e68	-0.1624695
9	0x3e0a28ab	0.13492076
10	0x3e0f144a	0.13972583
11	0x3dc131d0	0.09433329
12	0x3df79cf4	0.12090483
13	0x3b0b7366	0.00212785
14	0x3a8bc758	0.0010664267
15	0xbd7c20f9	-0.061554883
