src/logs_example/run_20250719_001904_ws10_fd1_ed16_bc8_rb1_nt50_s0.008_sw0.1_lr0.001_bs32_61bd416e/model_run_20250719_001904_ws10_fd1_ed16_bc8_rb1_nt50_s0.008_sw0.1_lr0.001_bs32_61bd416e.pt (torch, 35459 bytes, 32 tensors)

betas f4 [50]
0.001747489 0.003688991 0.0056337714 0.007585764 0.0095489025 0.011526883 0.013524234 0.015544534
0.01759255 0.019673109 0.021790743 0.023950815 0.026158988 0.028421521 0.030744493 0.033135474
0.035602212 0.03815353 0.040798843 0.04354924 0.046416342 0.04941398 0.05255717 0.055863857
0.05935359 0.06304985 0.06697893 0.07117188 0.07566583 0.08050352 0.085736334 0.09142703
0.09765023 0.10449803 0.11208534 0.120556235 0.13009268 0.14093208 0.15338635 0.16787475
0.18497169 0.20549464 0.23063338 0.26219916 0.30307245 0.3581307 0.43622243 0.5548348
0.7497583 0.999
00000000: 000c e53a 00c3 713b 809b b83b 0092 f83b
00000010: 0073 1c3c 40db 3c3c c094 5d3c 80ae 7e3c
00000020: 401e 903c 8029 a13c 8082 b23c 8034 c43c
00000030: 604b d63c 40d4 e83c e0db fb3c 10b9 073d
00000040: a0d3 113d e046 1c3d b01c 273d b060 323d
00000050: 101f 3e3d 5066 4a3d 3046 573d 80d1 643d
00000060: c01c 733d 4820 813d 402c 893d 90c2 913d
00000070: b0f6 9a3d 08df a43d 8896 af3d 183e bb3d
00000080: d8fc c73d 1003 d63d 008d e53d 30e6 f63d
00000090: 0437 053e 8050 103e 5011 1d3e 5ce7 2b3e
000000a0: 3869 3d3e 306d 523e 282b 6c3e f83e 863e
000000b0: 502c 9b3e e85c b73e 8c58 df3e a709 0e3f
000000c0: 29f0 3f3f 77be 7f3f

alphas f4 [50]
0.9982525 0.996311 0.9943662 0.99241424 0.9904511 0.9884731 0.98647577 0.98445547
0.98240745 0.9803269 0.97820926 0.9760492 0.973841 0.9715785 0.9692555 0.9668645
0.9643978 0.9618465 0.95920116 0.95645076 0.95358366 0.950586 0.9474428 0.94413614
0.9406464 0.93695015 0.93302107 0.9288281 0.92433417 0.9194965 0.91426367 0.908573
0.90234977 0.895502 0.88791466 0.87944376 0.8699073 0.8590679 0.84661365 0.83212525
0.8150283 0.79450536 0.7693666 0.73780084 0.69692755 0.6418693 0.56377757 0.44516522
0.2502417 0.0009999871
00000000: 7a8d 7f3f 3d0e 7f3f c98e 7e3f dc0e 7e3f
00000010: 348e 7d3f 930c 7d3f ad89 7c3f 4605 7c3f
00000020: 0e7f 7b3f b4f6 7a3f ec6b 7a3f 5cde 793f
00000030: a54d 793f 5eb9 783f 2121 783f 6f84 773f
00000040: c6e2 763f 923b 763f 358e 753f f5d9 743f
00000050: 0f1e 743f 9b59 733f 9d8b 723f e8b2 713f
00000060: 34ce 703f f7db 6f3f 78da 6e3f aec7 6d3f
00000070: 2aa1 6c3f 1f64 6b3f 2f0d 6a3f 3d98 683f
00000080: 6500 673f 9e3f 653f 604e 633f 3a23 613f
00000090: 3fb2 5e3f e0eb 5b3f acbb 583f 2906 553f
000000a0: b2a5 503f b464 4b3f 36f5 443f 84e0 3c3f
000000b0: d869 323f 8c51 243f ba53 103f b2ec e33e
000000c0: ae1f 803e 0012 833a

alpha_bars f4 [50]
0.9982525 0.99456996 0.98896676 0.98146474 0.9720928 0.9608876 0.94789237 0.9331578
0.9167412 0.898706 0.87912256 0.85806686 0.8356207 0.81187105 0.78691053 0.7608359
0.73374844 0.7057533 0.6769594 0.64747834 0.6174248 0.5869154 0.5560687 0.52500457
0.49384367 0.46270692 0.4317153 0.40098932 0.37064812 0.34080964 0.31158987 0.28310212
0.25545713 0.22876237 0.20312147 0.17863391 0.15539494 0.13349481 0.11301853 0.09404557
0.0766498 0.06089868 0.046853412 0.034568485 0.02409173 0.015463742 0.008718111 0.0038809997
0.00097118795 9.711755e-07
00000000: 7a8d 7f3f 239c 7e3f ed2c 7d3f 4641 7b3f
00000010: 13db 783f bbfc 753f 13a9 723f 6ee3 6e3f
00000020: 8daf 6a3f 9911 663f 2d0e 613f 45aa 5b3f
00000030: 3deb 553f c8d6 4f3f f872 493f 24c6 423f
00000040: f0d6 3b3f 40ac 343f 364d 2d3f 24c1 253f
00000050: 8d0f 1e3f 1640 163f 855a 0e3f b366 063f
00000060: 14d9 fc3e ece7 ec3e ca09 dd3e 794e cd3e
00000070: 97c5 bd3e 9a7e ae3e b588 9f3e c3f2 903e
00000080: 47cb 823e af40 6a3e 13ff 4f3e cfeb 363e
00000090: da1f 1f3e ddb2 083e 4276 e73d f79a c03d
000000a0: 92fa 9c3d e570 793d 5de9 3f3d af97 0d3d
000000b0: 055c c53c a35b 7d3c 68d6 0e3c 5f58 7e3b
000000c0: 5297 7e3a 5659 8235

stat_predictor.cond_mlp.0.weight f4 [16, 32]
-0.117271125 0.023904162 -0.093164444 -0.084285796 0.25361198 -0.0072100447 0.09550668 -0.038685545
-0.27813953 0.29146835 0.34632787 0.092424445 0.08176529 -0.010488881 -0.0123167345 -0.048781678
-0.17169991 -0.057829745 0.12919457 -0.02107691 -0.04609232 -0.17456543 -0.17412464 -0.10525723
-0.044059414 -0.05903475 -0.013199766 0.14342205 -0.015024551 -0.12663478 0.09688347 -0.061080284
0.0006064106 -0.21841617 -0.03225375 0.35064566 -0.41300616 -0.01650204 -0.010286329 0.181298
0.1210127 -0.41973233 -0.4128047 -0.1857454 0.079575665 0.061411116 -0.001148454 -0.015951054
0.012446543 -0.02909198 -0.14874722 0.069933556 0.14426836 -0.044102162 -0.1158675 0.06315476
0.015276998 0.08620726 0.053724516 -0.11112751 -0.0024963082 0.08279226 0.12535906 0.16309462
0.12641557 0.002062789 -0.24714826 -0.034813207 0.1468925 0.017391177 -0.015630094 0.0139353685
-0.16910698 -0.06398925 0.25925788 -0.24090867 0.0028834036 -0.04748362 0.1896026 0.09715482
0.20444877 -0.12928714 0.13133366 -0.11293241 -0.14683254 0.15557203 0.026082162 0.050379205
0.075165786 0.19723792 -0.062638365 -0.20113851 -0.09575729 -0.014127469 0.02226485 -0.026354743
0.009598048 0.20347978 -0.8541606 0.33650905 -0.91958064 0.24675202 0.11061358 -0.0026467536
-0.03585554 0.08093401 0.3859172 -0.44643483 -0.42647105 -0.18989705 -0.08327294 0.13873713
-0.09944598 0.03123066 0.12465986 -0.041032244 0.012992513 0.16661099 -0.10208306 0.12525994
0.049644664 0.045322128 0.034710698 -0.063530914 0.081072204 -0.09812107 -0.09631794 -0.016748108
-0.1548158 0.086149715 -0.28988856 0.17568849 0.28894252 0.064605944 0.10565376 0.16474265
0.20055568 0.25444934 0.07730327 -0.0740675 -0.05204372 0.050169263 0.16100225 -0.020320307
0.047066722 0.08327755 -0.0051486576 0.10054015 -0.06020735 0.12432394 -0.02830723 0.011724857
-0.10898248 0.12531601 -0.13876912 -0.09226505 0.15787803 -0.12913874 0.16138439 -0.09370674
0.003262094 0.15017593 0.26852307 1.2880942 -0.47245193 -0.28219375 -0.06715151 -0.17337023
-0.016995559 -0.60916555 -0.16925283 -0.66484874 -0.066349484 -0.033815358 -0.19858994 -0.10825915
-0.20868616 -0.10472842 -0.10074874 0.27832466 0.15687647 -0.065903485 -0.13330962 -0.071355574
-0.044571158 0.059194747 0.014772298 -0.060740475 0.06682844 -0.12794201 -0.03023498 -0.1450276
-0.031970274 0.33978665 -0.109829545 -0.3059829 -0.0047368747 0.13975184 -0.08555402 0.104752116
0.12425347 -0.107649066 0.692795 -0.020141892 -0.3013072 -0.08003925 0.15243398 0.0154310055
-0.07988785 -0.18256716 0.11232159 0.008390549 0.15992978 0.058012214 -0.11539448 0.08686799
0.039546855 -0.09948358 -0.09585004 0.083108455 0.11922026 -0.16220987 0.12726875 -0.026712421
0.038389668 -0.09462756 -0.13411814 0.19914982 -0.62964433 0.16590454 -0.026764274 -0.04616124
-0.30608052 -0.25771308 -0.27257532 -0.076491416 -0.15221386 0.021920836 0.04108107 0.15472431
0.111073755 -0.05781388 0.13819617 -0.13793217 0.1294259 0.16454664 -0.142506 0.1795084
0.16023722 -0.07981506 0.11114587 0.13343242 0.12961352 -0.0071817054 -0.13538285 0.04352206
00000000: d82b f0bd a9d2 c33c 00cd bebd 089e acbd
00000010: 6ed9 813e 3d42 ecbb 0299 c33d bc74 1ebd
00000020: 4e68 8ebe 573b 953e e351 b13e 0749 bd3d
00000030: 8f74 a73d 8ed9 2bbc 21cc 49bc 4ccf 47bd
00000040: 1ad2 2fbe e2de 6cbd 954b 043e 7ca9 acbc
00000050: 4dcb 3cbd 48c1 32be bb4d 32be 1a91 d7bd
00000060: a577 34bd 6cce 71bd d543 58bc 3bdd 123e
00000070: 8929 76bc 8cac 01be d76a c63d 522f 7abd
00000080: 87f7 1e3a 7da8 5fbe 821c 04bd d487 b33e
00000090: 8b75 d3be 492f 87bc fe87 28bc 2fa6 393e
000000a0: 82d5 f73d 28e7 d6be 235b d3be 0b34 3ebe
000000b0: 91f8 a23d 398a 7b3d b987 96ba c9ab 82bc
000000c0: 96ec 4b3c 4e52 eebc 3151 18be 5339 8f3d
000000d0: 16bb 133e 78a4 34bd f14b edbd 4857 813d
000000e0: 604c 7a3c 6f8d b03d 3d0e 5c3d d296 e3bd
000000f0: 1a99 23bb fd8e a93d 205e 003e 4702 273e
00000100: 1573 013e db2f 073b 6f14 7dbe 4b98 0ebd
00000110: fd6a 163e f177 8e3c af0a 80bc 2c51 643c
00000120: 612a 2dbe cc0c 83bd 73bd 843e c3b0 76be
00000130: 7cf7 3c3b 2f7e 42bd 2f27 423e 1bf9 c63d
00000140: 055b 513e d963 04be 557c 063e 1b49 e7bd
00000150: 455b 16be 464e 1f3e 42aa d53c 6d5a 4e3d
00000160: 85f0 993d bdf8 493e 8b48 80bd 41f7 4dbe
00000170: 661c c4bd e676 67bc c664 b63c e7e5 d7bc
00000180: 2241 1d3c 015d 503e 45aa 5abf ea4a ac3e
00000190: a369 6bbf 90ac 7c3e 5f89 e23d 2875 2dbb
000001a0: 42dd 12bd bbc0 a53d f096 c53e 1b93 e4be
000001b0: 6a5a dabe 5f74 42be 018b aabd 1b11 0e3e
000001c0: 55aa cbbd 71d7 ff3c ab4d ff3d 6d11 28bd
000001d0: 8dde 543c 129c 2a3e ec10 d1bd 2444 003e
000001e0: 3458 4b3d b2a3 393d ce2c 0e3d 7f1c 82bd
000001f0: 2f09 a63d b3f3 c8bd 5742 c5bd 5433 89bc
00000200: 0888 1ebe 436f b03d 466c 94be afe7 333e
00000210: 46f0 933e 1f50 843d 0061 d83d 4cb2 283e
00000220: 785e 4d3e 2f47 823e 2d51 9e3d b4b0 97bd
00000230: cc2b 55bd 497e 4d3d c6dd 243e c676 a6bc
00000240: 09c9 403d 6c8d aa3d 12b6 a8bb ffe7 cd3d
00000250: fb9b 76bd 8d9d fe3d 90e4 e7bc 9d19 403c
00000260: 3532 dfbd d752 003e 7e19 0ebe 75f5 bcbd
00000270: c7aa 213e f23c 04be f341 253e 52e9 bfbd
00000280: dbc8 553b b8c7 193e db7b 893e 45e0 a43f
00000290: 38e5 f1be b37b 90be bb86 89bd f787 31be
000002a0: 453a 8bbc 46f2 1bbf 9d50 2dbe 8733 2abf
000002b0: 3de2 87bd f981 0abd 295b 4bbe f9b6 ddbd
000002c0: d3b1 55be db7b d6bd 5b55 cebd 9280 8e3e
000002d0: 3aa4 203e 68f8 86bd 5182 08be df22 92bd
000002e0: 3f90 36bd 3176 723d 8207 723c 01cb 78bd
000002f0: 59dd 883d 3b03 03be 59af f7bc 1d82 14be
00000300: 43f3 02bd 84f8 ad3e 50ee e0bd caa9 9cbe
00000310: c937 9bbb 1b1b 0f3e f236 afbd 4788 d63d
00000320: 9a78 fe3d 1d77 dcbd 035b 313f 9c00 a5bc
00000330: f044 9abe 9eeb a3bd a717 1c3e 54d2 7c3c
00000340: 3e9c a3bd e3f2 3abe dd08 e63d 8378 093c
00000350: a2c4 233e 379e 6d3d f153 ecbd d8e7 b13d
00000360: e2fb 213d 0cbe cbbd 074d c4bd c434 aa3d
00000370: c029 f43d 581a 26be bd52 023e 02d4 dabc
00000380: 7c3e 1d3d 18cc c1bd 4456 09be eeed 4b3e
00000390: 5f30 21bf e1e2 293e c040 dbbc 9213 3dbd
000003a0: 96b6 9cbe f8f2 83be fe8e 8bbe 88a7 9cbd
000003b0: f3dd 1bbe 5393 b33c a044 283d 0d70 1e3e
000003c0: a37a e33d 3fce 6cbd 4c83 0d3e 173e 0dbe
000003d0: 3988 043e ea7e 283e 18ed 11be 0dd1 373e
000003e0: 3a15 243e 1476 a3bd 72a0 e33d 82a2 083e
000003f0: 68b9 043e 8354 ebbb cda1 0abe 3044 323d

stat_predictor.cond_mlp.0.bias f4 [16]
0.014657956 0.1808561 0.1992596 0.12009789 -0.036951683 -0.08228819 0.13351418 -0.14003423
0.04466133 -0.0057995887 0.03208095 0.18275161 -0.17081429 -0.08215204 -0.13430078 -0.103648916
00000000: ec27 703c 5732 393e b50a 4c3e e2f5 f53d
00000010: a65a 17bd b686 a8bd f1b7 083e 2265 0fbe
00000020: ccee 363d 7a0a bebb 5067 033d 3d23 3b3e
00000030: f1e9 2ebe 543f a8bd 2586 09be e245 d4bd

stat_predictor.cond_mlp.2.weight f4 [16, 16]
0.04718408 -0.2681611 -0.22012968 0.22557709 -0.23678455 0.4332442 -0.27696142 -0.18056513
-0.022243517 0.066745505 -0.24493703 -0.2232879 -0.026364833 -0.22484466 -0.02135316 0.30221233
0.08724061 -0.20266603 -0.23985828 0.09556587 0.13115443 0.19213973 0.066002354 0.123717256
-0.100915045 -0.2727705 0.1718037 -0.07488023 -0.13283195 0.053308982 0.0055178506 0.5333411
-0.28095558 0.06429682 -0.11203108 0.4924094 -0.011951068 0.2534608 -0.30036056 0.114112265
-0.30327585 0.019376948 -0.26635113 -0.31852776 -0.14867811 0.16395001 -0.18394947 0.44417316
-0.252631 -0.15949807 0.05504358 0.41619352 -0.10437357 0.6331436 -0.010392141 -0.17871562
-0.024541395 0.081169814 0.20532244 -0.30278572 -0.12309283 0.17771131 0.014630091 0.5814634
-0.2105759 0.25656062 0.047254913 -0.014619216 0.19237672 -0.42926252 0.23688526 0.17678677
0.14958978 0.021394694 -0.03090712 0.2592334 -0.1417987 0.24260426 0.02153459 -0.2572553
-0.2624469 0.24230036 0.28680983 -0.22773713 0.09838565 -0.6014052 -0.028209753 0.15359303
-0.07972558 -0.18073024 -0.12142892 0.041367527 0.08512787 -0.022650365 0.011239176 -0.5226431
-0.24822244 -0.24037325 -0.1467922 0.1320472 -0.24008289 0.48063877 -0.260698 -0.06647354
-0.12860999 -0.044989213 -0.27951786 -0.21890281 -0.11460175 0.057825293 -0.2307759 0.2972638
-0.3235566 0.026236132 0.25759786 0.7535639 -0.14900438 -0.34239972 -0.0792047 0.2970004
-0.47257704 -0.45146236 -0.06704672 0.51031923 0.073428415 0.029201476 -0.02172481 0.19118807
0.1694148 -0.03197859 0.017760076 -0.24332167 -0.08668295 -0.25815052 0.12765393 -0.06289511
0.02065071 0.2657159 -0.24481823 -0.13077174 -0.2041635 0.046728946 0.07025589 -0.5282491
-0.12474976 0.27584404 0.1686523 -0.10283816 -0.091401875 -0.34669673 0.16980788 -0.06307852
0.05720145 0.0021193912 0.07945881 0.255658 0.21713094 -0.031505734 0.16034324 -0.42959684
-0.15865201 -0.27850437 0.02732018 0.50085425 -0.19451448 0.44409734 -0.216508 0.18623875
0.047807187 -0.27648923 0.14074613 -0.24374293 -0.08734695 0.28490797 -0.24690391 0.21994364
-0.2553521 -0.18370244 -0.11438581 0.42940423 -0.19160013 0.047810525 -0.206239 -0.060930658
-0.39204568 0.11661484 0.07138627 -0.15580282 -0.19746217 -0.06340978 0.2199851 0.46170792
-0.0091381045 -0.29316968 -0.26339546 0.33219147 0.063124284 0.3905321 -0.03826097 0.08150419
-0.26962224 0.068226635 0.01444318 -0.0118040545 -0.030132554 0.024253864 -0.2612642 0.51459515
-0.14089124 -0.29534733 -0.1966769 -0.062011972 -0.24160004 0.15614662 -0.08414999 -0.25349814
0.15137556 0.13817982 -0.21765041 0.21990241 0.089061 -0.06279589 -0.027427848 -0.043887075
0.23468615 -0.050229274 0.18058093 0.5097262 -0.15510927 0.5582625 -0.15722625 0.012868729
0.046564195 -0.062389754 -0.02871029 -0.28329846 0.10397764 -0.16782442 -0.25554767 0.24287441
-0.028275587 -0.0009284485 -0.10294228 -0.15987834 0.1350552 -0.46422434 0.1609553 0.18585467
0.08654885 -0.044524558 -0.08650667 0.21815701 -0.2597843 0.005589446 0.059601042 -0.3473611
00000000: 1844 413d 694c 89be ad69 61be aefd 663e
00000010: a677 72be 2fd2 dd3e e3cd 8dbe 11e6 38be
00000020: 0938 b6bc deb1 883d c6d0 7abe 95a5 64be
00000030: 10fb d7bc ae3d 66be d2ec aebc 93bb 9a3e
00000040: 34ab b23d af87 4fbe 699d 75be 0ab8 c33d
00000050: 594d 063e 47c0 443e 3e2c 873d 795f fd3d
00000060: 8cac cebd 93a8 8bbe 4fed 2f3e ce5a 99bd
00000070: 1905 08be 855a 5a3d 16cf b43b 0b89 083f
00000080: 69d9 8fbe 0dae 833d 8d70 e5bd 161d fc3e
00000090: 6ace 43bc 9dc5 813e dcc8 99be b1b3 e93d
000000a0: f946 9bbe 68bc 9e3c 2d5f 88be 1216 a3be
000000b0: 133f 18be 83e2 273e 405d 3cbe aa6a e33e
000000c0: da58 81be 7653 23be 6075 613d 5117 d53e
000000d0: cfc1 d5bd b315 223f cc43 2abc 3a01 37be
000000e0: 090b c9bc 5c3c a63d 0c40 523e bb06 9bbe
000000f0: 1818 fcbd f4f9 353e 0db3 6f3c c9da 143f
00000100: 35a1 57be ea5b 833e 5e8e 413d 7085 6fbc
00000110: 67fe 443e 4cc8 dbbe 0d92 723e 9707 353e
00000120: 102e 193e ed43 af3c ee30 fdbc 3dba 843e
00000130: ae33 11be 406d 783e 4f69 b03c f7b6 83be
00000140: 715f 86be 961d 783e bdd8 923e ec33 69be
00000150: 6a7e c93d b1f5 19bf 2418 e7bc 7e47 1d3e
00000160: 2a47 a3bd 5911 39be baaf f8bd ff70 293d
00000170: 8557 ae3d 428d b9bc 8524 383c f0cb 05bf
00000180: 062e 7ebe 6824 76be b250 16be 6237 073e
00000190: 4ad8 75be 4916 f63e 357a 85be 4823 88bd
000001a0: 56b2 03be 9c46 38bd f71c 8fbe 0f28 60be
000001b0: 53b4 eabd 37da 6c3d 8450 6cbe f632 983e
000001c0: 36a9 a5be 28ed d63c dee3 833e 90e9 403f
000001d0: 9b94 18be 044f afbe 1336 a2bd 7010 983e
000001e0: 9ef5 f1be 1326 e7be ca4f 89bd 48a4 023f
000001f0: a361 963d ef37 ef3c 3bf8 b1bc cec6 433e
00000200: 137b 2d3e fbfb 02bd 947d 913c 5129 79be
00000210: d586 b1bd 4e2c 84be b6b7 023e 27cf 80bd
00000220: ae2b a93c ea0b 883e a1b1 7abe 07e9 05be
00000230: 3d10 51be da66 3f3d 52e2 8f3d 553b 07bf
00000240: cd7c ffbd 6e3b 8d3e 30b3 2c3e d09c d2bd
00000250: e830 bbbd 3c82 b1be 1ee2 2d3e 502f 81bd
00000260: 114c 6a3d 7ce5 0a3b 4dbb a23d 9be5 823e
00000270: 9357 5e3e 280c 01bd 0531 243e 1ef4 dbbe
00000280: ac75 22be 2098 8ebe 92ce df3c fc37 003f
00000290: ce2e 47be ba60 e33e 46b4 5dbe 5fb5 3e3e
000002a0: 78d1 433d ff8f 8dbe c11f 103e bf97 79be
000002b0: f5e2 b2bd 75df 913e 61d4 7cbe e838 613e
000002c0: 83bd 82be 7e1c 3cbe 1c43 eabd dfda db3e
000002d0: d332 44be f8d4 433d 5130 53be 6d92 79bd
000002e0: 36ba c8be c3d3 ee3d f732 923d c68a 1fbe
000002f0: 8633 4abe fddc 81bd c643 613e fb64 ec3e
00000300: fdb7 15bc 561a 96be c5db 86be 0015 aa3e
00000310: 4e47 813d d3f3 c73e 89b7 1cbd abeb a63d
00000320: ed0b 8abe 68ba 8b3d 16a3 6c3c cb65 41bc
00000330: 8cd8 f6bc 0ab0 c63c 6cc4 85be 82bc 033f
00000340: cb45 10be c437 97be ab65 49be 4400 7ebd
00000350: 0066 77be e6e4 1f3e d456 acbd 82ca 81be
00000360: 3202 1b3e 037f 0d3e c0df 5ebe 192e 613e
00000370: 9d65 b63d 229b 80bd 5eb0 e0bc efc2 33bd
00000380: 9151 703e 36bd 4dbd 35ea 383e 6b7d 023f
00000390: f7d4 1ebe 4bea 0e3f ebff 20be 5dd7 523c
000003a0: 19ba 3e3d 668c 7fbd d831 ebbc 7f0c 91be
000003b0: 3bf2 d43d 2ada 2bbe 25d7 82be 12b4 783e
000003c0: 34a2 e7bc 2063 73ba 67d3 d2bd 26b7 23be
000003d0: e94b 0a3e d0ae edbe 77d1 243e b050 3e3e
000003e0: 8640 b13d 625f 36bd 692a b1bd 8d64 5f3e
000003f0: 7302 85be ac27 b73b 3920 743d 50d9 b1be

stat_predictor.cond_mlp.2.bias f4 [16]
0.08666462 0.006326471 -0.07185107 -0.059352204 0.18999101 0.025563972 0.100952044 -0.018752461
0.10826366 -0.19720167 -0.014146172 -0.18905434 -0.1408732 -0.042196665 -0.17495866 0.14745753
00000000: 387d b13d 494e cf3b a726 93bd 4c1b 73bd
00000010: 018d 423e 896b d13c f2bf ce3d c39e 99bc
00000020: 56b9 dd3d 3cef 49be 59c5 67bc 7697 41be
00000030: 1041 10be 69d6 2cbd 5d28 33be 1bff 163e

stat_predictor.stat_mlp.0.weight f4 [16, 16]
0.019571982 -0.12841497 -0.12211968 0.1893021 -0.31802443 0.034755725 0.18290849 -0.1414512
-0.03648535 -0.32299307 -0.22354175 0.2437086 0.0011703874 0.22838184 0.18876432 -0.12043775
-0.03474971 -0.15899497 0.070928864 -0.12834312 -0.14961898 0.09538037 0.1648698 -0.15508124
0.17758371 -0.10443977 -0.278961 0.0057971096 -0.12691294 -0.21377748 -0.33350945 0.29067776
0.28667927 0.10158669 0.15107249 -0.04060597 0.1537406 -0.23618026 0.18917069 -0.19980384
0.097737044 -0.07596607 0.07146149 0.092471465 -0.1775321 -0.049869977 -0.07669342 -0.18613164
-0.14151286 -0.18749543 -0.25548118 -0.043583915 0.2701081 0.35710844 -0.29941857 0.16159256
0.04641843 0.0029698228 0.026232226 0.14830764 -0.3186124 0.037792526 0.08028812 0.12944655
0.19446929 0.13338211 0.077635296 0.08098814 -0.17185166 -0.009439347 0.08671171 -0.2981515
-0.18630898 -0.12875265 0.20610222 0.045592576 -0.06911882 0.33332312 -0.07376402 -0.07896872
0.429086 -0.05412286 0.18826497 -0.029497609 -0.3263479 -0.37495357 0.13910452 -0.37031826
0.44349 -0.1874099 -0.18061411 0.4553685 0.13206291 0.5202905 0.10661092 0.115622245
-0.0785262 0.072902545 0.1382648 0.18503052 0.15250897 0.0893979 0.24067771 0.27449903
0.17692709 0.10417673 0.36166373 0.26453418 0.013253762 -0.18865408 0.23056202 0.054289322
0.110096306 -0.050409622 -0.263211 -0.4556364 -0.08362392 0.26770735 -0.0017241746 -0.32350674
0.283898 0.033272583 0.050756816 -0.16554484 -0.3612166 0.057990726 -0.4007924 0.09054294
-0.3147505 0.08434812 -0.31451967 -0.34345883 -0.07167358 0.084094256 -0.19523156 -0.11535969
0.15116435 0.24492934 -0.19500864 -0.2419203 -0.0572038 -0.05660791 -0.2893995 0.008782953
-0.16644606 0.20875828 -0.060930908 0.18015358 0.07206387 0.19526479 0.18403636 0.20629822
0.054203607 0.16008858 0.20046616 -0.14386906 0.09732281 0.049810592 -0.14986129 0.24815162
-0.005397211 -0.10137024 -0.11817126 0.025433116 -0.1514922 0.1174679 -0.11892255 0.02337376
-0.071862936 -0.110395074 0.07513353 0.011352002 0.020611232 0.29550174 0.0064195246 -0.17582387
0.04818824 0.13022473 -0.23896542 -0.14891987 0.28976223 0.18757756 -0.075009875 -0.08189921
0.10797117 0.17995149 -0.086159624 -0.3165907 -0.2804789 -0.14968747 0.10036834 0.1747178
-0.20236696 -0.2722469 0.05396784 -0.06529236 0.1031535 0.27778596 -0.23462565 0.24035463
-0.17602535 -0.17626373 -0.07165109 0.13750096 0.0940187 -0.23178464 -0.13888475 0.31208315
0.050356504 -0.2922608 -0.35905567 -0.0014315171 0.34916532 -0.022074731 -0.023859086 -0.2536536
0.07882751 0.117404304 -0.3391253 -0.15357016 -0.06903535 0.041725803 -0.2923915 0.1697359
-0.13798994 0.15841307 0.0784704 -0.2447213 0.15202144 -0.1362599 -0.33439532 0.013490582
0.10501292 0.068237275 0.05620723 -0.10015899 -0.24990569 -0.09944088 -0.22110009 0.23508598
0.17202576 0.079474755 0.10486162 0.0905738 0.086179025 -0.30083913 0.24636832 -0.40919408
-0.0037492882 0.02825428 0.15093704 -0.21519263 0.09345753 -0.1130443 -0.023518942 -0.057653714
00000000: 6c55 a03c 377f 03be e219 fabd 69d8 413e
00000010: 19d4 a2be 055c 0e3d 5d4c 3b3e 95d8 10be
00000020: aa71 15bd 595f a5be 21e8 64be bf8e 793e
00000030: af67 993a eedc 693e 6f4b 413e 11a8 f6bd
00000040: b655 0ebd 94cf 22be 2743 913d 616c 03be
00000050: b835 19be c956 c33d a1d3 283e 9ecd 1ebe
00000060: 81d8 353e 85e4 d5bd fad3 8ebe aef5 bd3b
00000070: 77f5 01be 7ce8 5abe c0c1 aabe b7d3 943e
00000080: a0c7 923e af0c d03d bfb2 1a3e 7252 26bd
00000090: 2d6e 1d3e 3dd9 71be f6b5 413e 6199 4cbe
000000a0: 5c2a c83d 1994 9bbd 675a 923d ae61 bd3d
000000b0: faca 35be 7644 4cbd 7111 9dbd 4b99 3ebe
000000c0: bfe8 10be cdfe 3fbe 6ece 82be 0c85 32bd
000000d0: 9c4b 8a3e ebd6 b63e 644d 99be 8578 253e
000000e0: 4021 3e3d 5ca1 423b f7e4 d63c f5dd 173e
000000f0: 2a21 a3be 56cc 1a3d 196e a43d a38d 043e
00000100: f522 473e 5295 083e 41ff 9e3d 1cdd a53d
00000110: e2f9 2fbe 7ea7 1abc e995 b13d 50a7 98be
00000120: c8c7 3ebe bcd7 03be 760c 533e 48bf 3a3d
00000130: 2b8e 8dbd 54a9 aa3e 9711 97bd 5aba a1bd
00000140: 29b1 db3e efaf 5dbd 88c8 403e f8a4 f1bc
00000150: 1217 a7be eaf9 bfbe 6a71 0e3e 5b9a bdbe
00000160: 1f11 e33e 61e8 3fbe e8f2 38be 0f26 e93e
00000170: 803b 073e c231 053f d356 da3d 5bcb ec3d
00000180: 58d2 a0bd ee4d 953d 4a95 0d3e a478 3d3e
00000190: 502b 1c3e 3f16 b73d 3874 763e 238b 8c3e
000001a0: 602c 353e 9c5a d53d fd2b b93e 0671 873e
000001b0: 4f26 593c 892e 41be 7318 6c3e 7b5e 5e3d
000001c0: 2c7a e13d 527a 4ebd 98c3 86be 2d49 e9be
000001d0: 0543 abbd f010 893e b3fd e1ba ada2 a5be
000001e0: 145b 913e d548 083d 61e6 4f3d 9684 29be
000001f0: 62f1 b8be af87 6d3d a934 cdbe 946e b93d
00000200: fa26 a1be b5be ac3d b908 a1be d6d9 afbe
00000210: 99c9 92bd 9c39 ac3d c8ea 47be b341 ecbd
00000220: d4ca 1a3e c2ce 7a3e 58b0 47be f5b9 77be
00000230: 884e 6abd b2dd 67bd 2c2c 94be 60e6 0f3c
00000240: d670 2abe bbc4 553e b092 79bd 2e7a 383e
00000250: 3996 933d 7ef3 473e 0774 3c3e d73f 533e
00000260: 9a04 5e3d 43ee 233e 0047 4d3e 6952 13be
00000270: 2e51 c73d 3106 4c3d 3d75 19be 751b 7e3e
00000280: 16db b0bb 339b cfbd c603 f2bd 1c59 d03c
00000290: c520 1bbe 0393 f03d aa8d f3bd 547a bf3c
000002a0: e02c 93bd d016 e2bd 9cdf 993d bffd 393c
000002b0: e3d8 a83c 014c 973e e05a d23b 2c0b 34be
000002c0: 0861 453d a259 053e 5ab3 74be 737e 18be
000002d0: b75b 943e 5514 403e c79e 99bd c6ba a7bd
000002e0: fd1f dd3d 3445 383e 7574 b0bd 2d18 a2be
000002f0: ee9a 8fbe ac47 19be eb8d cd3d 39e9 323e
00000300: 4939 4fbe f263 8bbe 620d 5d3d 00b8 85bd
00000310: 2442 d33d f639 8e3e b541 70be 861f 763e
00000320: fd3f 34be 7b7e 34be cfbd 92bd 0dcd 0c3e
00000330: e08c c03d f458 6dbe ce37 0ebe 5dc9 9f3e
00000340: 9f42 4e3d 35a3 95be 25d6 b7be bea1 bbba
00000350: ccc5 b23e 11d6 b4bc 2174 c3bc e2de 81be
00000360: 5170 a13d ab71 f03d d5a1 adbe 7f41 1dbe
00000370: 6862 8dbd ade8 2a3d 57b4 95be 3fcf 2d3e
00000380: 3c4d 0dbe 0937 223e 17b5 a03d 3898 7abe
00000390: 82ab 1b3e b787 0bbe dd35 abbe 9a07 5d3c
000003a0: 0411 d73d fcbf 8b3d 8d39 663d 2820 cdbd
000003b0: 47e7 7fbe a9a7 cbbd 1068 62be 61ba 703e
000003c0: 8527 303e a9c3 a23d b0c1 d63d c27e b93d
000003d0: a17e b03d 9607 9abe fa47 7c3e e381 d1be
000003e0: 9eb6 75bb 8575 e73c 3d8f 1a3e 755b 5cbe
000003f0: a966 bf3d c583 e7bd ccaa c0bc 4d26 6cbd

stat_predictor.stat_mlp.0.bias f4 [16]
0.15795517 0.061556824 0.1796006 -0.059093527 -0.47870025 -0.20798174 -0.10814009 -0.17839542
0.034208085 0.16048402 -0.16433488 0.3392441 0.106077835 0.102835625 0.25876257 -0.12069827
00000000: 00bf 213e 0223 7c3d 38e9 373e 0e0c 72bd
00000010: 3318 f5be 2af9 54be 8d78 ddbd 4aad 36be
00000020: c71d 0c3d ec55 243e 6747 28be 67b1 ad3e
00000030: 563f d93d 7c9b d23d 877c 843e a830 f7bd

stat_predictor.stat_mlp.2.weight f4 [2, 16]
-0.10506628 -0.097273305 -0.053114884 0.1490459 0.1911886 0.15301068 -0.09884956 0.017493008
0.032826938 -0.058547683 -0.052647967 -0.13891813 -0.09035591 -0.024076361 -0.02092744 -0.02050335
-0.19194706 0.22940241 -0.07442327 0.28192127 -0.24521779 -0.40005088 0.17699341 0.22467493
0.20471413 0.18277448 -0.09790747 0.27649462 0.28581092 0.30918708 0.19463852 -0.15939727
00000000: fd2c d7bd 3a37 c7bd fe8e 59bd 7d9f 183e
00000010: f2c6 433e d5ae 1c3e a371 cabd 7f4d 8f3c
00000020: 8a75 063d b2cf 6fbd 65a5 57bd 8e40 0ebe
00000030: 850c b9bd ca3b c5bc 0670 abbc a4f6 a7bc
00000040: c58d 44be 77e8 6a3e 3a6b 98bd fc57 903e
00000050: 5f1a 7bbe 78d3 ccbe c33d 353e 2f11 663e
00000060: 95a0 513e 3c29 3b3e b683 c8bd b490 8d3e
00000070: cf55 923e c54d 9e3e 524f 473e 0a39 23be

stat_predictor.stat_mlp.2.bias f4 [2]
0.1618942 -0.044378594
00000000: 98c7 253e 54c6 35bd

unet.init_conv.weight f4 [8, 1, 3]
-0.32925025 -0.5435232 -0.18925297 0.26443765 0.34360898 -0.14868172 0.13997415 0.6962924
-0.081331015 -0.24615514 0.5833186 0.24758753 -0.36943957 -0.009500818 -0.2108862 0.40501946
0.3360835 0.17180032 -0.43686777 0.50317544 -0.529329 0.061479818 0.2316178 -0.06314617
00000000: 7d93 a8be 5624 0bbf 88cb 41be 5f64 873e
00000010: 84ed af3e 0540 18be 6255 0f3e 3840 323f
00000020: e090 a6bd 1810 7cbe 5e54 153f 9687 7d3e
00000030: 2f27 bdbe 52a9 1bbc 8df2 57be b65e cf3e
00000040: 2313 ac3e 6cec 2f3e 22ad dfbe 1bd0 003f
00000050: 1b82 07bf 43d2 7b3d 372d 6d3e c752 81bd

unet.init_conv.bias f4 [8]
0.1965579 0.24599831 0.35216755 -0.33982363 -0.88460284 -0.53018 0.0017347691 -0.607114
00000000: 7946 493e fbe6 7b3e 4e4f b43e 5dfd adbe
00000010: 5575 62bf e0b9 07bf 3161 e33a d36b 1bbf

unet.time_mlp.0.weight f4 [64, 16]
-0.039281666 0.16219477 0.15870222 -0.1664176 -0.053380877 -0.20627098 -0.20096225 -0.40230125
0.11268516 0.13930735 0.17392564 -0.1466925 -0.11746726 -0.19779763 -0.14819269 -0.21356058
-0.08877082 -0.14172634 -0.1447618 -0.03367198 0.3378861 0.0046420754 0.15507405 0.06427336
0.065608986 0.07385052 -0.3201773 -0.061380185 0.102190174 -0.18576679 -0.11324379 0.028472789
0.044007234 -0.091144845 0.2932258 -0.069797605 -0.080722876 -0.17623149 -0.11633197 -0.24552938
0.032428455 0.1961557 -0.05354424 0.046970174 -0.18990146 -0.012864468 -0.12774141 -0.06076696
0.06858699 -0.12546946 -0.47793478 0.44579783 0.27014863 0.41198975 0.6665375 0.5516477
-0.04693868 0.1789421 -0.42223746 -0.26248965 0.10454777 0.041170023 0.27280524 0.111449
-0.08915598 0.09665453 0.2154562 -0.45385998 -0.3945237 -0.35761464 -0.40368736 -0.46776682
0.1105709 0.20785338 -0.07598442 0.042366702 -0.10660064 0.0563442 0.17844582 0.15390898
0.10042435 0.1632562 -0.958972 0.5728777 0.6695352 0.6924598 0.74144346 0.32201746
-0.00065519207 -0.14884037 0.20765778 -0.51322 0.14784844 0.13761535 0.06324802 -0.14322323
0.061908457 -0.10902281 0.22961731 0.2776897 0.04827315 -0.14185108 -0.091363 0.14395472
-0.13262983 0.327177 -0.21598756 0.038027786 -0.024601338 0.22620882 -0.19395319 -0.22593388
0.02343253 -0.021913147 -0.15502286 0.08973506 -0.042746726 0.07674311 0.11574724 -0.2773686
-0.015766263 -0.067899935 -0.05643544 0.2448291 -0.012838298 -0.13936844 -0.071518384 -0.15407044
-0.18870337 -0.0117950635 0.18576309 -0.29151914 0.039579127 -0.1086695 -0.21255563 -0.2993683
-0.19391038 -0.12272801 -0.18465841 0.23744781 0.09546933 -0.09206916 -0.053143144 0.18230963
0.008268042 0.12917987 0.30281395 -0.05161849 0.039261214 -0.019801363 0.10433158 -0.12132467
-0.07461412 0.18006209 -0.19345587 0.119572684 0.114751205 0.052951396 0.0656043 -0.031270895
-0.01448401 0.2894164 -0.8414347 0.26442143 0.3636081 0.34111303 0.38183242 0.6461957
0.033998404 -0.19124158 0.09090046 -0.5332688 0.046060525 0.26835534 -0.18745115 0.07179525
0.04809355 -0.35603148 -0.49374864 0.041167893 -0.07678014 -0.23080894 -0.09728321 0.005372434
0.038847297 0.25193864 0.3366949 -0.20886055 -0.030446336 0.021754533 -0.13852465 0.0916379
-0.1268571 0.11571764 0.25485206 -0.05517686 -0.022682596 0.10935092 -0.0049619274 -0.29630762
0.093295455 0.040031914 -0.14355063 0.0368812 -0.087416396 0.22589345 -0.19484638 -0.2300908
0.05305797 -0.016668076 -0.27784044 0.161912 0.08987243 0.2665602 0.27456164 0.4840175
0.002686438 -0.21583797 0.18631454 -0.13719858 0.20208906 -0.055098075 -0.16784906 0.12109616
-0.04260472 0.119016394 0.33273393 -0.4132116 -0.27019918 -0.28495514 -0.43363857 -0.30542433
-0.04378733 -0.115891054 0.14902651 0.049349118 0.14921927 -0.079253584 -0.08809754 -0.1555202
0.16954555 -0.016814578 0.16640489 -0.21885543 -0.2494624 -0.43464348 -0.1416729 -0.28236225
-0.113407895 0.15601583 0.21877591 -0.16243778 0.039798804 0.1852924 -0.049567245 -0.17412353
00000000: d0e5 20bd 6316 263e d682 223e 6069 2abe
00000010: e8a5 5abd b338 53be 0cc9 4dbe 6efa cdbe
00000020: 7ac7 e63d 96a6 0e3e 9019 323e 8f36 16be
00000030: ad92 f0bd 768b 4abe d3bf 17be a0af 5abe
00000040: 7acd b5bd b620 11be 703c 14be a1eb 09bd
00000050: 68ff ac3e 8d1c 983b bbcb 1e3e c0a1 833d
00000060: 015e 863d f13e 973d 47ee a3be ca69 7bbd
00000070: 1549 d13d a639 3ebe 5cec e7bd c43f e93c
00000080: ee40 343d 26aa babd b121 963e 0cf2 8ebd
00000090: 0952 a5bd 0776 34be 753f eebd 0e6c 7bbe
000000a0: b3d3 043d 0add 483e 3451 5bbd cc63 403d
000000b0: 8775 42be 7dc5 52bc a5ce 02be c7e6 78bd
000000c0: 5677 8c3d 117b 00be deb3 f4be 9d3f e43e
000000d0: ec50 8a3e 52f0 d23e 34a2 2a3f c938 0d3f
000000e0: c642 40bd 993c 373e 822f d8be 0b65 86be
000000f0: 241d d63d e6a1 283d 21ad 8b3e 603f e43d
00000100: 6997 b6bd cff2 c53d 8da0 5c3e 5660 e8be
00000110: 03ff c9be 4419 b7be 1cb0 cebe 227f efbe
00000120: ff72 e23d 84d7 543e b89d 9bbd b588 2d3d
00000130: 7051 dabd 2dc9 663d 80ba 363e 519a 1d3e
00000140: 48ab cd3d a22c 273e 307f 75bf 1da8 123f
00000150: a966 2b3f 0c45 313f 3dcf 3d3f 79df a43e
00000160: 32c1 2bba 9c69 18be 3ea4 543e 6362 03bf
00000170: 9565 173e 0aeb 0c3e 2e88 813d 1ca9 12be
00000180: b993 7d3d 5a47 dfbd cd20 6b3e 582d 8e3e
00000190: 11ba 453d 6941 11be 861c bbbd de68 133e
000001a0: 1dd0 07be be83 a73e d82b 5dbe 06c3 1b3d
000001b0: bf88 c9bc 49a3 673e aa9b 46be 365b 67be
000001c0: 94f5 bf3c 3383 b3bc 50be 1ebe 04c7 b73d
000001d0: 3117 2fbd 7e2b 9d3d e40c ed3d 4203 8ebe
000001e0: 4028 81bc 1f0f 8bbd d928 67bd 7bb4 7a3e
000001f0: ba57 52bc 9ab6 0ebe 3b78 92bd a4c4 1dbe
00000200: 753b 41be 1540 41bc ae38 3e3e ff41 95be
00000210: b91d 223d 1d8e debd 2fa8 59be cd46 99be
00000220: 7190 46be d358 fbbd 1817 3dbe 8525 733e
00000230: 6d85 c33d c18e bcbd a0ac 59bd 60af 3a3e
00000240: ae76 073c ba47 043e 6e0a 9b3e e96d 53bd
00000250: 5ed0 203d 7836 a2bc ccab d53d 1279 f8bd
00000260: 4acf 98bd 3262 383e 4c19 46be 86e2 f43d
00000270: ae02 eb3d 90e3 583d 8c5b 863d e915 00bd
00000280: 574e 6dbc 632e 943e 4468 57bf 3f62 873e
00000290: d72a ba3e 5ea6 ae3e 8a7f c33e 156d 253f
000002a0: e941 0b3d d5d4 43be 052a ba3d 4e84 08bf
000002b0: f6a9 3c3d df65 893e 32f3 3fbe 6309 933d
000002c0: befd 443d c249 b6be 9fcc fcbe aa9f 283d
000002d0: e83e 9dbd 2e59 6cbe 6b3c c7bd 3e0b b03b
000002e0: 581e 1f3d 1afe 803e 4663 ac3e 8adf 55be
000002f0: 986a f9bc 9036 b23c 68d9 0dbe a7ac bb3d
00000300: d4e6 01be 5ffd ec3d f87b 823e 2201 62bd
00000310: dad0 b9bc 60f3 df3d aa97 a2bb a2b5 97be
00000320: b011 bf3d 81f8 233d f0fe 12be be10 173d
00000330: 5e07 b3bd 9d50 673e cf85 47be ec9c 6bbe
00000340: 5053 593d 7d8b 88bc 1a41 8ebe 42cc 253e
00000350: 090f b83d 947a 883e 5893 8c3e 24d1 f73e
00000360: f30e 303b a104 5dbe 3dc9 3e3e c97d 0cbe
00000370: 6ff0 4e3e 85ae 61bd a0e0 2bbe 4301 f83d
00000380: 4982 2ebd debe f33d 1a5c aa3e 7990 d3be
00000390: 8c57 8abe a4e5 91be e005 debe 9460 9cbe
000003a0: 585a 33bd 4a58 edbd 689a 183e 4d22 4a3d
000003b0: f0cc 183e b44f a2bd 7c6c b4bd b040 1fbe
000003c0: 599d 2d3e babe 89bc 0b66 2a3e a31b 60be
000003d0: 1273 7fbe 9789 debe b312 11be c991 90be
000003e0: 6642 e8bd 9dc2 1f3e cb06 603e 1756 26be
000003f0: 1204 233d 4abd 3d3e 0607 4bbd 704d 32be

unet.time_mlp.0.bias f4 [64]
-0.040903218 0.08527428 0.23985188 -0.012196752 0.088937685 -0.013055537 -0.15428106 0.26294118
0.08231878 -0.25859424 -0.111873895 0.16634603 0.13943478 0.021760006 -0.16095912 0.15080908
0.008679246 -0.10540472 -0.16104636 0.2543033 0.01868193 0.038059894 0.14185669 -0.1646797
-0.1535545 -0.08185368 0.08802074 -0.031139195 0.03919786 -0.0855838 -0.022052549 -0.24608323
-0.04087108 0.17115626 -0.05360417 0.074892946 -0.015312665 -0.21643683 0.028946023 -0.18788162
-0.14720213 -0.15114942 0.19045627 -0.19381908 0.06761871 0.15344922 0.21176754 -0.20274518
-0.035141133 0.03859469 0.07701049 0.17655337 0.13736467 0.0026859604 -0.035556484 0.13711463
0.2079139 0.21162266 -0.25685015 0.18048717 -0.1273299 0.15363911 0.22390868 0.045649067
00000000: 228a 27bd 48a4 ae3d bb9b 753e e3d4 47bc
00000010: f624 b63d e4e6 55bc dbfb 1dbe 3aa0 863e
00000020: c096 a83d 7766 84be 241e e5bd 9d56 2a3e
00000030: fec7 0e3e 0a42 b23c 78d2 24be b26d 1a3e
00000040: 6533 0e3c 6ede d7bd 56e9 24be 0b34 823e
00000050: d90a 993c b1e4 1b3d e142 113e cca1 28be
00000060: 643d 1dbe e7a2 a7bd 3844 b43d a017 ffbc
00000070: ef8d 203d 8f46 afbd 8ca7 b4bc 3efd 7bbe
00000080: 6f68 27bd 9643 2f3e 0c90 5bbd 7961 993d
00000090: f9e1 7abc 9ea1 5dbe 3620 ed3c 0a64 40be
000000a0: 28bc 16be eac6 1abe f806 433e 8278 46be
000000b0: ae7b 8a3d cb21 1d3e 97d9 583e 6f9c 4fbe
000000c0: 26f0 0fbd 7715 1e3d adb7 9d3d 68ca 343e
000000d0: 53a9 0c3e f006 303b ada3 11bd c767 0c3e
000000e0: 62e7 543e 9cb3 583e dd81 83be a1d1 383e
000000f0: c562 02be 9253 1d3e 5148 653e 84fa 3a3d

unet.time_mlp.2.weight f4 [16, 64]
0.18620697 -0.11421954 -0.04574426 -0.0878501 0.010055621 0.10231029 -0.14059 0.008047856
0.026487518 0.03120786 0.21224731 -0.17708424 0.025279814 0.050350007 0.038279556 -0.11872611
0.07028354 -0.088985585 -0.0820523 -0.07818988 -0.008018191 0.046221048 0.11950754 0.08309191
-0.090540946 0.171679 -0.008225182 -0.00046625975 -0.04826759 0.11464722 -0.05453185 -0.20173657
-0.005942538 -0.020192252 -0.042206284 -0.113406494 0.24823567 0.024414593 0.016907502 -0.16969487
-0.04232413 -0.045857757 0.02206386 0.051085398 0.068809435 0.05805798 0.00882044 -0.094610356
-0.0040156213 -0.010128704 -0.124948144 -0.074524425 -0.06662808 0.14220162 -0.005382756 -0.1289115
0.025644572 0.008159691 -0.021650799 0.0751505 -0.026306154 -0.05948503 0.019799521 0.09498527
0.083536774 -0.0156026725 -0.029871013 -0.15935713 -0.015692944 -0.46886653 -0.06687321 0.049834482
0.040503904 -0.08135679 -0.25452715 -0.053951133 0.056692496 -0.15204898 0.15183197 -0.022645565
-0.025892796 0.14367677 0.15791424 -0.07014822 0.1312711 0.13474251 -0.20398188 0.083179206
-0.19157894 0.023611939 0.15696666 0.056601066 0.15732817 -0.0696247 0.0056370567 0.18044464
-0.048040397 -0.09378414 -0.16516024 0.07255079 0.07421456 0.024761854 0.01960669 -0.28208837
-0.04630658 0.105690494 -0.038207382 -0.072951995 -0.14887588 0.0900466 -0.19422202 0.07711317
0.08542919 -0.06801333 -0.1684137 -0.24059933 0.0077864444 -0.034409713 -0.013377547 -0.019224185
-0.040538937 -0.24853149 0.11095888 0.111735456 0.09355918 0.06870102 -0.11454854 0.05928986
-0.0793015 0.095266365 -0.11578203 0.3090348 -0.16049604 0.3271811 0.027557032 -0.013049787
0.07362988 -0.10926305 0.26808634 0.09554899 0.09600511 0.064304784 -0.03827489 -0.15287839
-0.16705562 -0.07787022 -0.06187278 0.045345493 0.04239986 -0.11347351 0.3623832 -0.059025798
0.20093456 -0.1592739 0.10803436 -0.07913123 0.057878237 -0.028864995 0.023200652 -0.0036514902
0.04708873 0.044620834 0.27433145 -0.15623043 -0.12752356 -0.06012292 -0.17688699 0.05453504
-0.07530689 -0.0764637 0.048819736 0.13952015 0.18157361 0.057858195 0.18346986 -0.115726784
-0.09385397 0.11992879 0.16883159 0.17423864 0.012828519 -0.036755558 -0.19348443 -0.13273364
0.101528995 0.13678813 -0.0075847437 -0.0057221586 -0.14192824 -0.0209634 0.13929747 -0.033922717
-0.07545942 -0.17602573 -0.11314693 0.021153139 -0.061354715 0.24070153 -0.21326694 -0.027899655
-0.10785644 -0.12283502 0.14932494 -0.06259995 -0.0907974 0.043642245 0.1249536 -0.032856446
0.2618666 -0.0003583965 0.14612073 -0.21119569 0.06629428 0.15034582 0.03634708 0.05103596
0.08022685 0.22172818 -0.03871583 0.07034012 0.09387675 0.026820151 -0.030159768 -0.110104635
-0.002859161 0.023245007 0.115347385 0.049066264 0.02710038 -0.026023792 0.06445793 0.21033408
0.13993473 -0.14651853 -0.06689886 0.044299193 0.25556996 -0.01843475 -0.006140937 -0.009472584
0.066101514 -0.17247541 0.024138328 0.23700474 0.065069094 -0.12328476 0.039138645 0.055029176
-0.0018634726 0.08243341 0.07533592 0.07477134 -0.01946527 0.072289124 0.08918611 0.00017407727
00000000: 0aad 3e3e efeb e9bd 555e 3bbd c1ea b3bd
00000010: 55c0 243c 0f88 d13d d3f6 0fbe 28db 033c
00000020: 5afc d83c a0a7 ff3c 5c57 593e 9255 35be
00000030: 9d17 cf3c cf3b 4e3d 06cb 1c3d ad26 f3bd
00000040: d1f0 8f3d 133e b6bd 090b a8bd 0422 a0bd
00000050: bb5e 03bc 4852 3d3d 5ec0 f43d 172c aa3d
00000060: 886d b9bd 9fcc 2f3e eac2 06bc 5374 f4b9
00000070: 3db4 45bd 29cc ea3d ca5c 5fbd 0894 4ebe
00000080: 9fb9 c2bb 396a a5bc 7fe0 2cbd aa41 e8bd
00000090: 7e31 7e3e 1d01 c83c 9a81 8a3c 7ec4 2dbe
000000a0: 115c 2dbd 58d5 3bbd 45bf b43c ec3e 513d
000000b0: f6eb 8c3d 34ce 6d3d 9b83 103c 13c3 c1bd
000000c0: 7995 83bb ddf2 25bc d0e4 ffbd 43a0 98bd
000000d0: 4e74 88bd 4d9d 113e d461 b0bb 6001 04be
000000e0: 9114 d23c 39b0 053c 045d b1bc 81e8 993d
000000f0: 0180 d7bc 93a6 73bd 9b32 a23c a387 c23d
00000100: 5415 ab3d 5aa2 7fbc 0eb4 f4bc 842e 23be
00000110: 7d8e 80bc 460f f0be d2f4 88bd 3e1f 4c3d
00000120: 6ce7 253d 649e a6bd 6251 82be ddfb 5cbd
00000130: 6436 683d bab2 1bbe d779 1b3e 3183 b9bc
00000140: 211d d4bc 0120 133e 45b4 213e dfa9 8fbd
00000150: ee6b 063e f1f9 093e a0e0 50be dc59 aa3d
00000160: 452d 44be d36d c13c debb 203e 85d6 673d
00000170: a31a 213e 6597 8ebd 0fb7 b83b 7bc6 383e
00000180: 02c6 44bd e611 c0bd c41f 29be 8295 943d
00000190: cefd 973d 5fd9 ca3c 369e a03c e36d 90be
000001a0: f8ab 3dbd 4274 d83d 587f 1cbd db67 95bd
000001b0: eb72 18be 5a6a b83d 23e2 46be 82ed 9d3d
000001c0: 80f5 ae3d 934a 8bbd a474 2cbe ac5f 76be
000001d0: 6e25 ff3b 33f1 0cbd 802d 5bbc 0a7c 9dbc
000001e0: 280c 26bd 0a7f 7ebe 693e e33d 8fd5 e43d
000001f0: f59b bf3d 1fb3 8c3d 6d98 eabd edd9 723d
00000200: d368 a2bd 031b c33d 211f edbd cf39 9e3e
00000210: 1359 24be 4884 a73e 49bf e13c c6ce 55bc
00000220: 43cb 963d 4ec5 dfbd 9d42 893e 30af c33d
00000230: 549e c43d 3ab2 833d 22c6 1cbd 278c 1cbe
00000240: a110 2bbe 6c7a 9fbd 506e 7dbd 32bc 393d
00000250: 7aab 2d3d cd64 e8bd 4a8a b93e 09c5 71bd
00000260: cac1 4d3e b218 23be 1e41 dd3d 8e0f a2bd
00000270: bb11 6d3d 4876 ecbc 4b0f be3c d74d 6fbb
00000280: 1de0 403d 56c4 363d 2c75 8c3e dffa 1fbe
00000290: 8995 02be 7343 76bd dd21 35be 2260 5f3d
000002a0: 803a 9abd 0099 9cbd 34f7 473d 5fde 0e3e
000002b0: 6fee 393e b7fc 6c3d 86df 3b3e 2a02 edbd
000002c0: 8336 c0bd 3a9d f53d 30e2 2c3e 9d6b 323e
000002d0: b52e 523c ff8c 16bd c820 46be 54eb 07be
000002e0: 6fee cf3d 3012 0c3e 7189 f8bb f280 bbbb
000002f0: a355 11be 70bb abbc ffa3 0e3e 8cf2 0abd
00000300: 788a 9abd 1740 34be 94b9 e7bd 5949 ad3c
00000310: 154f 7bbd 767a 763e a662 5abe d18d e4bc
00000320: d6e3 dcbd ed90 fbbd a3e8 183e 6734 80bd
00000330: fdf3 b9bd 36c2 323d ace7 ff3d 7b94 06bd
00000340: 6113 863e 2ae7 bbb9 aca0 153e af43 58be
00000350: 4cc5 873d 41f4 193e ade0 143d 150b 513d
00000360: fa4d a43d b60c 633e 7d94 1ebd 7b0e 903d
00000370: 7442 c03d efb5 db3c 9e11 f7bc 8a7e e1bd
00000380: c360 3bbb 506c be3c 403b ec3d b5f9 483d
00000390: 9e01 de3c d92f d5bc 8502 843d d161 573e
000003a0: 0d4b 0f3e f408 16be 4502 89bd 1273 353d
000003b0: 11da 823e 7904 97bc ea39 c9bb e632 1bbc
000003c0: 3b60 873d 659d 30be bebd c53c 5fb1 723e
000003d0: f242 853d b87c fcbd d84f 203d 4666 613d
000003e0: c43f f4ba d9d2 a83d b849 9a3d b721 993d
000003f0: a175 9fbc 520c 943d 35a7 b63d 8388 3639

unet.time_mlp.2.bias f4 [16]
-0.056244243 -0.07114052 0.0021213575 -0.08478857 -0.12038514 -0.032065116 -0.065115824 0.06242405
-0.033734303 -0.13318679 -0.08769259 -0.21431674 0.028499983 0.1390283 -0.0611186 0.027580572
00000000: 5d60 66bd 1fb2 91bd 7906 0b3b a1a5 adbd
00000010: 7c8c f6bd b656 03bd 725b 85bd 5cb0 7f3d
00000020: fb2c 0abd 1e62 08be 2c98 b3bd d975 5bbe
00000030: cc78 e93c 6f5d 0e3e 7f57 7abd a7f0 e13c

unet.cond_mlp.0.weight f4 [16, 32]
0.105002664 0.04702011 -0.55997974 0.15189984 0.54305345 -0.0781861 -0.10613111 -0.37441865
0.043609314 -0.7543921 -0.44769332 -0.06725447 0.37866172 0.1918512 -0.17354707 -0.16842845
-0.08916104 0.08642418 0.13057876 0.043772206 0.18588237 -0.1630389 0.13892215 -0.045910858
-0.021392364 -0.13880698 0.12219289 0.104854025 0.15689446 -0.17131016 -0.02220901 -0.051145483
-0.40563563 0.1317653 -0.0007114367 -0.6080583 -0.4176913 0.20857869 0.40833235 0.2150011
0.20618325 -0.04285019 -0.28283364 -0.2006624 -0.42379883 -0.25460103 -0.029746875 0.14251842
0.060258556 0.16496485 -0.07295653 -0.045290392 0.058212467 -0.109378375 -0.082818225 -0.12195457
0.17590053 -0.037310746 -0.073991686 -0.05387057 -0.0016722335 0.12179294 -0.15945494 0.016575208
-0.07928737 -0.015540955 -0.5528711 0.20410481 0.65314025 -0.12146391 0.14886388 0.08946128
-0.047809694 0.2766536 0.3287506 0.12102061 0.12277887 0.14576946 0.15559815 0.05638216
-0.020194156 -0.102435395 -0.17040548 0.13099223 0.081965946 0.16001168 -0.06478254 -0.069767065
-0.14014171 -0.03770258 -0.05462305 0.14098161 0.05141445 0.14011322 -0.076278664 -0.15976878
-0.12750122 -0.13500755 0.91975904 -0.47702715 0.45509216 -0.15079522 -0.38494617 -0.38759264
0.07962153 0.25802442 -0.7513408 0.5597101 0.36636835 -0.082129225 0.02894852 0.011648176
-0.12628196 0.019177519 -0.17054285 -0.049470983 0.13387114 -0.15477414 -0.049266912 -0.16195348
-0.045515414 -0.017033895 0.21798162 0.2526846 -0.07027145 -0.1630641 -0.12607673 -0.0033519275
0.13893364 0.2552455 0.5361229 0.2623891 0.4625905 0.11155191 -0.032353953 0.22910246
-0.2471506 0.1888632 -0.31615165 0.113979295 -0.45250696 0.03540805 -0.089341976 -0.06479193
0.018692926 -0.1541918 -0.18422827 -0.12503462 0.07993994 -0.067013934 -0.032370355 -0.19078553
-0.0031563814 -0.11542394 0.14240578 0.14134194 0.04755107 -0.010551174 -0.19407237 -0.13294874
0.18034136 -0.51370585 0.20599538 -0.03579642 0.18872248 -0.29247925 0.007874977 -0.13460213
-0.09420449 0.40492734 0.9206605 0.41448566 0.4612005 -0.032453686 0.115924984 -0.13389307
-0.037259247 0.0902203 0.052963533 -0.09592018 -0.065170586 0.1743789 -0.16375974 -0.094640404
-0.1725241 -0.11740653 -0.03443191 0.06856406 0.11363711 0.14138614 -0.1608894 -0.13736781
-0.29044986 0.080779985 0.089548744 0.6835904 -0.14932781 -0.105652116 -0.27105105 -0.2045373
-0.058635283 -0.6343658 -1.2308929 0.019858537 0.32182303 -0.04612835 -0.08002905 0.059744176
-0.10537067 0.03612592 0.0070729516 -0.14001235 0.12945795 -0.124575876 0.14183632 0.11024167
0.17402653 -0.009098683 0.1918599 0.1523509 0.13050102 -0.07048609 0.06329126 0.080584824
0.195895 -0.5631183 -0.2451391 -0.12658636 -0.057521865 -0.116615355 0.072241664 -0.07480187
0.32383394 -0.20738307 -0.26521608 -0.31893465 -0.16623867 0.09199507 -0.098753095 0.06881258
-0.11528025 0.07643636 0.19407505 -0.10462482 0.042473815 -0.063564025 0.14543729 0.043931756
-0.020477341 0.073867545 -0.160913 0.11799434 -0.038383126 -0.11723266 -0.0063631046 -0.14912625
00000000: a30b d73d 2998 403d d55a 0fbf a28b 1b3e
00000010: 8d05 0b3f 0920 a0bd 445b d9bd cdb3 bfbe
00000020: ae9f 323d d71f 41bf 0f38 e5be b6bc 89bd
00000030: f3df c13e a474 443e 53b6 31be 8278 2cbe
00000040: 109a b6bd 29ff b03d 70b6 053e 7c4a 333d
00000050: f357 3e3e abf3 26be 9c41 0e3e 060d 3cbd
00000060: 0a3f afbc 6b23 0ebe 4440 fa3d b5bd d63d
00000070: f1a8 203e ee6b 2fbe abef b5bc ed7d 51bd
00000080: 79af cfbe 7ced 063e b57f 3aba b5a9 1bbf
00000090: a2db d5be a795 553e f010 d13e 4029 5c3e
000000a0: b421 533e ae83 2fbd 92cf 90be 727a 4dbe
000000b0: 29fc d8be 115b 82be b8af f3bc 59f0 113e
000000c0: add1 763d 8cec 283e 3c6a 95bd 6b82 39bd
000000d0: 3270 6e3d c501 e0bd 9a9c a9bd 51c3 f9bd
000000e0: 451f 343e 27d3 18bd f488 97bd 63a7 5cbd
000000f0: d82e dbba 946e f93d 2848 23be bbc8 873c
00000100: 6b61 a2bd 7d9f 7ebc f688 0dbf da00 513e
00000110: 3334 273f 12c2 f8bd c66f 183e 7a37 b73d
00000120: 19d4 43bd 8aa5 8d3e 0052 a83e a7d9 f73d
00000130: 7d73 fb3d 9744 153e 1f55 1f3e fbf0 663d
00000140: 376e a5bc a6c9 d1bd c67e 2ebe d422 063e
00000150: c3dd a73d 1ada 233e b5ac 84bd 09e2 8ebd
00000160: 4f81 0fbe 056e 1abd 6bbc 5fbd 7c5d 103e
00000170: f597 523d d779 0f3e fd37 9cbd 6d9a 23be
00000180: ae8f 02be 6b3f 0abe 5475 6b3f e73c f4be
00000190: d701 e93e 106a 1abe aa17 c5be 8b72 c6be
000001a0: 9d10 a33d c71b 843e df57 40bf 2949 0f3f
000001b0: a294 bb3e 5e33 a8bd 7225 ed3c fed7 3e3c
000001c0: 0f50 01be 2c1a 9d3c c9a2 2ebe 16a2 4abd
000001d0: 8415 093e 1d7d 1ebe 1acc 49bd 22d7 25be
000001e0: 5f6e 3abd ab8a 8bbc 9336 5f3e e05f 813e
000001f0: 7aea 8fbd 47fa 26be 421a 01be 03ac 5bbb
00000200: 9f44 0e3e 8aaf 823e 5a3f 093f dd57 863e
00000210: a9d8 ec3e 5475 e43d 9485 04bd d699 6a3e
00000220: 0c15 7dbe 5b65 413e a1de a1be fa6d e93d
00000230: feae e7be 0808 113d edf8 b6bd a2b1 84bd
00000240: e821 993c 75e4 1dbe 56a6 3cbe 1309 00be
00000250: 8db7 a33d 9a3e 89bd c796 04bd 485d 43be
00000260: 4bdb 4ebb 6363 ecbd d2d2 113e f1bb 103e
00000270: e9c4 423d d5de 2cbc e8ba 46be b723 08be
00000280: 68ab 383e 3a82 03bf 74f0 523e 449f 12bd
00000290: 7740 413e d7bf 95be 0c06 013c 24d5 09be
000002a0: 49ee c0bd a352 cf3e 68b0 6b3f 7737 d43e
000002b0: 7922 ec3e 28ee 04bd 146a ed3d 441b 09be
000002c0: 279d 18bd 6cc5 b83d 4af0 583d cd71 c4bd
000002d0: 2878 85bd 6290 323e a2b0 27be d4d2 c1bd
000002e0: 28aa 30be d672 f0bd 7908 0dbd 506b 8c3d
000002f0: 93ba e83d 87c7 103e 31c0 24be 26aa 0cbe
00000300: d8b5 94be fa6f a53d 5565 b73d c8ff 2e3f
00000310: 64e9 18be 2360 d8bd 34c7 8abe 3a72 51be
00000320: 8d2b 70bd cc65 22bf e68d 9dbf 5fae a23c
00000330: fdc5 a43e 15f1 3cbd 45e6 a3bd 4fb6 743d
00000340: 94cc d7bd c6f8 133d 38c4 e73b 665f 0fbe
00000350: a090 043e a321 ffbd 8a3d 113e 62c6 e13d
00000360: 0334 323e a412 15bc ec76 443e e001 1c3e
00000370: 0fa2 053e 035b 90bd d99e 813d a809 a53d
00000380: b398 483e 8528 10bf bf05 7bbe db9f 01be
00000390: 0c9c 6bbd 08d4 eebd 70f3 933d b931 99bd
000003a0: 90cd a53e 3a5c 54be 67ca 87be 674b a3be
000003b0: 783a 2abe e967 bc3d 103f cabd 9ced 8c3d
000003c0: 0d18 ecbd ab8a 9c3d 9cbb 463e 8a45 d6bd
000003d0: 06f9 2d3d db2d 82bd 83ed 143e c9f1 333d
000003e0: 19c0 a7bc de47 973d 61c6 24be 04a7 f13d
000003f0: a037 1dbd ad17 f0bd 9781 d0bb 8db4 18be

unet.cond_mlp.0.bias f4 [16]
0.116402365 0.039663743 0.06824718 -0.16909719 0.055100963 -0.16479021 -0.0026375505 0.011634335
-0.1166927 0.19922662 0.07021942 -0.18896547 0.09507621 -0.002551154 -0.023292912 -0.14991048
00000000: 5d64 ee3d 7376 223d 2dc5 8b3d d027 2dbe
00000010: 8cb1 613d c4be 28be c1da 2cbb f09d 3e3c
00000020: 95fc eebd 1002 4c3e 33cf 8f3d 2a80 41be
00000030: 51b7 c23d 4331 27bb c7d0 bebc 2282 19be
