src/logs_example/run_20250718_184247_ws10_fd1_ed16_bc8_rb1_nt50_s0.008_sw0.1_lr0.001_bs32_1655ffb5/model_run_20250718_184247_ws10_fd1_ed16_bc8_rb1_nt50_s0.008_sw0.1_lr0.001_bs32_1655ffb5.pt (torch, 35459 bytes, 32 tensors)

betas f4 [50]
00000000: 000c e53a 00c3 713b 809b b83b 0092 f83b
00000010: 0073 1c3c 40db 3c3c c094 5d3c 80ae 7e3c
00000020: 401e 903c 8029 a13c 8082 b23c 8034 c43c
00000030: 604b d63c 40d4 e83c e0db fb3c 10b9 073d
00000040: a0d3 113d e046 1c3d b01c 273d b060 323d
00000050: 101f 3e3d 5066 4a3d 3046 573d 80d1 643d
00000060: c01c 733d 4820 813d 402c 893d 90c2 913d
00000070: b0f6 9a3d 08df a43d 8896 af3d 183e bb3d
00000080: d8fc c73d 1003 d63d 008d e53d 30e6 f63d
00000090: 0437 053e 8050 103e 5011 1d3e 5ce7 2b3e
000000a0: 3869 3d3e 306d 523e 282b 6c3e f83e 863e
000000b0: 502c 9b3e e85c b73e 8c58 df3e a709 0e3f
000000c0: 29f0 3f3f 77be 7f3f
0.001747489 0.003688991 0.0056337714 0.007585764 0.0095489025 0.011526883 0.013524234 0.015544534
0.01759255 0.019673109 0.021790743 0.023950815 0.026158988 0.028421521 0.030744493 0.033135474
0.035602212 0.03815353 0.040798843 0.04354924 0.046416342 0.04941398 0.05255717 0.055863857
0.05935359 0.06304985 0.06697893 0.07117188 0.07566583 0.08050352 0.085736334 0.09142703
0.09765023 0.10449803 0.11208534 0.120556235 0.13009268 0.14093208 0.15338635 0.16787475
0.18497169 0.20549464 0.23063338 0.26219916 0.30307245 0.3581307 0.43622243 0.5548348
0.7497583 0.999

alphas f4 [50]
00000000: 7a8d 7f3f 3d0e 7f3f c98e 7e3f dc0e 7e3f
00000010: 348e 7d3f 930c 7d3f ad89 7c3f 4605 7c3f
00000020: 0e7f 7b3f b4f6 7a3f ec6b 7a3f 5cde 793f
00000030: a54d 793f 5eb9 783f 2121 783f 6f84 773f
00000040: c6e2 763f 923b 763f 358e 753f f5d9 743f
00000050: 0f1e 743f 9b59 733f 9d8b 723f e8b2 713f
00000060: 34ce 703f f7db 6f3f 78da 6e3f aec7 6d3f
00000070: 2aa1 6c3f 1f64 6b3f 2f0d 6a3f 3d98 683f
00000080: 6500 673f 9e3f 653f 604e 633f 3a23 613f
00000090: 3fb2 5e3f e0eb 5b3f acbb 583f 2906 553f
000000a0: b2a5 503f b464 4b3f 36f5 443f 84e0 3c3f
000000b0: d869 323f 8c51 243f ba53 103f b2ec e33e
000000c0: ae1f 803e 0012 833a
0.9982525 0.996311 0.9943662 0.99241424 0.9904511 0.9884731 0.98647577 0.98445547
0.98240745 0.9803269 0.97820926 0.9760492 0.973841 0.9715785 0.9692555 0.9668645
0.9643978 0.9618465 0.95920116 0.95645076 0.95358366 0.950586 0.9474428 0.94413614
0.9406464 0.93695015 0.93302107 0.9288281 0.92433417 0.9194965 0.91426367 0.908573
0.90234977 0.895502 0.88791466 0.87944376 0.8699073 0.8590679 0.84661365 0.83212525
0.8150283 0.79450536 0.7693666 0.73780084 0.69692755 0.6418693 0.56377757 0.44516522
0.2502417 0.0009999871

alpha_bars f4 [50]
00000000: 7a8d 7f3f 239c 7e3f ed2c 7d3f 4641 7b3f
00000010: 13db 783f bbfc 753f 13a9 723f 6ee3 6e3f
00000020: 8daf 6a3f 9911 663f 2d0e 613f 45aa 5b3f
00000030: 3deb 553f c8d6 4f3f f872 493f 24c6 423f
00000040: f0d6 3b3f 40ac 343f 364d 2d3f 24c1 253f
00000050: 8d0f 1e3f 1640 163f 855a 0e3f b366 063f
00000060: 14d9 fc3e ece7 ec3e ca09 dd3e 794e cd3e
00000070: 97c5 bd3e 9a7e ae3e b588 9f3e c3f2 903e
00000080: 47cb 823e af40 6a3e 13ff 4f3e cfeb 363e
00000090: da1f 1f3e ddb2 083e 4276 e73d f79a c03d
000000a0: 92fa 9c3d e570 793d 5de9 3f3d af97 0d3d
000000b0: 055c c53c a35b 7d3c 68d6 0e3c 5f58 7e3b
000000c0: 5297 7e3a 5659 8235
0.9982525 0.99456996 0.98896676 0.98146474 0.9720928 0.9608876 0.94789237 0.9331578
0.9167412 0.898706 0.87912256 0.85806686 0.8356207 0.81187105 0.78691053 0.7608359
0.73374844 0.7057533 0.6769594 0.64747834 0.6174248 0.5869154 0.5560687 0.52500457
0.49384367 0.46270692 0.4317153 0.40098932 0.37064812 0.34080964 0.31158987 0.28310212
0.25545713 0.22876237 0.20312147 0.17863391 0.15539494 0.13349481 0.11301853 0.09404557
0.0766498 0.06089868 0.046853412 0.034568485 0.02409173 0.015463742 0.008718111 0.0038809997
0.00097118795 9.711755e-07

stat_predictor.cond_mlp.0.weight f4 [16, 32]
00000000: e751 663d 2206 cfbe 3023 a0bc b500 7fbf
00000010: 12ec 203e 250a a73c f540 07be 3261 fdbd
00000020: 9d52 ce3d 7ffc 133e e491 f1be 1c8b 033f
00000030: ec93 273e 3338 5f3b c75b 8a3c 9406 683d
00000040: b85c febd f3a9 313d 0dc4 50be ce1f cabc
00000050: 52d8 ef3d 8197 60be e234 efbd f6e7 58be
00000060: 0e6b b5bc 95b5 383d b4d5 8a3d 1542 363e
00000070: 534b d0bd a225 03be fa18 5fbe dc25 2cbd
00000080: aa58 99bd bf53 2c3b 6c90 cbbd 8df3 143e
00000090: 93f2 eb3d 1849 d6bd 003d 2ebe 80fa 553c
000000a0: e415 c83d 400f 0d3e 2616 fabd 19ed a03c
000000b0: 3e43 e33c aa75 093e 90b4 253e 904e e73c
000000c0: 2220 bb3d feb5 583d 2154 3bbe 9a49 e1bd
000000d0: 6a01 12be 40fe 9f3d 1b0a 1e3e 35a1 93bd
000000e0: 4d36 4b3d 5413 07be 171c c6bc 27b7 d83d
000000f0: 5672 b33d 511d 6fbd 0fe3 9bbb bee5 db3c
00000100: b560 efbd 08d6 13bd 7fe0 2abd cc5d e9bd
00000110: afe8 cfbd acea a5bd c882 bebd 36ef d0bc
00000120: 7550 1bbe 6dd5 6fbd ab14 ad3d 872c 803e
00000130: 0c26 4cbb f9c8 b3bd 84df 423d 0893 133d
00000140: 68f6 aa3d c72e cc3d 403b 183e cdce eabd
00000150: ff55 8a3d 8c0e e3bd 228e d6bc a53b e2bc
00000160: faff f53c 0d7e 423d dab1 0dbe 1e12 9dba
00000170: ac3b 39bc 3bea debd b25d 013e bf8c 853d
00000180: 5a2e a1bc d42e dfbc 09d8 343f 7424 3abd
00000190: 1044 aa3e 87ef 70be fc7d 4ebe eeab 223d
000001a0: 9cf3 a43d 3c06 ecbc 3fc7 47be d35e a93e
000001b0: ef61 803e a4a1 21be 0fd8 9bbd 3f91 10bd
000001c0: cd9c e0bc 1de5 ef3d 374c d3bb 06ef 3e3d
000001d0: 2e4a a4bc fb82 ea3d 4aee 123e 16dd 08be
000001e0: 66f3 083d ac89 af3d 3d07 3abd 6054 d0bd
000001f0: 7604 4f3e a4e2 01be ec12 50be 756d 183e
00000200: 3db5 d8bd 9b61 70bd 7b3d bcbd b09b 3dbd
00000210: 22c8 263e 95e1 e3bc 5681 a93d 45fa 743c
00000220: 7299 8abc e55c a23d e05d c33b 910e b63d
00000230: 101f 8a3d aa01 e53b 49dc 87bd 6ac6 a33d
00000240: a6ed bcbd 645d f73d c571 643d 806b b73d
00000250: 1cbe 41be 879d ce3d e967 273e 0281 17be
00000260: 9561 1fbe 2c58 5c3d 863f 533d b4e4 29be
00000270: a7d3 1fbd 6f11 9fbd b025 163c 370c 493d
00000280: 28b8 b73d 810e 2fbe 1f40 5abe 0614 d23c
00000290: 8b67 bb3c 03b6 1b3e 3a58 0c3e 3f16 2a3e
000002a0: 4e0d 353e e6e4 b4bc dcf0 48bd f005 403d
000002b0: 6ad7 8a3e 3c82 4c3c 5cb3 733d 6425 f23c
000002c0: 2013 623e 83e9 283e ed7b 703d e418 13be
000002d0: a3ed 10be 7890 d4bb 6fed 073e 6f9c 343d
000002e0: 5ae7 ecbd 610e 2d3e 2e75 c73d 5646 0d3d
000002f0: d0cd ffbd 4d12 833d a4b3 653e 778d cf3d
00000300: 33a0 b13d 6716 d3bd df58 e2bb 2955 f7bc
00000310: b405 8abc f964 02bd 59aa ad3d 899e 5fbe
00000320: 4390 03bd 8026 12be 0be0 0b3e 0c2c 2e3e
00000330: ca6f e0bc 760f 5bbd 403d fc3d 9f0d 083e
00000340: 03fa 063e 4303 a03d b0ea be3d 4f00 d13d
00000350: 9f91 113e aa2f b5bc 692d 1fbe 527b cabd
00000360: af21 a6bd 9620 7fbd 7a6a de3d 35a5 1cbc
00000370: 317b 08be 3d8c eb3d 7f66 32be 790c 4b3c
00000380: 08e9 9cbd eeb9 cd3c a81f ffbd 465a 1cbd
00000390: eef4 db3d 595e 1ebe fc5c da3b 1c77 c33d
000003a0: 2e21 d7bd c57a 9e3d b4b6 123e 3e7c 35bd
000003b0: 7c19 863e c300 433e c11e b63d bc2e febc
000003c0: 0e1d d1bc cc01 483d 9db8 f03d 3b41 db3d
000003d0: 9b8b f0bd 27a6 e53d aae6 c73c 9ec0 c13d
000003e0: 4c97 0e3e 5852 0c3d 8640 80bd 1557 21be
000003f0: e473 1cbd e5f5 afbc 9ccb 033e e766 8abd
0.056230452 -0.40434366 -0.019548029 -0.99610454 0.15715054 0.02039058 -0.13208373 -0.12372054
0.10074351 0.14451788 -0.47181618 0.5138414 0.16365021 0.0034060597 0.016889466 0.0566469
-0.124200284 0.043374967 -0.20387287 -0.024673369 0.11711182 -0.21932794 -0.116800085 -0.21182236
-0.022145774 0.045095045 0.06779042 0.17798646 -0.10170617 -0.12807325 -0.21786872 -0.042028293
-0.074876145 0.0026295034 -0.09939656 0.14546032 0.11520877 -0.1046316 -0.17015457 0.013060212
0.097698 0.13775349 -0.12211256 0.019644307 0.027742025 0.13423792 0.1618216 0.028235704
0.09136988 0.052907936 -0.18293811 -0.110003665 -0.14258352 0.07812166 0.15433542 -0.07208482
0.049612332 -0.13190967 -0.024183316 0.105818085 0.08762042 -0.058377568 -0.004757292 0.026842948
-0.11688367 -0.036092788 -0.041718002 -0.113948435 -0.10151803 -0.08101401 -0.09302288 -0.02550469
-0.1516741 -0.058553148 0.08451208 0.25033972 -0.0031150607 -0.08778567 0.047576442 0.03602889
0.083477795 0.099698596 0.14866352 -0.11465225 0.06754684 -0.11086759 -0.026190821 -0.027616331
0.030029286 0.047483493 -0.13837376 -0.0011983549 -0.011305731 -0.1088452 0.12633398 0.06520986
-0.019675422 -0.02724401 0.70642143 -0.04544492 0.33255053 -0.23528872 -0.20165247 0.039714746
0.08054277 -0.028811567 -0.195096 0.33080158 0.25074717 -0.15784317 -0.07609569 -0.035294767
-0.027418518 0.11713622 -0.0064482945 0.04661467 -0.020054903 0.11450764 0.14348713 -0.13365588
0.033435248 0.08571181 -0.04541706 -0.10172343 0.20216545 -0.12684113 -0.20319718 0.14885505
-0.105814435 -0.058686834 -0.09191414 -0.046291053 0.16287282 -0.027817527 0.08276622 0.014952247
-0.016918872 0.079278745 0.0059621185 0.08889497 0.06744206 0.0069887238 -0.06633813 0.07996829
-0.09225015 0.1207836 0.05577256 0.08956051 -0.18920177 0.1008864 0.16348232 -0.14795306
-0.15564568 0.053795025 0.051574253 -0.1659115 -0.039020207 -0.07766997 0.009164259 0.049083915
0.08970672 -0.17095377 -0.21313523 0.025644314 0.022876522 0.1520615 0.13705531 0.16610049
0.17680857 -0.022081804 -0.049057826 0.046880662 0.27117473 0.012482222 0.059497222 0.029558845
0.22077608 0.16495328 0.058711935 -0.14364964 -0.14153151 -0.0064869486 0.13274167 0.0440945
-0.11567564 0.16900016 0.09739147 0.034490906 -0.124904275 0.06399975 0.22431809 0.10134404
0.08673134 -0.10307007 -0.006907567 -0.030191975 -0.016848423 -0.031834576 0.08479757 -0.2183782
-0.03212 -0.14272499 0.13659684 0.1700899 -0.027397055 -0.05348154 0.1231637 0.13286446
0.1318131 0.07813122 0.09322107 0.10205137 0.14215706 -0.022117455 -0.15544666 -0.09886803
-0.081118934 -0.062286936 0.108601525 -0.009560873 -0.13328244 0.11501358 -0.17421912 0.01239311
-0.07661635 0.025113072 -0.1245721 -0.03817203 0.10740076 -0.15465678 0.0066639166 0.09544203
-0.105043754 0.0773826 0.14327508 -0.04430794 0.26191318 0.1904326 0.088925846 -0.031028144
-0.02552655 0.04882984 0.11753962 0.10705801 -0.11745378 0.11213332 0.024401981 0.09460567
0.13924903 0.034258217 -0.06262307 -0.15755875 -0.03819646 -0.021479556 0.1287064 -0.06757908

stat_predictor.cond_mlp.0.bias f4 [16]
00000000: 7e49 e1bd 9caf cc3d 3f7a babd 9e37 5f3d
00000010: 1ba4 5dbc 0491 1a3e 8025 79bd 3dbc b9bd
00000020: 59b4 5bbc 6721 203d 448e 723d d55b 27bd
00000030: 5909 89bd 99ef c0bd 0e16 103e a000 0bbe
-0.11000346 0.09994432 -0.09105348 0.0544964 -0.013527895 0.15094382 -0.06082678 -0.09069107
-0.013409697 0.039094355 0.059217706 -0.040859062 -0.06691236 -0.094206996 0.14070913 -0.13574457

stat_predictor.cond_mlp.2.weight f4 [16, 16]
00000000: 1442 e0be 43be 73bc 0572 483e 71d9 bdbe
00000010: 1cbe 01be b6b4 e2bb dbfd 813e bb1f 903e
00000020: 32ba 843d dbfb d6bd 8c29 2e3e 1052 5bbe
00000030: 7905 93be 889e 7e3d fe8c 86bd 5104 e73c
00000040: ec27 fb3e dfbd 433d b4f9 71bd 4851 36bd
00000050: d7af 26be 43dd f83d 9cc7 0ebe 07eb d53c
00000060: 0628 98be bcfb 89bc 5d3e 0c3e 0d50 d53e
00000070: ecf8 0b3e cd31 49bd f61d a23e ee60 f23d
00000080: 52dc 823d a2d7 32bd 4c63 e6bd 907f 2a3e
00000090: 2865 80be 620e 8c3d 5d36 663d 7424 1c3e
000000a0: 2be6 41bd 4cee 2abe 557d 0dbe caec ba3e
000000b0: 2756 573e a191 33bd 977e 813e 31cb 023d
000000c0: e359 e8be 2251 723e ba7b 4a3e 35ac c9bc
000000d0: d5c8 1b3e e5a6 843e 42fd 423e ac85 03be
000000e0: 449e b43d eb1c 94bd 3eb7 36be 896a 54be
000000f0: f407 54be 2bbb 843e 90a1 26be 982e bc3d
00000100: 8196 023d 05b0 383e 6430 c93d e0de 77be
00000110: 76b6 483e 1a42 43be 7a6a 5a3d 4e53 083d
00000120: 5089 743e 30be e23c 832e 573e 61df efbe
00000130: 4cc4 d73d c127 823e db90 6ebe 6dda 953e
00000140: e1ff 553e 15e9 523e e488 38be 7d92 203c
00000150: 6acb 32bd a220 51be 8343 82bd 33f2 4cbd
00000160: 5783 9dbe 0efe 62be c39b fa3d de3b 4b3e
00000170: 3d98 4d3e 005e cfbd 9cc3 d6bc cac4 0fbe
00000180: 5c3b 0abd d56e 60be 9a00 35be 0e32 a03e
00000190: f84a 5dbe 6d37 96be cccd 6ebe 4763 323c
000001a0: d0c9 8abe 5494 4b3c 12f8 3b3d 4f32 a63e
000001b0: 4a7d 30bd 8701 8fbe f4c8 4a3e 6d41 7dbc
000001c0: 42e7 8d3c 3f2e 5b3e 4d15 76be 3fc4 f13d
000001d0: e989 b3bd da00 6cbe 7a2a 37be fd20 13bb
000001e0: 9c18 c4bc 7109 a4bd f6b5 073e ee89 0e3e
000001f0: ebaf 81bd e46b 13be f3b3 073e 4e53 a2be
00000200: ceb7 ce3e 870e 27be 4a47 89bd bb7d b13e
00000210: 1d2c dabd 8d1c 93be d5ec 1a3e 5dcb 15be
00000220: beb8 2fbe 08e4 2bbc e50d 33be 39a1 b03e
00000230: 46ff 4e3c 3627 79be dbae 5c3e 7995 9fbe
00000240: 5d63 823e 118e a8ba b555 f3bd 455b 1a3e
00000250: 9736 2dbe 2262 bfbd 7bde 20be 2d2e 753c
00000260: c31e 93bd 1e3b f8bd d0b6 debd 09d2 df3d
00000270: acd5 553d be49 eebc 5109 5e3e fc37 8cbe
00000280: 393e f0be 8f64 e2bd a15a 87be 498d bf3c
00000290: 4f5b 4cbe d29c 3b3e 79f3 1dbc 2acd 39bc
000002a0: c584 32be 63e2 5b3e e712 7d3e 3d4e e1be
000002b0: e5fa 50be 529a b03d 0f08 7cbd 4a01 24bd
000002c0: 11e3 123c a1e2 5a3e 5287 80bc b6c3 353b
000002d0: d23e 2f3e 8c91 fcbd 7b03 373e cdfe 83be
000002e0: e4f8 89bd 8824 8cbe a5ee 2ebe 614b ce3e
000002f0: 8103 b7bd e338 adbe 34ae 8d3e 3a73 8dbe
00000300: 1577 0a3e 7b5f 203c 4ff5 61bc 3895 d63e
00000310: 187c 5fbd 30a3 a6bd be75 5d3d c98f c9bd
00000320: 21ac eb3d 1668 67be ab1a bcbd ac47 cd3e
00000330: 3e3c 803e 25ba 42bd 2631 973e ee4e 003e
00000340: bba1 0c3e 3525 23be 8ddf bebc 0d46 a53e
00000350: 0bab 883e 46ab 34be 2d3b 393e 3864 9cbd
00000360: 7153 043e 0380 36be 3b3f 97be 205f 5e3e
00000370: 33ec 873e 461d ff3d a325 793e de4a f2bc
00000380: 8d07 bebc 2993 7cbe 1025 5d3e fb4a 533e
00000390: d7f3 9cbc 452e 75bd 3203 1d3e 9bb8 373e
000003a0: b663 39bd c400 9dbd 9c11 de3c 718f b03e
000003b0: 068f 533e 8230 bdbe 363b 823e f5b7 a9bd
000003c0: 278a a8be a80b 84bd eaa4 38bd 01d8 c9be
000003d0: 3041 60be d2e6 8a3e d7c5 2abe b5d9 1d3e
000003e0: 7c75 e23d 3827 f5bd cc5d e93d c574 8cbd
000003f0: 49af 2ebd 99ee ccbc fc99 82be 823a 053e
-0.43800414 -0.014876905 0.19574745 -0.37079957 -0.12670177 -0.006918515 0.2538899 0.28149208
0.064808264 -0.10497256 0.17008036 -0.21418023 -0.28715113 0.062162906 -0.06569861 0.0282003
0.49053895 0.047788497 -0.059076026 -0.04451111 -0.16278015 0.12151577 -0.13943332 0.026113046
-0.29718035 -0.01684367 0.13695665 0.41662636 0.13669175 -0.04911976 0.31663483 0.11834894
0.06389679 -0.043662675 -0.11249408 0.16650224 -0.25077176 0.06838681 0.05620419 0.15248281
-0.047338646 -0.16692466 -0.13817342 0.3650878 0.21028958 -0.043840054 0.25291893 0.03193206
-0.45381078 0.23663762 0.1977376 -0.024618248 0.1521333 0.2590858 0.19041923 -0.1284396
0.08819249 -0.07232078 -0.17843339 -0.20743765 -0.20706159 0.25924048 -0.16272569 0.091885746
0.031881813 0.18035896 0.09823683 -0.24206114 0.19600853 -0.19068184 0.0533242 0.03328257
0.23880506 0.02767858 0.21013837 -0.46850112 0.105354875 0.25420955 -0.23297445 0.29268208
0.20898391 0.20596726 -0.1802097 0.0098005505 -0.043651022 -0.20422605 -0.06360533 -0.050035667
-0.30764267 -0.22167227 0.122367404 0.19847056 0.20077606 -0.10125351 -0.02621632 -0.14039913
-0.033748016 -0.21917279 -0.1767601 0.3128819 -0.2161063 -0.29339162 -0.23320693 0.010887927
-0.27107096 0.012425501 0.045890875 0.32460257 -0.043088235 -0.27930853 0.1980322 -0.015457493
0.017322186 0.2140436 -0.24031563 0.11805009 -0.08766539 -0.230472 -0.17887297 -0.0022450082
-0.023937516 -0.08009613 0.13253006 0.13919804 -0.06332382 -0.14396626 0.13252239 -0.3170418
0.40374607 -0.16314135 -0.067030504 0.34666237 -0.10652945 -0.2873272 0.15129407 -0.14628358
-0.17160317 -0.010491379 -0.17485769 0.34498003 0.012634104 -0.24331364 0.21551077 -0.31168726
0.25466433 -0.0012859722 -0.11881582 0.15073879 -0.16915356 -0.09344889 -0.1570987 0.014964622
-0.07183602 -0.12120651 -0.108747125 0.10928733 0.052205727 -0.029087897 0.21683241 -0.27386463
-0.46922472 -0.11054336 -0.26436332 0.0233828 -0.19956706 0.18321541 -0.009640568 -0.011340419
-0.1743346 0.21473078 0.24714242 -0.44005004 -0.20408209 0.08623184 -0.061531123 -0.04004029
0.00896527 0.21375515 -0.015689526 0.002773506 0.17113808 -0.12332448 0.17872421 -0.25780335
-0.06736925 -0.2737162 -0.17083223 0.40291885 -0.08936215 -0.33832464 0.2767197 -0.27626973
0.13521989 0.009788389 -0.013791396 0.4191072 -0.054561704 -0.08136594 0.054067366 -0.09841878
0.1150744 -0.225983 -0.09184774 0.40093744 0.2504596 -0.047540803 0.29529685 0.1253011
0.1373357 -0.15932162 -0.023299957 0.32280007 0.26692995 -0.1764346 0.1808898 -0.07636303
0.12922455 -0.1782227 -0.2954043 0.21715975 0.26547393 0.12456755 0.24330764 -0.029576715
-0.02319696 -0.24665512 0.2159617 0.20634072 -0.01915924 -0.05985858 0.1533325 0.17941515
-0.045261107 -0.07666162 0.027108006 0.34484437 0.20660028 -0.3695107 0.254358 -0.0828704
-0.32917902 -0.06447536 -0.04507915 -0.3942261 -0.21899867 0.27129227 -0.16677032 0.1541508
0.110575646 -0.11970371 0.113948435 -0.068582095 -0.042647634 -0.025016116 -0.25508106 0.130106

stat_predictor.cond_mlp.2.bias f4 [16]
00000000: a6ef 733c 8e7a 43be 3833 3ebe 9de5 15bd
00000010: 5968 263e 7203 56bd 8fe5 1abe b15e cabd
00000020: 8527 27bd 315e 76be 84cb 163e 9d4a 99be
00000030: 9ec5 90be ceb5 9ebc 4805 00bd b054 0dbd
0.01488868 -0.1908972 -0.18574226 -0.03659593 0.16250743 -0.05224938 -0.15126632 -0.09881342
-0.040809173 -0.24059369 0.14726073 -0.29939738 -0.2827577 -0.0193738 -0.031255037 -0.034504592

stat_predictor.stat_mlp.0.weight f4 [16, 16]
00000000: abda 0eba 7793 22bd c8f0 1abd 05f5 b13d
00000010: 7688 803e 7c11 a3be 3c06 153e 3069 85bd
00000020: d85a 85be 5eba ac3d 5408 5f3d 9657 8abe
00000030: 720a 07be c955 533c ae1c 45be fc3b 2c3e
00000040: cc01 543e e34f 2cbe ad36 9ebe 4dfc 053e
00000050: a26f 993d 9929 8c3d a8cb b3bd 2c54 6abe
00000060: b701 933d dd8e 9bbd d986 753e 2a99 9fbd
00000070: e2ff ec3c 4c35 68bd 2c8f 62be 4f16 903e
00000080: e74a 153e 0661 88be d85a ee3d d9f9 ae3e
00000090: 305e 07be 75bc 06bd 839b 5fbe 5b1e 57be
000000a0: f507 16be 93ef 53be 4f98 763d f0b7 e6bd
000000b0: 8bf2 a8be 4773 3fbb a84e 35be 49bf 123e
000000c0: 3bae d3bd b277 d8bd 9ea2 c13d c038 3b3e
000000d0: 1ee8 ce3d 0e7f cabc b54c 8dbd 45a9 513e
000000e0: 21c2 273e 298b 683d 4a3e d33d c6d1 833e
000000f0: 435a dd3d 0127 f73d 2e02 ddbd 687f 52be
00000100: 969a 8fbe cb59 cebd 3ebe 24be 43ca 253c
00000110: a4a0 91bd 7740 0fbe 38a4 713e 8d06 20be
00000120: 35d8 003e bcc3 533e 4d23 e33c 0c62 00be
00000130: d497 983d 393c 09bd 22cc 723d 46c5 d3bd
00000140: 3d74 1ebd 4bfd 47be b75d f5bd 6906 16be
00000150: 12de 643e e779 8cbe f2d0 79be 3000 c0bb
00000160: a5e3 1ebe a312 2abe 7837 863c a223 ebbd
00000170: 812a 78bd 7f41 88be addd a53d 333d e2bd
00000180: 1b32 3dbe fb46 2bbe 44ed 17bc fdad 303d
00000190: 7abb 103d 2273 683e 5cdb 81bd 65df 723e
000001a0: 2606 29be 6bd4 9e3e 6f9d 9abe 9155 9e3e
000001b0: 8d27 3d3e 4008 253e f931 11be 5b35 aebe
000001c0: d4f7 1bba f026 95be 7378 8dbd ac50 003e
000001d0: 3f9b f7bd 44ae 90be 7c58 62bd 25be a1be
000001e0: 5be0 723d b7c9 3ebd eaac 903e d677 b2bd
000001f0: bc2f c13d 4234 6ebe 171c 84be c858 403e
00000200: 0f94 f4bd 9bcd 083d c6b1 ce3d e431 5bbe
00000210: 7b63 953d 7f49 51bd 8d57 493e 9340 0fbe
00000220: b528 87bd 6e59 143e ce4c c33d 153e da3d
00000230: cb29 9b3d 84da b53d a85f 36be 4cf1 1fbe
00000240: 5b2b a4be ae98 9bbd e045 23be eb03 86bd
00000250: 0d5d 18bd 2e7e 573e 98f8 cb3d 38dd 1b3e
00000260: b2c8 873e 90b4 273e 2c1a 9dbd 642f 75bd
00000270: cd49 093e a645 173e b5b3 92be 27fb 543d
00000280: 17ac f63d 8d84 623e 43ab 25be b320 76be
00000290: 0445 79be d99d 8b3d cda1 1c3d de5c 0ebe
000002a0: 61df 42be f038 843e fb09 7cbd 8a14 1f3e
000002b0: 6a64 1c3e 064a d93d 5061 3e3d dc00 2abd
000002c0: 38d6 0bbe 5547 62be 005e fcbd 1183 473e
000002d0: 9686 a53e 7657 2abe 1800 1cbe 1ac0 e2bd
000002e0: a5b9 45be 49ba 093e b391 14bd 4959 ca3d
000002f0: f914 3b3c eab6 cfbd 8616 91be fbf9 943e
00000300: fd65 eebd b49f b53d 09de 033e 1cec febd
00000310: f800 083e 515d c83c 382c 23bd 9168 ef3c
00000320: 3572 5f3e 3211 213e aa7c 23be 3991 a3bb
00000330: 89a1 11be 9684 533e 96c2 753e b277 343e
00000340: 7a6d a2be 4529 773e 68ec 2a3e 973a 8bbe
00000350: e3b0 d83d 8733 533e 9158 21bd a072 683e
00000360: d4aa 303e f848 9b3d a129 03bd d2a0 813e
00000370: 238d 4f3d e8fd 173e 00b0 d13d 5c9c 453c
00000380: 7ba3 b33d 3387 2dbe 67f9 81be c479 413e
00000390: 499c 0a3d c67b 773e 1613 b13b bd0c 7d3e
000003a0: f48f 0cbe 6b92 8f3c f35f 9e3c 25c5 c73d
000003b0: a9b8 7fbd 3ae3 2ebe 3e68 6bbc 4e4c 37be
000003c0: f4f8 773e 2e2f 5a3d 740c acbd 8009 febc
000003d0: 8ea6 803d 635d 93bc dfbe 0b3e 47a3 b5bd
000003e0: 0813 94be d98c 3a3e 48b8 55bd e20b d53d
000003f0: 8f45 25be b11d 1dbe 5742 31be ee9e 223e
-0.0005449454 -0.039691415 -0.037827283 0.08689312 0.2510411 -0.31849277 0.1455316 -0.065142035
-0.2604587 0.08433984 0.0544513 -0.27019948 -0.13187578 0.012898871 -0.19249222 0.16819757
0.2070381 -0.1682735 -0.3090109 0.13084526 0.074919954 0.068438716 -0.08779079 -0.22883672
0.071780615 -0.075956084 0.23977222 -0.077928856 0.028930608 -0.056691453 -0.22124928 0.2814202
0.14579354 -0.26636523 0.11638421 0.34174994 -0.13219523 -0.03289457 -0.21836667 -0.21007673
-0.14651473 -0.20696859 0.060203847 -0.11265552 -0.32997546 -0.0029212998 -0.17705786 0.14330782
-0.10335966 -0.10569705 0.09454845 0.18283367 0.101028666 -0.024718788 -0.06899396 0.20474727
0.16382648 0.05677334 0.10314615 0.25745982 0.10808232 0.12067986 -0.10791431 -0.20556414
-0.28047627 -0.100757204 -0.16088197 0.010119024 -0.07110718 -0.13989435 0.235978 -0.15627499
0.12582476 0.20680135 0.027726794 -0.12537402 0.07450834 -0.0335047 0.059276707 -0.10340361
-0.038685072 -0.19530217 -0.11980765 -0.14650883 0.22350338 -0.27436754 -0.24396113 -0.0058593974
-0.15516527 -0.16608672 0.016383871 -0.11481406 -0.06058741 -0.2661247 0.08098922 -0.11046829
-0.18476145 -0.16726296 -0.009272877 0.04313468 0.03533504 0.2270017 -0.063406676 0.23718031
-0.16506252 0.31021437 -0.30198237 0.30924657 0.18472119 0.16116428 -0.1417922 -0.34025082
-0.000594971 -0.2913127 -0.069077395 0.12530774 -0.12090158 -0.28257954 -0.055260167 -0.3159038
0.059295993 -0.04657909 0.28256923 -0.08714263 0.09432933 -0.23262122 -0.2580268 0.18783867
-0.119423024 0.033399206 0.10092501 -0.2140575 0.07294365 -0.051095482 0.19662304 -0.13989477
-0.06599561 0.1448724 0.09536134 0.106563725 0.07576331 0.08879569 -0.17809927 -0.15619391
-0.32064328 -0.07597481 -0.15944624 -0.06543716 -0.037198115 0.21044227 0.09959525 0.15221107
0.26520306 0.16377473 -0.076710075 -0.05985965 0.13407059 0.14772663 -0.2865273 0.05199733
0.12044542 0.22120877 -0.16178612 -0.24035911 -0.24342734 0.068172164 0.038240243 -0.13902614
-0.19030525 0.2582469 -0.061532956 0.15535179 0.1527268 0.10609822 0.046479523 -0.041504726
-0.13655937 -0.22097524 -0.123226166 0.19483592 0.32329243 -0.16634926 -0.15234411 -0.11071797
-0.19309099 0.13449968 -0.036271762 0.09880311 0.0114185745 -0.1014231 -0.28337497 0.2909697
-0.116405465 0.088683516 0.12877668 -0.12447378 0.1328162 0.02445856 -0.039837092 0.029224666
0.2182091 0.15729216 -0.15965524 -0.004991677 -0.14221777 0.20656046 0.2400001 0.17623785
-0.3172415 0.24136837 0.16691744 -0.27193138 0.105806135 0.20625125 -0.039391104 0.22699976
0.17252666 0.07582277 -0.032022122 0.2531801 0.050671708 0.14842951 0.102386475 0.012061205
0.08771416 -0.16946106 -0.2538559 0.18894106 0.03384045 0.2416831 0.0054038865 0.2471189
-0.13726789 0.017525872 0.019332862 0.09754399 -0.062431965 -0.17078868 -0.014368115 -0.17900202
0.24216062 0.05326765 -0.08400813 -0.03101039 0.06281768 -0.017988866 0.1364703 -0.08869033
-0.2892077 0.18217792 -0.052177697 0.10402657 -0.16139816 -0.15343358 -0.17310463 0.1588094

stat_predictor.stat_mlp.0.bias f4 [16]
00000000: f4ea 943e 8f9f 9a3e 92c6 123e a16c 43be
00000010: 0de4 613e 7128 3c3e fd8c f0bd d6b9 b6bc
00000020: d1cf 53be 3f99 2a3c c695 813c fcee 593e
00000030: 53fb 31be c77c d8bb 7239 f5bd b8e8 163b
0.29085505 0.3019986 0.14333561 -0.19084407 0.2205965 0.18374802 -0.117456414 -0.02230541
-0.20684744 0.010412513 0.015818488 0.21282572 -0.17381029 -0.0066066715 -0.119738474 0.0023026895

stat_predictor.stat_mlp.2.weight f4 [2, 16]
00000000: a0e7 1fbd fb9c dabd 7e96 1c3d 6be7 413e
00000010: eb13 573e 816f 073e c005 01be 96b7 893b
00000020: d232 0c3e fa9b dc3c 57b0 583e f378 85bd
00000030: 7814 6dbe 7362 7bbe f10a c8bb b33d ff3d
00000040: 5b7b 5c3e f68e 923e 71a0 6e3e d150 60be
00000050: cef4 42be 0b09 8f3e e6f6 6bbe e5b4 1f3e
00000060: 1cb6 91be 8a19 94be 97d7 7cbe 763d 6b3e
00000070: bac7 89be ebd0 97be 30a1 e83c a004 333e
-0.039039254 -0.10674473 0.038229458 0.18935935 0.21003692 0.13226129 -0.1259985 0.0042027934
0.13691261 0.026929844 0.21161018 -0.0651721 -0.2315234 -0.24549274 -0.00610482 0.1246294
0.21531431 0.28624696 0.23303391 -0.21905829 -0.19038698 0.27936587 -0.23043403 0.1559635
-0.2845925 -0.28925735 -0.24691616 0.22972664 -0.26910192 -0.2965158 0.028397173 0.17482233

stat_predictor.stat_mlp.2.bias f4 [2]
00000000: 7f1c 3dbd bb6a 3dbe
-0.046169754 -0.18497746

unet.init_conv.weight f4 [8, 1, 3]
00000000: 53be e83e e026 9c3d d9b1 8dbd 802f 413f
00000010: 7fee 0c3e ab58 a53d 9481 b9bd 4217 833d
00000020: ed42 be3d 0dc0 22be a868 57bf 0a6e f4bd
00000030: 7e4b 083e c81f e5be 6e13 5dbe 40e4 c2be
00000040: 45c4 b93e ccb7 34bf b7e6 01be 8ade 80bf
00000050: d4be 313e ed98 f33e 83c7 353e 92a9 163f
0.45457706 0.07624602 -0.069186874 0.75463104 0.13762854 0.08073553 -0.09057918 0.064009205
0.09290109 -0.15893574 -0.8414407 -0.11935051 0.13310048 -0.4475081 -0.21589443 -0.38064766
0.36282554 -0.7059295 -0.12685667 -1.0067914 0.17357951 0.4757761 0.17751889 0.58852494

unet.init_conv.bias f4 [8]
00000000: f6c3 e43d 84ee febc f53d 9e3e 7b90 a13e
00000010: b965 a4be c89d 3f3f 1f3d aabe 1b4d d93d
0.11170189 -0.031119592 0.30906644 0.31555542 -0.32108858 0.7485013 -0.33249757 0.1061041

unet.time_mlp.0.weight f4 [64, 16]
00000000: 8f23 30bd 0684 7a3d 21b8 a6be c939 a6be
00000010: 711e 5dbe ff8e 3abe 44dd babe 729b 9bbd
00000020: 9e3b 953e ff1e c53e 0ef2 b23e e14b 05be
00000030: fbce 09be 8be7 2bbe 5144 9e3d f65c 913e
00000040: df2f 52be ae4b 903d 7834 8abe f8ae 873e
00000050: 7883 b53e 2777 923e 2d39 81bc 6589 6b3e
00000060: 855a aabd e677 653e c873 19be cffa cbbc
00000070: b0e8 21be a149 233e 020e 5f3d 46e7 673e
00000080: 461d 9b3d 74de dbbd 6cb5 753e e566 b53c
00000090: 7bb2 8abd 2ac6 21be 62d4 c2bd abf6 32be
000000a0: 5cdf b63d ebda 95bc f5aa d9bc f4b8 763e
000000b0: d999 82bd b863 6bbe 4a74 6bbe 3351 1d3e
000000c0: 7198 883c 2c4d 51be 8cb9 1e3e d10a f73d
000000d0: bedb d83b f112 18be c553 c2bd daea ca3c
000000e0: fa00 37bd 4d45 7fbd f4ec 963d fedd 193d
000000f0: a279 a0bd 4bd7 1fbe 2a44 963d 6770 61be
00000100: 6b89 603d 84de 243d bd3d 80be 89f8 c83d
00000110: 7fe9 b53d 1768 b03e c76e f33e 3ae3 a43e
00000120: 049c 91bd dc52 543e 3880 22be cd6a 98be
00000130: 2fe7 06be 4ebd 123e c2d1 853e 3575 493e
00000140: 63e7 773e c68c 88bd e298 67be 7a96 9ebe
00000150: dad7 87bd 0e39 9dbe 2720 23be 0e6d aebe
00000160: ce3c 223e c745 6f3c 8126 c83e c95b 4c3e
00000170: 6fd7 eabd 64b1 133e ff44 22be b215 33be
00000180: 3695 38bc cb17 80be bfda c8be 4f5a 743e
00000190: 7b31 a13e dd8d c23e 430b 1b3d 6888 4e3e
000001a0: 63d0 473e 48f1 28be 9909 14be b89a 073e
000001b0: 18a9 1bbe 691d 763e 8579 453d fae4 c6bd
000001c0: 2861 843c 2a33 103e 7d1c 833e 2abe 8bbe
000001d0: bf47 dabd 7477 13be 0faa fabd 3e3d 013d
000001e0: a8d0 a6bd d955 63be b6d6 42bd ed4e 9cbd
000001f0: 08b1 443e ddb3 843e 147f f83d b191 83bc
00000200: baac 3f3e 4087 bb3b 1288 1a3e 4a4b 46bd
00000210: 8498 f03c fec9 543d 2f3d d1bd 6bd1 a9be
00000220: 492d 8dbd 14b6 3f3e e7d4 243e 4508 813d
00000230: 42de 4f3e 5cc0 09be 2c7b 74be e4ec 5bbd
00000240: 596f 39be 39dd bb3d 4be9 bfbe 6692 6a3d
00000250: 2735 1dbe 5d0e 5dbd eea9 5dbd b0d2 413e
00000260: 0960 a5bd c19f 6bbe f396 673e 9651 89be
00000270: 24f2 203e bd54 00be b20d 083e 4332 b9bd
00000280: db48 033e d665 923d cead 4e3e 3a2e 17be
00000290: 5fd9 b5be b5b9 bfbc 58a8 abbe 978f 40bd
000002a0: 98a6 c73d 7573 f1bc 3dfa f23e fcf7 8f3e
000002b0: 8173 bfbd c161 98bd 3b21 b7bd 79d8 5e3b
000002c0: 043d 64bd 3ec5 cbbd 23fd d9bd 1bb8 fcbd
000002d0: c96f 313e 2563 283e 6ecf 283d 56f7 803e
000002e0: 068f c83d 4085 d73d d6af 28be 7818 45be
000002f0: 1017 91be 3540 7abd 351b e93d f6de 82be
00000300: 9f17 603d a737 e03b bcad 8fbb 52a1 973e
00000310: 9bb7 cf3e 4615 d83e 7372 dc3e eab3 a83e
00000320: 8a0b 513e cc32 f63d eb5e c9be a773 2bbd
00000330: ac58 933d d1c9 a7bd 0bac 273d b16e 9c3e
00000340: 79db 76bd 1e8b 123e 8093 cabc 9ed5 cb3d
00000350: dfe6 0bbe 74cd 8fbd 53f7 0b3d 2681 83be
00000360: 2459 12be c67f 18be a838 833e 8f25 753e
00000370: 0f7d 6d3e 5b09 7c3d 9a20 08be f60d aa3d
00000380: 2fd3 a9bd 79c3 753d 7742 20bf 7c02 bf3e
00000390: e64b d83e 6ec2 0e3f b378 ad3e 4c0e 063f
000003a0: d47c 3cbe 65f2 27bd c383 9ebe 4034 88be
000003b0: bc7f 7d3c cf1b 2d3e 51c7 8f3b 4088 2d3e
000003c0: 5102 26be 8bf7 bd3d f8c1 883e 64d2 82bc
000003d0: 33a9 a93d ca29 70be 55be f13d 0904 63bd
000003e0: 8ede cabc 3a71 15be d8c3 05be 6e6f 8f3e
000003f0: f8d7 023e 8249 633e f044 1e3e 2d69 ebbd
-0.04300266 0.061161064 -0.32562354 -0.32465962 -0.21593644 -0.18218611 -0.36496937 -0.07598008
0.29147047 0.3850021 0.34950298 -0.13017227 -0.13457863 -0.16787545 0.07727874 0.28391236
-0.20526074 0.07045685 -0.26993155 0.26500678 0.35451865 0.2860653 -0.015774334 0.2300163
-0.083180465 0.22409019 -0.14985573 -0.024899868 -0.1581142 0.15946056 0.05445672 0.22646818
0.07573943 -0.10735789 0.23994988 0.02214379 -0.06772324 -0.1579825 -0.09513165 -0.17476909
0.08929321 -0.018292865 -0.026570776 0.24093992 -0.06377 -0.22987258 -0.2299358 0.15363006
0.016674252 -0.20439595 0.15500468 0.1206261 0.006617992 -0.14850976 -0.09488634 0.02477019
-0.044678666 -0.06232195 0.07369414 0.037565224 -0.078356996 -0.15609471 0.0733722 -0.22015534
0.054818552 0.04025127 -0.25047103 0.09813029 0.088824265 0.34454414 0.47545454 0.3220461
-0.07109836 0.20734733 -0.15869224 -0.29768983 -0.13174127 0.14330027 0.26136595 0.19673617
0.24209361 -0.066674754 -0.22616914 -0.3097418 -0.06632967 -0.30707592 -0.15930234 -0.34067577
0.15843508 0.014604039 0.39091876 0.19956888 -0.11466872 0.14423138 -0.15846632 -0.17488745
-0.011266043 -0.25018153 -0.3922939 0.23862575 0.31483063 0.37998858 0.037852537 0.20169222
0.19513087 -0.16498291 -0.14456786 0.13242614 -0.15201223 0.24034657 0.048211593 -0.097116426
0.016159609 0.14082018 0.25607672 -0.2729352 -0.10658216 -0.14401037 -0.12239467 0.031552546
-0.08145267 -0.22200717 -0.047568046 -0.076322414 0.19208157 0.25918475 0.12133613 -0.016060682
0.18718234 0.00572291 0.15090969 -0.048411645 0.0293696 0.051950447 -0.10216748 -0.33167586
-0.06893403 0.18721801 0.16096841 0.063004054 0.20299628 -0.13452286 -0.23875111 -0.053692713
-0.18108882 0.09173054 -0.37482676 0.057268523 -0.15352307 -0.053968776 -0.054117136 0.18928027
-0.08074958 -0.2301016 0.22616176 -0.26820058 0.1571737 -0.12532325 0.13286474 -0.0904279
0.12820761 0.0714833 0.20183489 -0.14763728 -0.35517403 -0.023403982 -0.33526874 -0.047011938
0.09748572 -0.029474 0.47456542 0.28118885 -0.093482025 -0.0744052 -0.08941885 0.003400354
-0.05572225 -0.0994973 -0.10643985 -0.12339803 0.17327799 0.1644407 0.041213445 0.25188702
0.097929046 0.10523462 -0.16473326 -0.19247615 -0.28337908 -0.06109639 0.113821425 -0.2556073
0.054710027 0.006842572 -0.0043847244 0.29615265 0.40569767 0.4220373 0.43056068 0.32949764
0.20414558 0.120214075 -0.3933023 -0.04185834 0.07194647 -0.0819279 0.040935557 0.305532
-0.0602679 0.14310881 -0.024728537 0.099528536 -0.13662289 -0.07021609 0.034171414 -0.2568447
-0.14291817 -0.14892492 0.25629163 0.23940109 0.23192237 0.06153236 -0.13293687 0.08303444
-0.08292233 0.06000087 -0.6260142 0.37306583 0.42245406 0.55765426 0.3388115 0.52365565
-0.18406993 -0.04100265 -0.309599 -0.26602364 0.015472349 0.1690514 0.004387774 0.16946507
-0.16211821 0.09275731 0.26710486 -0.015969463 0.08284225 -0.23453441 0.11803881 -0.05542377
-0.024764325 -0.14593974 -0.1306299 0.28014702 0.12777698 0.2219601 0.15455985 -0.1149467

unet.time_mlp.0.bias f4 [64]
00000000: 5335 aebc ff37 0f3b 8460 033e e9a0 26be
00000010: 03c5 24be f028 3cbe 412b 053e 308c 583e
00000020: 9266 19be 8535 a4bb 9c5e a63d 3870 513e
00000030: 11c0 e13d 9da6 58bd b456 983d 8392 643d
00000040: 71d9 9f3d 33e4 95bc 7eaf 6dbe 5c1b 25be
00000050: b602 afbb 9916 743e 414e 36be f3c6 2a3e
00000060: c547 5abd 6e17 80bd 2267 28be ae28 4e3b
00000070: 21a4 763e 5c97 133e 7320 333e ff00 813e
00000080: 0e87 7bbd 8d65 7e3e b3a7 283e e28d 22be
00000090: f470 793d 372c c53c 5b55 07be 3a11 a2bc
000000a0: 7279 91bd 1afd 34bd fa06 8d3e 6de8 d2bd
000000b0: 3667 063c 0de8 c0bd 7e61 473d 9b0c 45ba
000000c0: 595e 50be cbf8 35be 755d 053d b3f8 41be
000000d0: 4fdc a63d ec37 25be ad55 3d3e 7ae7 85be
000000e0: 7e33 0a3e 7558 663c 4631 94bd 7b7b 3f3e
000000f0: 0911 8cbc c09a abbd ea3b e53d d10c 23bd
-0.021265661 0.0021853445 0.12829787 -0.1627232 -0.16090779 -0.18374991 0.13004781 0.21147227
-0.14980534 -0.005011263 0.08123514 0.20452964 0.11022962 -0.05289327 0.07438412 0.055803787
0.078051455 -0.01829729 -0.23211476 -0.16123718 -0.0053408993 0.23836745 -0.17803289 0.16677456
-0.0532911 -0.06254469 -0.16445592 0.0031457352 0.24086048 0.14413208 0.17492847 0.25196072
-0.061408095 0.24843426 0.16470222 -0.15874436 0.060898736 0.024068935 -0.13216154 -0.019783605
-0.07103242 -0.04418669 0.27544385 -0.10298238 0.008203318 -0.0941926 0.04867696 -0.0007516832
-0.20348491 -0.17770688 0.03255983 -0.18942527 0.08147489 -0.16134614 0.18489714 -0.26153165
0.13496205 0.014059176 -0.07235961 0.18699448 -0.017097967 -0.083791256 0.11193068 -0.039807145

unet.time_mlp.2.weight f4 [16, 64]
00000000: fc89 363e f3fc 75bd 4ccb 123d 21ec a03d
00000010: ee99 8dbd bb08 103e 7c01 5fbe e1b6 82bc
00000020: e991 e23d 64f7 c1bd 67b6 ff3c 888a 17bd
00000030: e2c1 34bd 94f8 683d 94c1 3dbe dc4f a03d
00000040: b70a 61bd 798e 73be a5fd 953c bc6d ae3b
00000050: cb1f 77be 1d19 41bd d4ac 773d e773 0dbe
00000060: bb8f 40bc 52db b1bc 9d4f 6fbd 8fab b33d
00000070: 13c5 41be 8a77 d73d 03ba 07be 4db5 95bc
00000080: 8119 0bbd cf47 3dbe 64c9 dbbd 79c2 603e
00000090: cf6c f33d 8ad0 bebd e9f9 30bd 4bc6 ca3c
000000a0: ecd3 ccbc 60a6 fdbd 80ff 503d 1528 a83c
000000b0: fee0 d3bd fb45 0b3b 6c5d e6bd 306e 80bd
000000c0: 3ec4 853c a6f5 e7bb ef23 983d 3775 1bbe
000000d0: acce 49be 244a 953d 81b0 bcbd 7cb6 263e
000000e0: b875 d5bd 9809 1e3e a546 62be 0f03 963c
000000f0: c178 27bd 909f 81be 1178 863b d31b e6bc
00000100: cef5 bc3d 2585 21be 6be6 233e 6454 7bbb
00000110: b697 3cbe 6fee 153e 0166 a9bd 1b7a 853d
00000120: bf41 0b3e c578 3fbc 7460 953e 7f3f ad3d
00000130: bc4c 28be 63c2 ed3d 42c5 9bbe 9620 84bd
00000140: 0089 67bd 87c2 2abe b525 d23d a6b3 943d
00000150: 1ea3 4cbe bf32 51be 288d a43d bea0 7ebc
00000160: a2bc ab3d 44e0 0f3e 16aa 85bd 0b37 843e
00000170: 706b 3fbe 296f ba3d 91d7 093e 9958 0f3e
00000180: c774 283d c077 81be e028 09be 8ad0 433e
00000190: f27b 043e 6998 5fbd ee36 603d 4b07 033e
000001a0: 1cd7 fe3d 9dd3 4abe 1e1d e43b dc3a e83d
000001b0: 2bc9 8fbd a7e9 183e bb24 72be d7c9 12be
000001c0: ebc1 19be 6ed2 67bd 7bb1 d7bd 09c5 d3bd
000001d0: c825 b3bc f712 a03d bb76 353b 0d38 bb3d
000001e0: 66f1 d5bb b300 3a3d 5441 57be 730f 07bc
000001f0: 3eda b2bb e2ad aebe 3455 19be 0c0b 50bd
00000200: 2d07 143e 5ca6 6bbb aebf 113e 777f 243c
00000210: de39 0ebe 583f 933d 02ad 01be 691c 3abd
00000220: e0aa fa3d 8a34 71bc caba eb3d 7ad3 f43b
00000230: 343f febc 75f3 19be 84b9 69be 4762 9d3d
00000240: 8fd7 29bd 57cf 3dbe d464 2f3d 64d0 68bd
00000250: c0be e9bd 5ffd 10be c828 b2bd 5c2c 0fbe
00000260: ba4d ae3d f1b3 a8bd c76c 5abd 394e 943c
00000270: 005b 26be ddaf 493d 7b66 023d 3809 bcbc
00000280: ff22 51bd 6e3c 67be 7e85 2abe 7284 543d
00000290: 9549 763d 16ef ccbc 3851 c63d cb6b 723e
000002a0: 9621 0b3e 204f 363d 09d3 2ebd 05b0 e3bb
000002b0: 952d babd 4b1d 253d d05b afbd 5a45 26be
000002c0: 0042 aebb 2625 d2bb 15a0 993d e3f6 d4bd
000002d0: 51f2 89bd 220b 893d bf9a a4bd 8c9c 063e
000002e0: f613 ab3d f6e0 bc3c 85ea 33bd 65e0 13bc
000002f0: 50a9 8e3d 4535 20be 8dd0 42bc 7437 6c3d
00000300: 4655 7bbd b76e 353d 9288 7cbc 59f7 10be
00000310: 5a80 a03c d883 86bd e689 ed3d c308 3f3e
00000320: a59d 3cbe b9ec babc 4eb7 e3bd ecf2 c23c
00000330: 5fda 103e a770 cb3d 38b0 e53c 22dc 9c3d
00000340: 310d 0b3c 9ace 1d3e a998 6fbd c455 92bd
00000350: b672 813e 51e2 483e db18 923d 317a 2c3d
00000360: bd23 efbc c8c2 22bd 5a9c dfbd 5703 95bd
00000370: 10b9 243d 5278 a2bd 3f3e ccbb f64a a3bd
00000380: 4b26 e63d e120 7d3d d2e8 063e 7eb7 20bd
00000390: 0fab 87bd ed39 c3bd 137e 56bd f200 b83c
000003a0: c49e 323c baca 3d3d 3d52 b03d ff32 35bd
000003b0: f96e 0abc 2f9d 0ebe fd82 633e 99be bfbc
000003c0: ccad a9bd e114 ba3d 7821 1a3e ee92 263e
000003d0: 36e5 9d3d 7329 25be 41ad cfbd 0baf 8fbd
000003e0: 25b5 1b3e a2ac b33d d422 153e ee1e aabd
000003f0: 40c4 e73d d4e4 c63d b9e9 ea3d c5d4 453d
0.17826074 -0.060055684 0.03583841 0.07857538 -0.069141254 0.1406583 -0.2177791 -0.015956344
0.110629864 -0.09471014 0.031214906 -0.036997348 -0.044130214 0.056877688 -0.18530875 0.07827732
-0.05494186 -0.23784818 0.018309424 0.00532314 -0.24133222 -0.04714309 0.060467556 -0.13813744
-0.011753018 -0.021711025 -0.058425535 0.087729566 -0.18922834 0.10520847 -0.13254552 -0.018274928
-0.03395987 -0.18484424 -0.107317716 0.21949185 0.11885988 -0.093171194 -0.043207083 0.024752757
-0.025003396 -0.12385249 0.051024914 0.020526925 -0.10345648 0.0021251428 -0.112482876 -0.062710166
0.016328927 -0.007078844 0.07428729 -0.15181433 -0.19707745 0.07289532 -0.09213353 0.1628055
-0.10422844 0.15433347 -0.22097261 0.018312005 -0.040886644 -0.2531705 0.0041036685 -0.02808944
0.09226571 -0.15773447 0.16005866 -0.0038349861 -0.18417248 0.14641736 -0.08271409 0.065174304
0.13599299 -0.011686509 0.2917515 0.084593765 -0.16435522 0.11609342 -0.30423933 -0.06451528
-0.056527138 -0.16675769 0.10261098 0.07260828 -0.199841 -0.20429514 0.08034736 -0.015541254
0.08385588 0.14050394 -0.06526582 0.25823244 -0.18693328 0.09103233 0.13461138 0.13998641
0.041126993 -0.25286674 -0.13394499 0.1912252 0.12937906 -0.05458871 0.054739885 0.12795751
0.124433726 -0.19807287 0.006961479 0.113393515 -0.070207916 0.14932881 -0.23646824 -0.14334808
-0.1501538 -0.056597166 -0.105318986 -0.10340316 -0.021868601 0.07816117 0.0027689177 0.0914155
-0.006529021 0.045410823 -0.21021014 -0.0082434295 -0.0054581454 -0.34117037 -0.14973909 -0.050791785
0.14455862 -0.0035957312 0.14233276 0.010040156 -0.13889262 0.07189816 -0.12663653 -0.04543725
0.12239623 -0.014721999 0.115102366 0.007471499 -0.031035997 -0.15034278 -0.22824675 0.076847605
-0.04146534 -0.18536125 0.042820767 -0.05683936 -0.11413336 -0.14159153 -0.08699185 -0.13981766
0.08510919 -0.08237446 -0.053326394 0.018103706 -0.16245651 0.049239982 0.031836014 -0.022953615
-0.051058766 -0.22581646 -0.16652486 0.051884122 0.060128767 -0.025016349 0.0968346 0.23673932
0.13587031 0.044509053 -0.042681728 -0.0069484734 -0.09090725 0.04031114 -0.08562434 -0.16237393
-0.0053179264 -0.00641312 0.07501236 -0.103986524 -0.06735671 0.066915765 -0.08037328 0.13145655
0.083534166 0.023056488 -0.043924827 -0.009025668 0.069658875 -0.1564532 -0.011890543 0.05767007
-0.06136062 0.04429504 -0.01541342 -0.14156856 0.019592453 -0.06568116 0.11598568 0.18655686
-0.18419512 -0.022817956 -0.11118947 0.023797475 0.14145802 0.09933596 0.02803813 0.076591745
0.008487032 0.15410843 -0.058495197 -0.07145265 0.2528283 0.19617583 0.07133647 0.04210872
-0.029191846 -0.03973654 -0.109184936 -0.07276028 0.04021555 -0.079331055 -0.0062330063 -0.07973282
0.112377726 0.061798934 0.13174751 -0.03923749 -0.06624424 -0.09532533 -0.052366327 0.022461388
0.0109021105 0.046335913 0.08609436 -0.044238087 -0.0084493095 -0.13927148 0.22217937 -0.023406314
-0.08285102 0.090860136 0.1505183 0.16266987 0.07709734 -0.16129093 -0.101404674 -0.07015809
0.1520582 0.087731615 0.14564067 -0.083066806 0.113167286 0.09711614 0.1147036 0.048298616

unet.time_mlp.2.bias f4 [16]
00000000: 10a1 c7bd 1666 be3c f262 8a3d 9ebd 5dbc
00000010: de7f f23d 3d94 15be 488a a33d 73a7 6e3d
00000020: 31ce 40bd 375c 3f3d 5b7f b0bb 255e 6e3c
00000030: c09b eabc e450 e33d e83c a93d 90d2 6bbd
-0.09747517 0.023242038 0.067571536 -0.013533978 0.11840795 -0.1460733 0.079853594 0.05826516
-0.04707164 0.046718802 -0.0053862757 0.014548813 -0.02863872 0.11099413 0.0826357 -0.057573855

unet.cond_mlp.0.weight f4 [16, 32]
00000000: b11b 25be 4929 3abc b6a9 2fbe b2dd 2a3e
00000010: 8dc0 9a3e 6c50 0ebe df59 6dbc 215a c2bd
00000020: efdd 44bd 6d74 14bd 386b b4bd daa6 45bb
00000030: 4767 223e ff6d 483d 9f63 1cbe 96b9 a1bd
00000040: aa3d 2f3e 3195 26bc 32eb b33c b2d5 113c
00000050: f8ef 02be 283c edbc f78d 803d e23c 113c
00000060: 47a1 f7bd b7ec c5bd 489f 6dbd a1b2 a93d
00000070: 5cd1 a13d ae6a c33d cc4c dbbd c709 b53d
00000080: 79e7 87bd c787 e53c 9928 743e 93b7 69be
00000090: 8350 833c f137 b43c ca96 273e b7b8 453e
000000a0: 4318 36be f61f 3fbd 5563 78be c76f 5e3e
000000b0: 0cee 3d3c f0ee debb 51ef f1bd 1a92 8cbd
000000c0: 6d13 c9bd 8956 17bd a6e0 02be aa22 d93d
000000d0: 72a6 8dbc 4365 36bc c8c8 aabd 896b 16be
000000e0: ff54 f1bc b4a1 3c3e cc64 c4ba 4eeb 573d
000000f0: b27d d93d 8371 453d 65e8 353e 84c6 813d
00000100: 5598 5a3e 75e8 95bb 03db 2dbe 104b 7c3e
00000110: 4cc6 41be 1477 d33d 1b74 0d3e ed6b 0a3d
00000120: 6e39 453e 096d 29be 794d 73be 35db 66be
00000130: 33e9 463e 524b 15bd b85b 933d 1633 3b3e
00000140: 5455 9ebd e216 8a3d 762a 3c3d 659f c73d
00000150: 2f1c ffbc 144c b73d aa7c d4bd 6934 babd
00000160: eded b9bd 5132 843d 1c07 bd3d 3d72 1cbd
00000170: 4fb6 2cbe 82a6 483e af42 9b3b 7c26 d2bd
00000180: ad72 853d 5ce2 5cbd 0e6e 95be 100b 203e
00000190: b3ed df3d 06c2 f5bd a8db 66be c566 9b3d
000001a0: 5558 dc3d 3a27 b0bd 11bd 72be cb21 92be
000001b0: 72e2 723e 3853 49bd 1578 38be 39fb 773c
000001c0: 708f ffbd 3c0e 0dbe d7e6 c93d e937 03be
000001d0: 0344 c03d a6ea f83d ca39 0fbe d858 193e
000001e0: 6f64 373e 6a1c 693c f46f d5bd 3abb 6ebd
000001f0: 27e0 c53d e396 8e3d 6366 d73d 13f2 87bd
00000200: cb54 36be de40 9f3d c40b 29be 9bac 60bd
00000210: da83 0d3e 6057 173e 8873 6fbc 1452 d8bd
00000220: d6d6 703d da3f 2cbe 014f d43c 7c0c 8ebd
00000230: 0fa5 e53c 7279 62bd 3681 05be a2d2 393e
00000240: 74a8 583e cc34 3a3e c1ef 1c3c 0c2a e6bd
00000250: 10dc 843c ff5d b7bd c19a 533e 4b31 babd
00000260: 8ba7 5bbe 1c18 b83c a594 4c3b ec6f bf3d
00000270: acb0 f03d 7f37 c6bd 07d0 dabc d0d5 333d
00000280: ccc1 5b3e 34b4 44be dd23 a5bd 19ee 6d3e
00000290: 154e cbbd 0256 513c 4bb2 023e e523 18bd
000002a0: 393b 8cbd 2d3c 5f3d f91c c43a 96b5 f0bd
000002b0: d1f3 493e c92e 773d 105d da3d e31b 2d3d
000002c0: 0430 1ebe a5cb 84bd 2f19 f73d 8004 bfbd
000002d0: 9240 023e c3dc 043e e934 0f3c 7aed 1dbe
000002e0: 0f50 103e 2489 56bd 3371 ffbd 097a 303e
000002f0: e063 203e 2a5a 11be 2d5b 243d 78f7 e43d
00000300: 30d3 37bc 645d cebd e9e8 a9be 2ed7 0c3d
00000310: b83e 643d 9947 18be e3ab 17be 4bbf 07be
00000320: 8633 82bc 9e1b a13d 2d2a 503e 2dbf 4ebe
00000330: 8a1e 243e ce67 543d a5ab ed3d 9400 8a3d
00000340: 4922 7c3d ae1e b5bd c21b 9a3d 13ee 42be
00000350: 94cc df3d bcf6 a63d d9e1 b83d 967b e23d
00000360: 5559 a0bd 2c61 f0bd 9824 bdbb 6d90 31be
00000370: aad5 313d 18c6 0b3e 596d 53bd 9aef 033e
00000380: 71bd d6bd facf 38be 7f75 acbe b857 44be
00000390: 143b 4bbe a1fb aebd cdf2 ed3c f232 843d
000003a0: 7a9c 9abc 760d 093c 78d4 493d 594a 60be
000003b0: d17f 453d f91f 4bbe d43d 3dbd 281b d3bd
000003c0: 7023 3cbe 3db0 5fbe 1819 60be 2d94 c53d
000003d0: a95c 773d 7aee 35bd cdc2 69bd 52db 673d
000003e0: bf60 b83c e979 0fbe 2e40 173e 035b ff3b
000003f0: fdc4 023e d35d 26be 2ada 29bc fc68 21be
-0.16123845 -0.011362382 -0.17154583 0.16686133 0.3022503 -0.13897866 -0.014486759 -0.09489847
-0.048063215 -0.036243845 -0.08809513 -0.0030159266 0.1585971 0.048933025 -0.15272377 -0.07896726
0.17113367 -0.010167406 0.021962736 0.008901047 -0.12786853 -0.028959349 0.06277078 0.008864613
-0.12091308 -0.096642904 -0.05801323 0.08286024 0.0790126 0.09541832 -0.10708007 0.088397555
-0.06635947 0.028018845 0.23843612 -0.22823934 0.016029602 0.021999331 0.16366115 0.19308744
-0.17782693 -0.04666134 -0.24256642 0.21722327 0.011592399 -0.006803386 -0.11813224 -0.06863804
-0.09818158 -0.03694776 -0.12781009 0.10602315 -0.017291281 -0.011132541 -0.08339077 -0.14689459
-0.029459475 0.1842106 -0.0014983653 0.05271464 0.106196776 0.048203956 0.17764433 0.06336692
0.21347173 -0.00457483 -0.16978078 0.24638009 -0.189233 0.10325447 0.13813822 0.033794332
0.19260189 -0.165455 -0.23760022 -0.22544558 0.19424896 -0.036448784 0.07195228 0.18281206
-0.07731119 0.06742646 0.04593893 0.09747199 -0.031141369 0.089500576 -0.1037534 -0.09092028
-0.09078584 0.064549096 0.09229872 -0.038194884 -0.1686642 0.19594768 0.004738174 -0.102612466
0.06516013 -0.05392681 -0.29185528 0.1562922 0.109340094 -0.11999898 -0.2254473 0.07587961
0.107590355 -0.08601232 -0.23704936 -0.28541407 0.23719195 -0.04915163 -0.18014558 0.01513558
-0.124785304 -0.13774961 0.09858482 -0.12814297 0.09387972 0.12154131 -0.13986889 0.14975297
0.17909406 0.014227966 -0.10421744 -0.058284022 0.09661894 0.06962373 0.105175756 -0.06637969
-0.17805783 0.07776044 -0.16508394 -0.05485211 0.13819829 0.14779425 -0.014614947 -0.1056253
0.058798634 -0.16821232 0.025916578 -0.06935975 0.028032808 -0.0552916 -0.13037571 0.18146756
0.2115801 0.18184203 0.009578646 -0.112384886 0.016218215 -0.08953475 0.20664503 -0.09091433
-0.21450631 0.022472434 0.0031216529 0.09347519 0.117524475 -0.09678554 -0.026710523 0.04390508
0.21460646 -0.19209367 -0.08063481 0.23235358 -0.09927002 0.0127768535 0.12763326 -0.037143607
-0.06847233 0.054500747 0.0014962248 -0.11753385 0.19721915 0.060347352 0.106622815 0.042262923
-0.15448004 -0.064841546 0.1206535 -0.0932703 0.12719944 0.12974839 0.008740642 -0.15422621
0.1409304 -0.05237688 -0.12472763 0.17234053 0.156631 -0.14194551 0.040126015 0.111800134
-0.011219785 -0.100764066 -0.3318551 0.0343849 0.055723876 -0.14871062 -0.14811663 -0.13256566
-0.015893709 0.07866596 0.20328589 -0.20190115 0.16027275 0.05185681 0.11605004 0.067383915
0.061556134 -0.08843742 0.07524826 -0.1903613 0.10927692 0.081525296 0.09027452 0.110587284
-0.07829539 -0.11737284 -0.0057721846 -0.1734025 0.043416657 0.13649786 -0.051617954 0.1288437
-0.10485352 -0.18048087 -0.33683392 -0.19174087 -0.19846755 -0.08544088 0.02904644 0.064550295
-0.018873442 0.008365026 0.04927489 -0.21903361 0.0482176 -0.19836415 -0.046201542 -0.10307914
-0.18372893 -0.21844573 -0.21884573 0.09647403 0.060391102 -0.044416882 -0.057070542 0.056605645
0.02250707 -0.14011349 0.14770576 0.007792832 0.12770458 -0.16246729 -0.010366956 -0.15762705

unet.cond_mlp.0.bias f4 [16]
00000000: aa84 963d b4c4 393e 63d7 3bbd f348 9e3d
00000010: 0bde 3c3e db89 103e 5ac9 113e d90c e2bd
00000020: d060 92bd 3908 343e 3bbb d4bd 6a69 1ebd
00000030: 712c 533d 1a1d 923d 373d 013e 96d4 c73d
0.073495224 0.18141443 -0.045859706 0.07728758 0.18444078 0.14115088 0.14236966 -0.11037607
-0.07147372 0.17581262 -0.10387274 -0.03867475 0.051556055 0.07134457 0.12621008 0.097573444
