src/logs_example/run_20250718_181816_ws10_fd1_ed16_bc8_rb1_nt50_s0.008_sw0.1_lr0.001_bs32_12d37a7d/model_run_20250718_181816_ws10_fd1_ed16_bc8_rb1_nt50_s0.008_sw0.1_lr0.001_bs32_12d37a7d.pt (torch, 35459 bytes, 32 tensors)

betas f4 [50]
0.001747489 0.003688991 0.0056337714 0.007585764 0.0095489025 0.011526883 0.013524234 0.015544534
0.01759255 0.019673109 0.021790743 0.023950815 0.026158988 0.028421521 0.030744493 0.033135474
0.035602212 0.03815353 0.040798843 0.04354924 0.046416342 0.04941398 0.05255717 0.055863857
0.05935359 0.06304985 0.06697893 0.07117188 0.07566583 0.08050352 0.085736334 0.09142703
0.09765023 0.10449803 0.11208534 0.120556235 0.13009268 0.14093208 0.15338635 0.16787475
0.18497169 0.20549464 0.23063338 0.26219916 0.30307245 0.3581307 0.43622243 0.5548348
0.7497583 0.999
00000000: 000c e53a 00c3 713b 809b b83b 0092 f83b
00000010: 0073 1c3c 40db 3c3c c094 5d3c 80ae 7e3c
00000020: 401e 903c 8029 a13c 8082 b23c 8034 c43c
00000030: 604b d63c 40d4 e83c e0db fb3c 10b9 073d
00000040: a0d3 113d e046 1c3d b01c 273d b060 323d
00000050: 101f 3e3d 5066 4a3d 3046 573d 80d1 643d
00000060: c01c 733d 4820 813d 402c 893d 90c2 913d
00000070: b0f6 9a3d 08df a43d 8896 af3d 183e bb3d
00000080: d8fc c73d 1003 d63d 008d e53d 30e6 f63d
00000090: 0437 053e 8050 103e 5011 1d3e 5ce7 2b3e
000000a0: 3869 3d3e 306d 523e 282b 6c3e f83e 863e
000000b0: 502c 9b3e e85c b73e 8c58 df3e a709 0e3f
000000c0: 29f0 3f3f 77be 7f3f

alphas f4 [50]
0.9982525 0.996311 0.9943662 0.99241424 0.9904511 0.9884731 0.98647577 0.98445547
0.98240745 0.9803269 0.97820926 0.9760492 0.973841 0.9715785 0.9692555 0.9668645
0.9643978 0.9618465 0.95920116 0.95645076 0.95358366 0.950586 0.9474428 0.94413614
0.9406464 0.93695015 0.93302107 0.9288281 0.92433417 0.9194965 0.91426367 0.908573
0.90234977 0.895502 0.88791466 0.87944376 0.8699073 0.8590679 0.84661365 0.83212525
0.8150283 0.79450536 0.7693666 0.73780084 0.69692755 0.6418693 0.56377757 0.44516522
0.2502417 0.0009999871
00000000: 7a8d 7f3f 3d0e 7f3f c98e 7e3f dc0e 7e3f
00000010: 348e 7d3f 930c 7d3f ad89 7c3f 4605 7c3f
00000020: 0e7f 7b3f b4f6 7a3f ec6b 7a3f 5cde 793f
00000030: a54d 793f 5eb9 783f 2121 783f 6f84 773f
00000040: c6e2 763f 923b 763f 358e 753f f5d9 743f
00000050: 0f1e 743f 9b59 733f 9d8b 723f e8b2 713f
00000060: 34ce 703f f7db 6f3f 78da 6e3f aec7 6d3f
00000070: 2aa1 6c3f 1f64 6b3f 2f0d 6a3f 3d98 683f
00000080: 6500 673f 9e3f 653f 604e 633f 3a23 613f
00000090: 3fb2 5e3f e0eb 5b3f acbb 583f 2906 553f
000000a0: b2a5 503f b464 4b3f 36f5 443f 84e0 3c3f
000000b0: d869 323f 8c51 243f ba53 103f b2ec e33e
000000c0: ae1f 803e 0012 833a

alpha_bars f4 [50]
0.9982525 0.99456996 0.98896676 0.98146474 0.9720928 0.9608876 0.94789237 0.9331578
0.9167412 0.898706 0.87912256 0.85806686 0.8356207 0.81187105 0.78691053 0.7608359
0.73374844 0.7057533 0.6769594 0.64747834 0.6174248 0.5869154 0.5560687 0.52500457
0.49384367 0.46270692 0.4317153 0.40098932 0.37064812 0.34080964 0.31158987 0.28310212
0.25545713 0.22876237 0.20312147 0.17863391 0.15539494 0.13349481 0.11301853 0.09404557
0.0766498 0.06089868 0.046853412 0.034568485 0.02409173 0.015463742 0.008718111 0.0038809997
0.00097118795 9.711755e-07
00000000: 7a8d 7f3f 239c 7e3f ed2c 7d3f 4641 7b3f
00000010: 13db 783f bbfc 753f 13a9 723f 6ee3 6e3f
00000020: 8daf 6a3f 9911 663f 2d0e 613f 45aa 5b3f
00000030: 3deb 553f c8d6 4f3f f872 493f 24c6 423f
00000040: f0d6 3b3f 40ac 343f 364d 2d3f 24c1 253f
00000050: 8d0f 1e3f 1640 163f 855a 0e3f b366 063f
00000060: 14d9 fc3e ece7 ec3e ca09 dd3e 794e cd3e
00000070: 97c5 bd3e 9a7e ae3e b588 9f3e c3f2 903e
00000080: 47cb 823e af40 6a3e 13ff 4f3e cfeb 363e
00000090: da1f 1f3e ddb2 083e 4276 e73d f79a c03d
000000a0: 92fa 9c3d e570 793d 5de9 3f3d af97 0d3d
000000b0: 055c c53c a35b 7d3c 68d6 0e3c 5f58 7e3b
000000c0: 5297 7e3a 5659 8235

stat_predictor.cond_mlp.0.weight f4 [16, 32]
0.12509954 0.048601504 0.09424979 -0.059996188 0.14543799 -0.12836361 -0.020867689 0.015986612
-0.07353749 -0.009597335 -0.013852107 0.12288166 -0.140009 0.12182253 -0.19125298 -0.18874244
0.121011354 -0.17734247 0.078883395 0.15902098 -0.12071239 -0.0028763555 -0.16091032 0.13934202
-0.09789178 -0.09233291 0.09495104 0.03146238 -0.13564599 0.07088514 0.066283815 -0.01297102
-0.05872503 0.02697207 0.15149954 0.09684771 -0.087881885 -0.051589515 -0.074359715 0.031312913
-0.1134105 -0.09810105 0.1069134 0.093590006 0.091523334 -0.17851827 -0.10703647 -0.025749968
0.06672041 0.120194554 -0.117124066 0.191952 -0.0112811765 -0.09396125 0.0019683167 -0.023488127
-0.14952736 -0.12426935 -0.060680408 0.080531694 -0.12546003 0.15419897 -0.13847405 0.04753365
0.12315515 -0.04627137 -0.09722041 -0.053128015 0.052099675 0.03382648 -0.020103602 0.15264317
-0.17968321 -0.11819646 0.12595107 0.14824352 0.05482281 0.012690142 0.02445053 -0.11040838
0.16319032 -0.03917934 0.13517338 -0.11758951 -0.07545071 0.15061569 0.17353025 0.16198944
0.118343115 0.1902441 0.021966292 -0.17593588 0.097027145 -0.09754062 0.19102299 -0.10770674
-0.08504537 -0.022098046 0.13846909 0.10676745 0.09205678 -0.16343053 -0.03366654 -0.015272238
-0.11445254 -0.12565063 -0.10040918 0.091023594 0.17167412 -0.07870974 -0.16020025 0.15588208
0.031254094 -0.14468712 0.14855732 0.09145133 -0.0026926084 0.0666891 0.14897247 0.047318038
0.11379584 0.041867666 0.03646036 -0.1477326 -0.041277077 -0.0006168319 -0.15292637 0.08494206
-0.15085451 -0.14892735 -0.04626123 -0.12621619 -0.05101355 -0.15571126 0.11175358 0.03459944
-0.02299523 -0.13539572 0.032126777 -0.032529052 -0.0005631143 -0.08545371 0.017094186 -0.07421529
-0.07950298 -0.082202524 -0.021882731 0.031122869 0.031339776 -0.09112937 0.13076334 -0.1935434
-0.009355176 -0.027749235 0.0018599008 0.17000511 -0.021237593 -0.11777996 -0.011391762 -0.096111104
-0.13930708 -0.1385377 0.08031101 0.001829674 -0.16932315 -0.04062853 -0.06599403 -0.13802597
-0.16260886 -0.10306277 0.03272582 0.0083792005 -0.04813761 0.1383914 -0.06997474 -0.13613296
-0.06409923 0.108054325 -0.1255866 -0.034214206 -0.07143938 -0.11419248 0.0096288845 0.15024574
-0.040728115 -0.035339773 -0.07218677 -0.118428305 0.06389617 -0.10645257 0.074655995 -0.017567676
0.08009844 -0.116059504 -0.022808256 -0.07065459 0.16265081 -0.14257169 -0.1003665 0.14670394
-0.114800766 0.1666865 0.07794568 -0.12725851 0.15506509 0.03494072 0.071724035 -0.055208802
0.13659413 0.06555317 0.07917085 -0.14299855 0.07382998 -0.04021322 0.11205963 0.177792
-0.16739845 0.117718875 -0.11177723 -0.13736111 -0.038574614 -0.0559957 -0.12552512 0.18206632
-0.04633751 0.051045597 0.0061625326 0.09057896 0.08491157 -0.1941961 0.07962569 -0.14963682
-0.049950067 0.12709211 -0.005202125 -0.04740742 0.009533745 -0.0048294533 -0.03347148 -0.07906312
0.01823388 0.1472911 -0.03019413 0.04571926 0.16614653 -0.0692226 -0.18244806 -0.091061026
-0.06237509 -0.16129051 0.19146605 0.14179707 0.02620698 0.050566036 -0.13862753 0.06012014
00000000: 181a 003e 5f12 473d 0906 c13d 90be 75bd
00000010: b2ed 143e c071 03be b7f2 aabc 5bf6 823c
00000020: d39a 96bd 243e 1dbc f3f3 62bc 61a9 fb3d
00000030: 855e 0fbe 177e f93d d2d7 43be b345 41be
00000040: cdd4 f73d 4499 35be 9e8d a13d 65d6 223e
00000050: 0f38 f7bd 3d81 3cbb adc5 24be adaf 0e3e
00000060: 7c7b c8bd 0919 bdbd b175 c23d b2de 003d
00000070: c8e6 0abe 3a2c 913d cfbf 873d 6784 54bc
00000080: a889 70bd 88f4 dc3c b222 1b3e 1858 c63d
00000090: 6bfb b3bd 874f 53bd e849 98bd f841 003d
000000a0: c443 e8bd 34e9 c8bd 6af5 da3d 1eac bf3d
000000b0: 9670 bb3d 7ecd 36be f035 dbbd 99f1 d2bc
000000c0: b6a4 883d 9028 f63d bede efbd 118f 443e
000000d0: afd4 38bc c16e c0bd e0fe 003b 2c6a c0bc
000000e0: b31d 19be ee80 febd 058c 78bd cded a43d
000000f0: 9878 00be 56e6 1d3e 24cc 0dbe a5b2 423d
00000100: c438 fc3d 0c87 3dbd 7f1b c7bd c39c 59bd
00000110: 7866 553d a38d 0a3d 4fb0 a4bc 7e4e 1c3e
00000120: e0fe 37be fc10 f2bd 51f9 003e 26cd 173e
00000130: e28d 603d 50ea 4f3c 7a4c c83c ca1d e2bd
00000140: 5d1b 273e 847a 20bd e46a 0a3e c5d2 f0bd
00000150: e785 9abd 003b 1a3e eab1 313e 8fe0 253e
00000160: e05d f23d 59cf 423e a7f2 b33c 8928 34be
00000170: 2bb6 c63d 60c3 c7bd 889b 433e 5a95 dcbd
00000180: 442c aebd f606 b5bc d7ca 0d3e e5a8 da3d
00000190: 4488 bc3d 555a 27be ede5 09bd 6938 7abc
000001a0: 1866 eabd 8faa 00be 54a3 cdbd 946a ba3d
000001b0: 57cb 2f3e 9232 a1bd 890b 24be 8d9f 1f3e
000001c0: 4b04 003d dc28 14be 691f 183e d64a bb3d
000001d0: 7976 30bb 4b94 883d 3d8c 183e 8fd0 413d
000001e0: cb0d e93d 6e7d 2b3d 7557 153d 3747 17be
000001f0: 2712 29bd e3b2 21ba bb98 1cbe 1af6 ad3d
00000200: 9b79 1abe 6980 18be 6a7c 3dbd d13e 01be
00000210: 96f3 50bd c672 1fbe 10df e43d 24b8 0d3d
00000220: 7e60 bcbc 2da5 0abe 5e97 033d 2f3d 05bd
00000230: f69d 13ba 5b02 afbd 1b09 8c3c 30fe 97bd
00000240: 75d2 a2bd cc59 a8bd 6a43 b3bc 63f5 fe3c
00000250: 235e 003d 09a2 babd d3e6 053e 3e30 46be
00000260: 7446 19bc 5d52 e3bc eac7 f33a d215 2e3e
00000270: 76fa adbc 9f36 f1bd 83a4 3abc e6d5 c4bd
00000280: 84a6 0ebe d4dc 0dbe 197a a43d acd1 ef3a
00000290: 0c63 2dbe 1a6a 26bd e127 87bd ae56 0dbe
000002a0: f082 26be 9312 d3bd 820b 063d ea48 093c
000002b0: f12b 45bd 7ab6 0d3e eb4e 8fbd 7066 0bbe
000002c0: 7546 83bd 964b dd3d c699 00be 3224 0cbd
000002d0: cf4e 92bd bfdd e9bd 78c2 1d3c 05da 193e
000002e0: 86d2 26bd 70c0 10bd a8d6 93bd 8a8a f2bd
000002f0: ffdb 823d ce03 dabd 3ee5 983d 16ea 8fbc
00000300: a70a a43d 9bb0 edbd 61d8 babc 5bb3 90bd
00000310: ef8d 263e 50fe 11be f48c cdbd 8f39 163e
00000320: aa1c ebbd deaf 2a3e fca1 9f3d 0e50 02be
00000330: 62c9 1e3e 001e 0f3d 0de4 923d a022 62bd
00000340: 55df 0b3e be40 863d 5424 a23d 366e 12be
00000350: 2c34 973d 9eb6 24bd 857f e53d 1b0f 363e
00000360: 806a 2bbe 9816 f13d 76eb e4bd 64a8 0cbe
00000370: 6a00 1ebd bf5b 65bd a889 00be 986f 3a3e
00000380: 67cc 3dbd 3015 513d 12ef c93b 7681 b93d
00000390: 1ee6 ad3d 58db 46be cb12 a33d 653a 19be
000003a0: 7198 4cbd 6f24 023e 9676 aabb 482e 42bd
000003b0: 6d33 1c3c 6440 9ebb 6419 09bd d8eb a1bd
000003c0: 385f 953c 7ad3 163e ae59 f7bc 1e44 3b3d
000003d0: 5122 2a3e 94c4 8dbd aad3 3abe 347e babd
000003e0: 067d 7fbd 5729 25be ad0f 443e 4033 113e
000003f0: 05b0 d63c 551e 4f3d 60f4 0dbe 8940 763d

stat_predictor.cond_mlp.0.bias f4 [16]
-0.0047758906 -0.08450593 0.08164747 0.13487533 -0.16274513 -0.054844864 -0.09859798 -0.1851795
-0.149978 -0.05748372 -0.057375968 0.07791275 0.061127484 -0.12992813 -0.16543551 0.053795226
00000000: 137f 9cbb 7211 adbd ca36 a73d c21c 0a3e
00000010: a9a6 26be 02a5 60bd bded c9bd b29f 3dbe
00000020: d593 19be 0d74 6bbd 1003 6bbd b890 9f3d
00000030: d060 7a3d e10b 05be ed67 29be 6258 5c3d

stat_predictor.cond_mlp.2.weight f4 [16, 16]
0.13449156 0.14315931 -0.12727118 -0.163327 0.16595064 -0.11675826 -0.053808764 0.03618148
0.13115677 0.096035294 0.107954144 -0.04445202 0.15976605 -0.17633069 -0.111098155 0.20433608
0.15922993 -0.12931207 0.14342254 0.1434174 0.26935574 -0.03542656 0.009741183 0.22963588
-0.13227904 0.22846925 0.057050355 -0.1402258 0.11671726 0.14087445 0.1754057 -0.15432961
0.25251004 0.021971162 -0.26616216 0.18698017 0.045392714 -0.13359234 -0.1278311 -0.13124277
-0.16935582 -0.2539046 0.07308664 -0.077588744 -0.11516073 -0.0136844935 -0.12736355 0.24368444
0.20521921 0.19083388 -0.1598545 -0.2365995 0.12057149 0.18527086 0.03193151 -0.030005917
-0.11211525 -0.19326487 0.22586803 -0.057283744 0.13166155 0.005664843 0.23703612 -0.22969109
0.121258855 -0.18748905 0.14051285 -0.14744753 -0.20221242 -0.054639917 0.05609594 0.013168029
-0.16352879 -0.12869342 0.059258938 0.21351014 -0.15328076 -0.07230649 -0.059232753 0.18699114
0.21249779 -0.08404626 0.07928717 -0.15285 0.18224673 -0.19624053 0.05143783 -0.17092592
0.07418849 -0.11811939 0.15017386 -0.122631095 0.23173933 -0.21050328 0.057344634 -0.24252121
-0.11121182 -0.21351875 0.19962059 -0.18626504 0.19619986 -0.22304189 -0.021421853 0.059097204
0.12438849 -0.035939883 -0.21789746 0.15704833 -0.17238009 0.07272193 -0.16595162 -0.061978824
0.07342946 0.18472463 -0.07828479 0.06643041 0.236217 -0.025072126 -0.025439203 0.16604899
-0.14033484 0.16698019 0.09134242 -0.011818293 0.078409754 0.14434968 -0.09539051 -0.00027060008
-0.032299638 -0.040617898 -0.13006374 -0.105059646 -0.027396215 0.13833103 -0.16462147 -0.09072164
0.09210125 -0.0061713066 -0.019265953 -0.21776226 0.2342028 -0.017328154 -0.0027477378 0.028346565
-0.10168226 0.108504735 -0.17397891 0.005285281 0.038971245 0.12333323 0.18216875 -0.0985246
0.019219676 0.10515363 -0.17025492 -0.24113946 -0.1758934 -0.16198577 0.00060999946 -0.2338519
-0.14038903 -0.10052263 -0.12344554 -0.11740096 -0.064254664 0.0141375335 -0.06653225 0.23310976
-0.15692942 0.09286649 -0.10595653 0.10111464 -0.23680367 -0.018892944 -0.115087435 0.04065886
-0.18946688 0.119951725 -0.00021370198 -0.12943263 -0.14778042 -0.2437466 0.25659057 0.06318296
-0.020106044 0.09222197 -0.257746 0.028486852 -0.010867658 0.19518498 0.23159672 -0.20916425
-0.043420237 0.14000921 0.15770923 0.10363172 0.18243589 -0.028514093 -0.10539188 -0.2322649
-0.1645654 0.07585749 0.05403113 -0.009026767 -0.058138475 0.16266239 0.12461298 -0.059560094
0.059165783 0.20470637 -0.0028934667 0.21931282 0.049180433 -0.1754411 -0.04679356 -0.19205362
-0.09825441 -0.15949658 0.082774036 0.073276736 0.21977417 -0.052706286 -0.21665217 0.075583644
0.15406711 0.09628461 0.044571925 0.16513617 0.053312972 -0.12088217 -0.09006771 0.018454585
0.24405743 0.12878262 0.039528105 -0.1912463 -0.064686455 -0.06918225 0.15146449 -0.21304843
-0.20141055 -0.10101309 -0.031936083 -0.098630525 0.122652836 -0.029958067 -0.12661138 0.13056202
-0.106510855 0.12011671 -0.11931057 -0.15544319 0.009219258 -0.0061861444 -0.03203441 -0.020643478
00000000: 28b8 093e 5b98 123e 6053 02be 313f 27be
00000010: f7ee 293e f41e efbd 9466 5cbd 0833 143d
00000020: f64d 063e 27ae c43d 1017 dd3d 5213 36bd
00000030: b699 233e 0890 34be 6e87 e3bd 7a3d 513e
00000040: 2c0d 233e 626a 04be 5cdd 123e 03dc 123e
00000050: ffe8 893e 711b 11bd 7c99 1f3c ab25 6b3e
00000060: 2874 07be d8f3 693e a2ad 693d 5a97 0fbe
00000070: 7509 ef3d 6441 103e 8d9d 333e 9508 1ebe
00000080: ff48 813e defc b33c 6846 88be bb77 3f3e
00000090: b6ed 393d 6ecc 08be 28e6 02be 8164 06be
000000a0: 9d6b 2dbe c9ff 81be 73ae 953d d9e6 9ebd
000000b0: 64d9 ebbd ed34 60bc 976b 02be 6a88 793e
000000c0: fc24 523e f569 433e e6b0 23be 2447 72be
000000d0: 2fee f63d a5b7 3d3e 9dca 023d f8ce f5bc
000000e0: ae9c e5bd 3ae7 45be f349 673e 5ca2 6abd
000000f0: 49d2 063e 26a0 b93b 99b9 723e 2434 6bbe
00000100: 9056 f83d 21fd 3fbe 9ae2 0f3e 7cfc 16be
00000110: c610 4fbe 1bce 5fbd dbc4 653d b7be 573c
00000120: 1774 27be 35c8 03be 80b9 723d 67a2 5a3e
00000130: a2f5 1cbe 6d15 94bd 0b9e 72bd 9b7a 3f3e
00000140: 0599 593e 7220 acbd 5061 a23d b684 1cbe
00000150: e39e 3a3e 47f3 48be 79b0 523d 3407 2fbe
00000160: 23f0 973d 94e8 f1bd 2dc7 193e 0326 fbbd
00000170: 134d 6d3e 2c8e 57be 35e2 6a3d 7b57 78be
00000180: 06c3 e3bd a9a4 5abe 5769 4c3e 43bc 3ebe
00000190: 9ee8 483e 1865 64be e27c afbc e90f 723d
000001a0: 65bf fe3d b335 13bd 8320 5fbe 47d1 203e
000001b0: 6884 30be 3cef 943d 39ef 29be 82dd 7dbd
000001c0: 2f62 963d 7428 3d3e c753 a0bd ab0c 883d
000001d0: dfe2 713e 0f64 cdbc e065 d0bc bf08 2a3e
000001e0: f0b3 0fbe dbfc 2a3e bc11 bb3d 83a1 41bc
000001f0: 4b95 a03d 67d0 133e 1a5c c3bd 54df 8db9
00000200: a04c 04bd f45e 26bd 6e2f 05be 8329 d7bd
00000210: 076e e0bc a6a6 0d3e 8892 28be 44cc b9bd
00000220: 959f bc3d ac38 cabb a2d3 9dbc 12fd 5ebe
00000230: dcd2 6f3e c6f3 8dbc 6413 34bb 0e37 e83c
00000240: ca3e d0bd bb37 de3d 8727 32be 2730 ad3b
00000250: 50a0 1f3d 2296 fc3d 728a 3a3e 44c7 c9bd
00000260: 9572 9d3c c95a d73d 4e57 2ebe 43ed 76be
00000270: 661d 34be 99df 25be 5fe8 1f3a df76 6fbe
00000280: 24c2 0fbe cfde cdbd 04d1 fcbd ea6f f0bd
00000290: f397 83bd 1da1 673c 0f42 88bd 53b4 6e3e
000002a0: 1bb2 20be c930 be3d bdff d8bd 3115 cf3d
000002b0: a97c 72be 60c5 9abc f6b2 ebbd e889 263d
000002c0: 9b03 42be 40a9 f53d 3015 60b9 fd89 04be
000002d0: c053 17be b598 79be d75f 833e 1166 813d
000002e0: 6eb5 a4bc dfde bc3d 49f7 83be 425d e93c
000002f0: 430e 32bc 92de 473e b127 6d3e 272f 56be
00000300: 6bd9 31bd 935e 0f3e 877e 213e de3c d43d
00000310: 79d0 3a3e 6396 e9bc b3d7 d7bd dad6 6dbe
00000320: d583 28be 2c5b 9b3d bf4f 5d3d 01e5 13bc
00000330: 9c22 6ebd f890 263e 1735 ff3d 49f5 73bd
00000340: d257 723d 8c9e 513e 51a0 3dbb 8a93 603e
00000350: 6c71 493d d5a6 33be 9baa 3fbd b4a9 44be
00000360: 9c39 c9bd 1253 23be 6f85 a93d 1d12 963d
00000370: 7b0c 613e 8ce2 57bd 11da 5dbe 99cb 9a3d
00000380: c5c3 1d3e de30 c53d 0d91 363d 7519 293e
00000390: b45e 5a3d 1291 f7bd 6b75 b8bd 122e 973c
000003a0: 31ea 793e 97df 033e 39e8 213d 12d6 43be
000003b0: 557a 84bd 6caf 8dbd 8219 1b3e 5e29 5abe
000003c0: 913e 4ebe f3df cebd 69cf 02bd cdfe c9bd
000003d0: 6931 fb3d 9f6a f5bc 6aa6 01be 0db2 053e
000003e0: 5d22 dabd c0ff f53d 1a59 f4bd 802c 1fbe
000003f0: 5f0c 173c 24b5 cabb 8336 03bd 831c a9bc

stat_predictor.cond_mlp.2.bias f4 [16]
-0.06289362 -0.2478475 -0.13403052 -0.12017482 -0.04515569 0.19061355 0.2244587 -0.24000336
0.23838514 -0.21198495 -0.2220269 0.058648963 0.020265888 -0.25174114 0.020191919 -0.21820736
00000000: 5fce 80bd bccb 7dbe 4c3f 09be 371e f6bd
00000010: 2cf5 38bd 3330 433e 80d8 653e 71c3 75be
00000020: 3c1b 743e 9512 59be 055b 63be e539 703d
00000030: a604 a63c 37e4 80be 8669 a53c c071 5fbe

stat_predictor.stat_mlp.0.weight f4 [16, 16]
-0.030991616 0.08349881 0.2024057 0.056386977 -0.008022201 -0.20836495 -0.26123706 -0.19255948
-0.1284433 0.11451832 0.01600882 -0.1040608 -0.016503435 0.18110728 -0.06918768 0.18199986
-0.13511156 0.0069953552 -0.23377179 0.025840407 0.21260704 -0.17866535 0.232347 -0.19221951
-0.23274426 0.2079196 -0.20945497 0.027902834 0.09210159 -0.022233443 0.18806437 0.09836376
0.18206237 0.06425871 0.028668145 -0.12400872 0.20780669 0.22196916 0.044199955 0.11469502
-0.06985315 0.18902172 0.15680021 0.15375075 -0.07511313 -0.11285486 0.101294205 -0.18037052
-0.1965777 -0.102385014 -0.21798843 -0.15460046 -0.06779551 0.1882699 -0.04641326 0.16103207
-0.09478378 -0.014148633 -0.22719228 0.27039135 -0.12150896 -0.1685867 -0.1939817 0.17010029
-0.03847163 -0.25969905 -0.062425323 -0.21642818 0.086535744 -0.19194444 -0.22184546 0.09301865
0.16622144 -0.009067728 -0.032779712 -0.05924013 -0.048590396 0.16144153 -0.1407476 0.21771882
-0.00061828335 0.20769846 0.26663643 0.26342097 -0.04604539 0.016804256 0.08223327 0.033271972
-0.18984523 0.13391721 -0.030311136 -0.107991755 -0.17657168 0.15280408 -0.12195622 0.16420163
0.013187308 0.016039727 -0.18278663 -0.13583177 -0.0951561 -0.09479284 -0.12416556 0.15737839
-0.2295554 -0.14325549 0.06513855 0.037200913 -0.078145534 -0.018452715 -0.1459781 0.0524662
-0.09367791 -0.054173883 0.027522156 0.16033761 0.046262205 0.11185964 -0.09871721 0.14610013
0.119912 0.11751967 0.18562715 -0.22086723 -0.10524103 -0.009622488 -0.0028356614 -0.20280823
-0.16838703 -0.2611764 -0.06668269 0.086828515 0.12227479 0.055478346 -0.09051155 -0.16116902
0.18260966 -0.04823151 -0.09974434 0.15679681 0.13209133 -0.07267986 0.26111814 -0.07474091
0.21606433 0.11263989 -0.16137415 0.17288992 -0.07585799 -0.19924708 -0.08344075 0.22384356
-0.26742452 0.11438881 0.1745175 0.0825716 0.0023547583 -0.113706306 0.007759344 -0.17548075
-0.15902065 -0.26101163 0.043824248 -0.20723099 -0.19782926 -0.0750901 -0.05685542 -0.0984677
0.16240242 0.18523587 0.005258803 0.039626267 -0.17413335 0.10346945 0.13914174 -0.02935994
-0.109670796 0.18595858 -0.13118093 0.031806946 0.17001402 0.08720358 0.024781622 0.17802963
-0.014744518 0.017209148 0.081516095 0.14596403 0.016934197 -0.17773628 0.15928762 -0.11649241
0.06238946 -0.111893356 0.2317871 0.24339326 -0.14772578 -0.123911336 0.17347695 0.18981035
-0.06908139 0.07986753 -0.19790916 0.1484288 0.17715906 0.05511661 0.027209064 -0.097646356
0.099128604 0.05613035 0.09834845 0.21747853 -0.091626756 -0.18049647 -0.23459755 0.22933392
0.07004643 0.008214581 -0.01782475 0.18014143 -0.057215784 0.1921037 0.22009915 0.15898567
0.20161977 0.2220945 -0.15754667 -0.055976573 -0.011813541 -0.23841153 0.09487681 -0.033658694
-0.055384703 -0.1779731 0.21857208 0.11233656 -0.16547737 0.090868436 -0.15667436 -0.050966434
-0.15678841 0.14846969 0.16901278 0.24776836 -0.028594252 0.12550597 0.004424739 -0.11129414
0.06141936 -0.1883121 -0.1367844 0.013925694 0.07320841 0.19227667 0.081168965 0.23408851
00000000: 21e2 fdbc 6d01 ab3d 7143 4f3e 08f6 663d
00000010: 8d6f 03bc 9f5d 55be ddc0 85be 502e 45be
00000020: a486 03be 9588 ea3d ee24 833c d41d d5bd
00000030: 3632 87bc 3074 393e 45b2 8dbd 2c5e 3a3e
00000040: af5a 0abe 4b39 e53b df61 6fbe 43af d33c
00000050: a9b5 593e 0df4 36be 5fec 6d3e 31d5 44be
00000060: 8354 6ebe e0e8 543e 5d7b 56be 7c94 e43c
00000070: c29f bc3d e922 b6bc f293 403e f072 c93d
00000080: 8f6e 3a3e 129a 833d 75d9 ea3c 49f8 fdbd
00000090: 47cb 543e e24b 633e 030b 353d 39e5 ea3d
000000a0: 2b0f 8fbd e98e 413e 3c90 203e d670 1d3e
000000b0: ead4 99bd 7320 e7bd 5673 cf3d 0db3 38be
000000c0: aa4b 49be 3caf d1bd 5c38 5fbe 954f 1ebe
000000d0: 5fd8 8abd d3c9 403e d51b 3ebd 97e5 243e
000000e0: 001e c2bd abcf 67bc 18a5 68be bc70 8a3e
000000f0: b1d9 f8bd fea1 2cbe 24a3 46be c52e 2e3e
00000100: 6e94 1dbd 46f7 84be b2b1 7fbd 599f 5dbe
00000110: a739 b13d 158d 44be 752b 63be 9080 be3d
00000120: f435 2a3e cf90 14bc 0544 06bd c7a5 72bd
00000130: b906 47bd ee50 253e 2420 10be aff1 5e3e
00000140: 4b14 22ba e8ae 543e 9284 883e 1ddf 863e
00000150: 179a 3cbd 14a9 893c eb69 a83d 3148 083d
00000160: ca66 42be 9821 093e 0f4f f8bc c82a ddbd
00000170: 35cf 34be ac78 1c3e 2fc4 f9bd 7924 283e
00000180: 940f 583c bf65 833c 6b2c 3bbe 7c17 0bbe
00000190: 34e1 c2bd c022 c2bd 834a febd cd27 213e
000001a0: 9210 6bbe 91b1 12be 5c67 853d fc5f 183d
000001b0: c40a a0bd 262a 97bc 487b 15be cce6 563d
000001c0: 34da bfbd 6fe5 5dbd 2576 e13c 8b2f 243e
000001d0: 707d 3d3d ab16 e53d 402c cabd 469b 153e
000001e0: 6c94 f53d 27ae f03d 0b15 3e3e 052b 62be
000001f0: 9c88 d7bd a4a7 1dbc 81d6 39bb f6ac 4fbe
00000200: a66d 2cbe eab8 85be ef90 88bd 26d3 b13d
00000210: 356b fa3d 433d 633d 1f5e b9bd 7e09 25be
00000220: 07fe 3a3e 678e 45bd c346 ccbd 588f 203e
00000230: f342 073e 2ed9 94bd 47b1 853e c311 99bd
00000240: f83f 5d3e beaf e63d 443f 25be 0e0a 313e
00000250: 6f5b 9bbd 6d07 4cbe fce2 aabd 3f37 653e
00000260: deeb 88be ae44 ea3d b7b4 323e 4d1b a93d
00000270: 4a52 1a3b dade e8bd 1842 fe3b 3ab1 33be
00000280: 4fd6 22be 51a3 85be 0e81 333d 5c34 54be
00000290: c193 4abe d7c8 99bd 3be1 68bd 6fa9 c9bd
000002a0: d24c 263e 79ae 3d3e 0952 ac3b 274f 223d
000002b0: 0350 32be cae7 d33d 2c7b 0e3e 4284 f0bc
000002c0: 159b e0bd ed6b 3e3e 4b54 06be 0048 023d
000002d0: 2818 2e3e ca97 b23d d402 cb3c 664d 363e
000002e0: fe92 71bc 33fa 8c3c e9f1 a63d 9877 153e
000002f0: 96b9 8a3c 8000 36be 4b1c 233e 9393 eebd
00000300: 178c 7f3d 5828 e5bd 9959 6d3e 153c 793e
00000310: 6d45 17be 3ac5 fdbd f1a3 313e a55d 423e
00000320: 8b7a 8dbd 9691 a33d b3a8 4abe b8fd 173e
00000330: 2f69 353e f4c1 613d 8be5 de3c d0fa c7bd
00000340: f003 cb3d f0e8 653d ea6a c93d b1b2 5e3e
00000350: cfa6 bbbd 11d4 38be 573a 70be 83d6 6a3e
00000360: 8174 8f3d 7396 063c 3605 92bc ff76 383e
00000370: 195b 6abd d5b6 443e ac61 613e 24cd 223e
00000380: 6a75 4e3e be6c 633e ea53 21be b147 65bd
00000390: 958d 41bc 2722 74be c64e c23d b3dd 09bd
000003a0: 12db 62bd 953e 36be 5cd1 5f3e b610 e63d
000003b0: e672 29be 3b19 ba3d 3e6f 20be 2ec2 50bd
000003c0: 248d 20be 7008 183e b011 2d3e fdb6 7d3e
000003d0: 7e3e eabc a384 003e 67fd 903b 2fee e3bd
000003e0: de92 7b3d e3d4 40be 3611 0cbe 9828 643c
000003f0: 4aee 953d 2de4 443e ea3b a63d e6b4 6f3e

stat_predictor.stat_mlp.0.bias f4 [16]
-0.22944666 0.067042336 0.007445038 -0.033871952 -0.12042827 0.15407918 0.059240587 -0.13792355
0.13890211 -0.0017334512 0.1305401 -0.19744033 -0.07654542 -0.013840405 -0.055505723 0.028296357
00000000: 11f4 6abe 7e4d 893d 81f5 f33b 51bd 0abd
00000010: 19a3 f6bd efc6 1d3e 42a6 723d d53b 0dbe
00000020: 5b3c 0e3e f834 e3ba 4eac 053e cc2d 4abe
00000030: d8c3 9cbd dec2 62bc f859 63bd c3cd e73c

stat_predictor.stat_mlp.2.weight f4 [2, 16]
-0.25278312 0.12786113 0.19290467 -0.0075479066 0.19305651 -0.1900071 -0.099908315 -0.044892777
0.13149163 -0.21523637 0.10163553 0.15725718 -0.027572552 -0.16301052 -0.22406988 -0.17716627
0.02020027 -0.118760966 -0.028788852 0.24517833 -0.050849017 -0.18685842 -0.13971521 -0.26947263
-0.13721748 -0.2495465 0.18189088 -0.13969941 -0.103877 -0.24428582 0.16437657 -0.03317663
00000000: ca6c 81be 07ee 023e cd88 453e 6e54 f7bb
00000010: 9bb0 453e 3991 42be bb9c ccbd 7de1 37bd
00000020: bea5 063e ec66 5cbe 4a26 d03d 0708 213e
00000030: d5df e1bc 3bec 26be 9372 65be 136b 35be
00000040: 097b a53c f338 f3bd 99d6 ebbc 0710 7b3e
00000050: 0f47 50bd d057 3fbe 8111 0fbe 51f8 89be
00000060: bd82 0cbe 1e89 7fbe 9a41 3a3e 5d0d 0fbe
00000070: 77bd d4bd 1026 7abe 5552 283e 38e4 07bd

stat_predictor.stat_mlp.2.bias f4 [2]
0.0025809638 0.110102735
00000000: 6325 293b 8b7d e13d

unet.init_conv.weight f4 [8, 1, 3]
0.31118143 -0.19218998 0.00986505 0.16194569 0.22693197 0.054180704 0.5515442 -0.56701094
-0.08709728 0.49525914 0.47337583 0.22156897 -0.2546066 0.55995524 0.36217347 0.4296264
0.35463193 0.1703904 -0.40968502 -0.545692 0.13135293 -0.11022289 0.28940576 -0.07818521
00000000: 2c53 9f3e 73cd 44be 05a1 213c 17d5 253e
00000010: db60 683e 96ec 5d3d 0032 0d3f a127 11bf
00000020: 0f60 b2bd 9b92 fd3e 515e f23e fae2 623e
00000030: cc5b 82be 3a59 0f3f cd6e b93e fef7 db3e
00000040: 5192 b53e d27a 2e3e 3cc2 d1be 79b2 0bbf
00000050: 6281 063e 8abc e1bd fe2c 943e 911f a0bd

unet.init_conv.bias f4 [8]
0.4398557 -0.2981996 0.5542512 -0.2566195 0.090773985 0.54114944 -0.4751226 0.14550516
00000000: c434 e13e 9ead 98be 68e3 0d3f a263 83be
00000010: b6e7 b93d c588 0a3f 4543 f3be 4eff 143e

unet.time_mlp.0.weight f4 [64, 16]
-0.1945994 0.062058847 0.11543299 0.05512831 0.2017991 -0.0969541 -0.015335426 -0.20940077
0.08997842 -0.021710936 -0.23444982 0.13284978 -0.11161627 -0.18778926 -0.07035454 0.22814561
-0.1592768 0.0022751265 -0.012592443 0.081345916 -0.028800089 -0.10882657 0.05828131 0.18481909
0.09899812 0.05529717 -0.25180238 0.085807174 -0.11416369 -0.1517823 -0.114029825 0.24660052
-0.17173508 0.02017215 0.07995642 -0.11852801 0.08500109 -0.024453413 -0.10173866 -0.26532114
-0.08916096 0.08626435 0.25169224 -0.16355015 0.21136524 -0.13335021 0.05848571 -0.05811317
-0.15152252 -0.23431961 0.13203925 0.028736057 -0.027283836 0.09045363 -0.099311076 0.03915987
-0.031458423 -0.123225085 -0.14788738 0.2693011 -0.15496077 -0.030701691 0.091818966 -0.13490804
0.03791916 0.24913852 0.048214797 -0.16122139 0.0029421397 0.14623307 0.2321988 0.23736998
-0.061479222 0.15007012 -0.08259934 0.096137226 0.028193288 0.12541832 0.04872127 0.18956834
0.061196722 0.026053982 0.09272158 0.09064773 -0.09437134 0.039288756 0.13517615 0.016889054
0.14022654 -0.1658172 0.19209374 -0.06080573 -0.17843136 0.07693441 -0.17129195 0.25014755
-0.20552059 -0.091724515 0.19335823 -0.123034716 -0.055156942 0.08901518 -0.025378916 0.2205723
0.10712784 0.07420749 -0.14963305 -0.087975726 0.017112222 -0.22576551 -0.07625266 -0.0028071953
-0.17390254 -0.16073702 -0.051519137 0.211568 -0.02716931 -0.12488305 -0.19708818 -0.19961707
0.11885691 -0.091463394 -0.050510705 0.054983385 0.17745453 -0.14796907 -0.03567986 0.0945195
-0.019975023 -0.21989386 -0.012406514 -0.04656608 0.21126623 0.21515147 -0.2323883 -0.22489141
0.2408929 -0.078852415 0.08317719 0.12511285 0.067482986 -0.034006894 0.24571663 -0.21957844
0.006147066 -0.014099091 -0.22093365 -0.2615023 0.22997187 0.15881002 -0.09603824 0.10043191
0.07047838 0.050926447 0.11070458 -0.03257507 -0.20117041 0.142695 -0.12600031 -0.015447473
-0.23774226 -0.09529895 -0.22731097 0.17639863 -0.24304658 0.2267432 -0.08011536 0.07079627
-0.20636249 -0.18282324 0.23490669 0.09747008 0.09468057 0.09448814 -0.010676931 0.1722291
-0.15559788 -0.01247237 -0.203185 -0.22304976 -0.17138804 0.051681444 0.18905403 0.03373572
0.000939911 -0.18153673 -0.032365963 -0.19531435 -0.0046635615 0.0077269147 0.20157614 -0.05608634
-0.18689345 -0.1676467 -0.012965621 0.10434887 -0.066306494 0.002732329 0.11557915 -0.20904513
0.09658755 0.061964285 0.11201567 0.027415045 -0.24522726 -0.2323661 -0.076681875 -0.18011022
-0.12146504 -0.08290217 0.13070573 -0.040975716 -0.1742181 0.03181053 0.16588014 0.17973576
-0.24965444 -0.036133233 -0.18292502 0.06997137 0.055385426 0.106409445 0.06370139 -0.054870047
0.108104356 -0.010677983 0.15240124 -0.16658609 0.069613464 -0.110526286 0.021595396 -0.18494116
-0.037544873 0.22876896 0.095053874 0.11878103 -0.18279374 0.23228286 -0.22348559 0.23926778
-0.16749541 0.0947345 0.16133514 0.18069248 0.18798968 0.15047884 0.23748937 -0.037074007
-0.07008058 -0.21302465 -0.05835131 0.24407701 -0.00661686 0.22477952 -0.051632755 0.09635116
00000000: 1145 47be 6b31 7e3d 2268 ec3d 39ce 613d
00000010: 6ca4 4e3e df8f c6bd 7041 7bbc 286d 56be
00000020: 9b46 b83d 22db b1bc 9d13 70be c609 083e
00000030: 1297 e4bd d44b 40be 0b16 90bd 019f 693e
00000040: 7519 23be 4a1a 153b 8950 4ebc b098 a63d
00000050: 2aee ebbc 77e0 debd 62b8 6e3d 3741 3d3e
00000060: 87bf ca3d 497f 623d 3eec 80be acbb af3d
00000070: a7ce e9bd d26c 1bbe 7888 e9bd d984 7c3e
00000080: 52db 2fbe 1140 a53c 31c0 a33d d0be f2bd
00000090: 0d15 ae3d 8652 c8bc 5c5c d0bd 2cd8 87be
000000a0: 059a b6bd 5dab b03d cedd 803e b179 27be
000000b0: 2170 583e f58c 08be b68e 6f3d 1308 6ebd
000000c0: b828 1bbe 7bf1 6fbe 4c35 073e e167 eb3c
000000d0: 5a82 dfbc c13f b93d 9b63 cbbd 1a66 203d
000000e0: 8cda 00bd 6f5d fcbd ca6f 17be d5e1 893e
000000f0: 09ae 1ebe 1d82 fbbc 950b bc3d 5525 0abe
00000100: 1f51 1b3d 2b1e 7f3e e17c 453d 3817 25be
00000110: ead0 403b 1fbe 153e 86c5 6d3e 1e11 733e
00000120: a3d1 7bbd fbab 193e d829 a9bd 98e3 c43d
00000130: 9cf5 e63c a96d 003e f48f 473d 341e 423e
00000140: 6aa9 7a3d 296f d53c d0e4 bd3d 84a5 b93d
00000150: c345 c1bd 3fed 203d 9e6b 0a3e ea5a 8a3c
00000160: 8c97 0f3e fccb 29be 39b4 443e 6e0f 79bd
00000170: b6b6 36be ca8f 9d3d 2867 2fbe 5713 803e
00000180: fd73 52be 10da bbbd b3ff 453e a0f9 fbbd
00000190: 3fec 61bd 974d b63d 72e7 cfbc b4dd 613e
000001a0: d765 db3d 19fa 973d 6839 19be 9e2c b4bd
000001b0: ee2e 8c3c 132f 67be 5b2a 9cbd ecf8 37bb
000001c0: 8213 32be 3f98 24be bb05 53bd 48a5 583e
000001d0: 2c92 debc afc2 ffbd 7cd1 49be 6b68 4cbe
000001e0: 406b f33d 2951 bbbd 50e4 4ebd 4236 613d
000001f0: a4b6 353e 3485 17be 0b25 12bd 7193 c13d
00000200: a9a2 a3bc db2b 61be b144 4bbc 13bc 3ebd
00000210: 2d56 583e ab50 5c3e 33f7 6dbe ef49 66be
00000220: a1ac 763e 607d a1bd cd58 aa3d 951d 003e
00000230: 8534 8a3d d04a 0bbd 249d 7b3e 2cd9 60be
00000240: 546d c93b e0ff 66bc 6e3c 62be a1e3 85be
00000250: bf7d 6b3e 189f 223e b2af c4bd 3faf cd3d
00000260: f856 903d 4098 503d 15b9 e23d 706d 05bd
00000270: 9eff 4dbe a31e 123e 3a06 01be 6617 7dbc
00000280: b572 73be 192c c3bd 35c4 68be d8a1 343e
00000290: 34e1 78be 5f2f 683e 8613 a4bd a3fd 903d
000002a0: b050 53be 0436 3bbe 618b 703e 659e c73d
000002b0: e3e7 c13d ff82 c13d 4bee 2ebc d35c 303e
000002c0: 0d55 1fbe e958 4cbc bb0f 50be 2867 64be
000002d0: 5980 2fbe ecaf 533d 6197 413e 772e 0a3d
000002e0: 5c64 763a c4e4 39be 2c92 04bd 7c00 48be
000002f0: cad0 98bb 0f32 fd3b fa69 4e3e caba 65bd
00000300: ff60 3fbe 94ab 2bbe c26d 54bc dcb4 d53d
00000310: b3cb 87bd e010 333b c3b4 ec3d ed0f 56be
00000320: b2cf c53d 43ce 7d3d 7968 e53d 8495 e03c
00000330: db1c 7bbe 61f1 6dbe 630b 9dbd d06e 38be
00000340: aac2 f8bd 9dc8 a9bd b9d7 053e 27d6 27bd
00000350: 3b66 32be c24b 023d 7cdc 293e a70c 383e
00000360: 6aa5 7fbe 7100 14bd b250 3bbe 264d 8f3d
00000370: d4db 623d 32ed d93d e075 823d 6abf 60bd
00000380: d165 dd3d b5f2 2ebc 120f 1c3e 8b95 2abe
00000390: 8191 8e3d 9b5b e2bd d4e8 b03c 3761 3dbe
000003a0: a7c8 19bd 6942 6a3e 9bab c23d 7843 f33d
000003b0: 482e 3bbe 8fdb 6d3e 68d9 64be 9d02 753e
000003c0: eb83 2bbe 2904 c23d 0a35 253e 7307 393e
000003d0: 5e80 403e 2017 1a3e 6a30 733e eada 17bd
000003e0: 6886 8fbd 2223 5abe c901 6fbd 53ef 793e
000003f0: 3fd2 d8bb 9a2c 663e de7c 53bd c253 c53d

unet.time_mlp.0.bias f4 [64]
0.21947092 0.17960122 -0.18676642 0.10084826 -0.03619233 0.15927462 0.13041033 -0.113955036
-0.057202276 0.19554256 0.13190067 0.16143224 -0.17164138 0.119573206 0.010342477 0.1470074
-0.025515357 -0.118322805 -0.13668725 -0.044861313 -0.1587334 -0.17401412 -0.23327444 0.082106546
-0.22546765 0.027314268 0.075639874 -0.06511987 -0.13768531 0.1066279 -0.26417002 0.054206047
0.21735366 0.10972626 0.19147824 0.13144818 -0.14544757 0.121981576 0.1835475 -0.05558788
0.11844497 0.027266951 -0.009926236 0.04623446 0.17510167 0.018638002 0.20494677 -0.12649247
-0.09988351 -0.116940424 0.022800568 0.20945442 -0.02258198 0.011400681 -0.071159594 0.081678316
0.16577667 -0.22003609 0.06134304 0.030042937 0.08998676 0.2537752 -0.21120492 0.20213766
00000000: fcbc 603e 62e9 373e b23f 3fbe 8889 ce3d
00000010: 693e 14bd e318 233e 498a 053e 4261 e9bd
00000020: ef4c 6abd 4f3c 483e f810 073e 7e4e 253e
00000030: c2c2 2fbe cce2 f43d 7e73 293c 1c89 163e
00000040: 9505 d1bc 3a53 f2bd bef7 0bbe 7fc0 37bd
00000050: 028b 22be c230 32be 7fdf 6ebe 7a27 a83d
00000060: fee0 66be 2cc2 df3c 14e9 9a3d 915d 85bd
00000070: 61fd 0cbe ba5f da3d 4b41 87be 2907 5e3d
00000080: f591 5e3e 29b8 e03d df12 443e 5a9a 063e
00000090: 35f0 14be 7ad1 f93d e0f3 3b3e 1eb0 63bd
000000a0: 4793 f23d f15e df3c a7a1 22bc 5860 3d3d
000000b0: da4d 333e b9ae 983c 91dd 513e 3e87 01be
000000c0: ba8f ccbd 767e efbd 42c8 ba3c 387b 563e
000000d0: d8fd b8bc ecc9 3a3c 1fbc 91bd f646 a73d
000000e0: 5cc1 293e 2451 61be d742 7b3d 9b1c f63c
000000f0: fa4a b83d d3ee 813e 1a46 58be 2dfd 4e3e

unet.time_mlp.2.weight f4 [16, 64]
0.027395714 -0.0010378456 -0.0034384811 0.0007182193 0.0013535345 -0.11760006 -0.037652038 0.111872874
-0.10015126 -0.1164619 0.023046752 -0.045851406 -0.04029723 -0.046511002 0.096751936 0.000741655
-0.05676008 -0.09114675 -0.057843283 0.066007935 -0.037322715 0.009976362 0.048190106 -0.096116304
-0.016654175 0.0004240158 0.10412397 0.10254307 0.02308438 0.013543675 -0.10541909 0.029561989
-0.08429153 0.09229669 0.010720011 0.093327515 -0.1181512 0.09377753 0.086835355 0.10297048
0.038623933 -0.100526206 -0.010562424 0.110908516 -0.026442133 0.084249035 -0.016131485 -0.09852896
0.05671286 0.061560836 -0.09418148 0.07746408 0.0946653 -0.016229743 -0.0403393 0.07639145
0.06260593 -0.010961997 -0.07015765 0.07472045 0.054022323 -0.04025631 -0.09701214 0.020668231
-0.018752515 0.005279779 0.054647274 0.089100175 0.052742403 0.07947524 0.013659991 0.11647049
0.016319614 -0.04358288 -0.08653808 0.1134044 -0.13634947 0.13926192 0.089628264 0.0736966
-0.048512984 -0.02635524 0.034955602 0.043029834 0.10352829 0.032287054 -0.11242672 -0.06309971
0.05607279 -0.055123206 0.13031691 -0.05611398 0.040788498 0.042192694 -0.04253562 0.07103962
-0.08793149 -0.05636831 -0.12340687 -0.10380988 -0.07260127 0.06475358 -0.035200175 0.009035165
-0.100305006 -0.0013150584 -0.08384192 -0.031390563 0.08882209 -0.046388645 -0.013969974 -0.09608439
0.084551714 0.014316313 0.09039071 -0.044624712 0.11100166 -0.0969116 -0.05750178 0.04984969
0.063915566 0.09998304 -0.052687366 0.08005212 0.011187873 0.050123505 0.08247907 0.12709068
-0.096877836 -0.09904605 -0.028200895 -0.031601924 0.028313385 0.1317961 0.035409868 0.007487692
-0.054040674 0.0537509 -0.06493746 0.00031613716 -0.08446995 0.037009254 -0.051258024 0.0491773
-0.048101738 0.0031370434 0.04741106 0.09435641 0.10722807 0.1102633 -0.062491044 0.012028781
-0.038833637 0.0897845 0.0041375225 0.13060237 -0.1059569 0.030357514 0.071032114 -0.114378124
-0.085697256 0.11172568 0.055918153 -0.110417396 -0.06651067 0.024394706 0.003984008 0.023937235
0.101916164 0.09149856 -0.051130403 0.115838215 0.031742543 -0.057276074 0.012322616 -0.10620231
-0.112783976 -0.050380822 0.112986945 -0.048645873 -0.06229833 0.10506778 0.12168286 -0.009320581
-0.004096293 0.027757838 -0.004232838 -0.12095478 0.09512209 -0.0063921288 -0.07073874 0.04673568
0.019325403 -0.003510205 0.00484619 0.03314908 -0.04179931 0.09056328 0.04088604 0.04930441
-0.07054147 0.088251315 0.12536992 0.03104063 0.027160473 0.08676043 0.0759902 0.06734523
-0.059608255 -0.07228646 -0.010629026 0.059312552 0.05770081 -0.09367795 0.006453297 -0.09155966
0.00058790215 -0.058173403 0.108714856 -0.022873271 0.0017936362 0.013364606 -0.034385923 0.088555954
0.13220383 -0.119515724 0.03296524 -0.011091127 -0.11503852 0.04156929 0.031764563 0.022040408
0.050012708 0.085613064 0.08758811 -0.0004348791 -0.018693175 -0.034806978 -0.06697325 -0.037802637
-0.007134359 0.045605466 0.0025964023 0.06510656 0.10167954 -0.13686746 -0.09025742 0.0497165
-0.07503636 0.04575675 -0.10192457 -0.08870047 -0.01018844 0.033044398 0.104086354 -0.024506498
00000000: fa6c e03c 5208 88ba 2458 61bb e246 3c3a
00000010: 1569 b13a 4dd8 f0bd 0639 1abd 9b1d e53d
00000020: 1b1c cdbd 9483 eebd 8bcc bc3c afce 3bbd
00000030: b50e 25bd 5282 3ebd e125 c63d a06b 423a
00000040: 427d 68bd 26ab babd 14ed 6cbd 2b2f 873d
00000050: b4df 18bd e573 233c fd62 453d a0d8 c4bd
00000060: 566e 88bc 704e de39 f33e d53d 1a02 d23d
00000070: 741b bd3c 4ae6 5d3c f7e5 d7bd fc2b f23c
00000080: 0aa1 acbd 0c06 bd3d fca2 2f3c 7f22 bf3d
00000090: 42f9 f1bd 6f0e c03d bcd6 b13d 30e2 d23d
000000a0: 2134 1e3d afe0 cdbd 040e 2dbc 0124 e33d
000000b0: 2c9d d8bc c28a ac3d 2d26 84bc 8dc9 c9bd
000000c0: be4b 683d 3727 7c3d 38e2 c0bd 7da5 9e3d
000000d0: e1df c13d 3df4 84bc d23a 25bd 1f73 9c3d
000000e0: 8a37 803d f399 33bc d0ae 8fbd 0907 993d
000000f0: 8346 5d3d cde3 24bd 4dae c6bd 6c50 a93c
00000100: e09e 99bc ff01 ad3b d2d5 5f3d 277a b63d
00000110: 6b08 583d eac3 a23d 28ce 5f3c 1588 ee3d
00000120: b6b0 853c f683 32bd e03a b1bd 9140 e83d
00000130: 329f 0bbe ad9a 0e3e 068f b73d 3eee 963d
00000140: 8db5 46bd f2e6 d7bc 9b2d 0f3d 0d40 303d
00000150: a406 d43d 6e3f 043d fb3f e6bd 6c3a 81bd
00000160: 95ac 653d dfc8 61bd cc71 053e c6d7 65bd
00000170: d711 273d 3fd2 2c3d d539 2ebd 387d 913d
00000180: 6d15 b4bd 75e2 66bd bebc fcbd 469a d4bd
00000190: faaf 94bd 869d 843d 0f2e 10bd 3b08 143c
000001a0: b66c cdbd 0a5e acba 50b5 abbd 6493 00bd
000001b0: 5be8 b53d 0502 3ebd 51e2 64bc e5c7 c4bd
000001c0: 7329 ad3d f88e 6a3c c41e b93d 67c8 36bd
000001d0: d754 e33d 9779 c6bd fd86 6bbd 302f 4c3d
000001e0: 2ae6 823d e8c3 cc3d b5ce 57bd 5ef2 a33d
000001f0: 574d 373c 4e4e 4d3d c9ea a83d 0f24 023e
00000200: e367 c6bd a8d8 cabd 9005 e7bc 0571 01bd
00000210: 79f1 e73c 8ff5 063e f009 113d 505b f53b
00000220: c159 5dbd e729 5c3d eefd 84bd 36bf a539
00000230: 95fe acbd 0497 173d eff3 51bd 236e 493d
00000240: 5406 45bd db96 4d3b 1a32 423d ef3d c13d
00000250: 649a db3d bad1 e13d 9cf6 7fbd 5d14 453c
00000260: 0510 1fbd f0e0 b73d 0e94 873b a1bc 053e
00000270: eeff d8bd 52b0 f83c 4979 913d 143f eabd
00000280: 0b82 afbd 6fd0 e43d 6f0a 653d 8422 e2bd
00000290: bf36 88bd 68d7 c73c 488c 823b 0518 c43c
000002a0: 6cb9 d03d 9963 bb3d 1d6e 51bd 963c ed3d
000002b0: 7804 023d 519a 6abd cce4 493c 9980 d9bd
000002c0: 49fb e6bd 1f5c 4ebd b365 e73d e540 47bd
000002d0: 892c 7fbd c72d d73d dd34 f93d 5ab5 18bc
000002e0: 323a 86bb 6864 e33c 9eb3 8abb 24b7 f7bd
000002f0: 5fcf c23d 1075 d1bb 79df 90bd ea6d 3f3d
00000300: 4f50 9e3c 780b 66bb cacc 9e3b 54c7 073d
00000310: c135 2bbd 3e79 b93d 1f78 273d 6cf3 493d
00000320: 0c78 90bd 1bbd b43d f960 003e eb48 fe3c
00000330: a47f de3c 74af b13d c0a0 9b3d 4cec 893d
00000340: c927 74bd ec0a 94bd 5e25 2ebc b8f1 723d
00000350: af57 6c3d 3ada bfbd 2e76 d33b a283 bbbd
00000360: 721d 1a3a 3c47 6ebd e5a5 de3d ba60 bbbc
00000370: 7218 eb3a 38f7 5a3c 41d8 0cbd d35c b53d
00000380: 7160 073e a9c4 f4bd 8f06 073d 8fb7 35bc
00000390: 5199 ebbd 8f44 2a3d 8f1b 023d 168e b43c
000003a0: 20da 4c3d e755 af3d 6561 b33d 7c00 e4b9
000003b0: 6e22 99bc c391 0ebd 4529 89bd f0d6 1abd
000003c0: 57c7 e9bb cccc 3a3d 6728 2a3b 9756 853d
000003d0: 5d3d d03d fc26 0cbe e2d8 b8bd 87a3 4b3d
000003e0: aaac 99bd 6e6b 3b3d d4bd d0bd 98a8 b5bd
000003f0: 6aed 26bc 9059 073d 3a2b d53d dac1 c8bc

unet.time_mlp.2.bias f4 [16]
0.06611018 0.02171458 0.05613576 -0.078487955 0.06297042 0.10707857 0.13489412 0.020431252
-0.09831872 0.08344434 -0.09405146 0.009703131 0.0019314677 -0.104610816 -0.059680976 -0.13403498
00000000: c664 873d c6e2 b13c 9cee 653d 4bbe a0bd
00000010: a3f6 803d 024c db3d af21 0a3e 715f a73c
00000020: 535b c9bd dee4 aa3d 0d9e c0bd e2f9 1e3c
00000030: 4d29 fd3a 323e d6bd 0a74 74bd 7740 09be

unet.cond_mlp.0.weight f4 [16, 32]
-0.12106106 0.12333347 0.18190362 0.04466918 0.11748234 0.09576544 0.0621409 0.058360964
-0.06303593 -0.12817918 0.13628113 -0.095142014 0.13086276 -0.09777675 -0.032458056 0.119714595
0.13985324 0.0155965155 -0.147828 0.060946938 -0.042997308 -0.10710025 0.04650766 0.098788515
-0.062283218 0.11867807 0.077530675 0.10471499 0.00839185 -0.17414044 -0.17153034 -0.0063992813
-0.10385125 -0.1089947 -0.020900896 -0.04929459 0.057559773 0.04920462 0.059752766 0.1025238
0.045695722 0.09434477 0.15461686 0.12348149 -0.04803763 -0.16029866 -0.0012487606 -0.018702663
-0.12026074 -0.007797066 -0.061287325 0.0910797 -0.14691325 -0.10866297 0.018272182 -0.08162754
-0.014247163 0.08515017 0.11243842 0.0710129 0.10010562 0.07365695 0.083281085 0.12222755
0.05939114 -0.11907534 0.016193274 -0.17285395 -0.052031804 -0.14820045 0.12573947 0.0020086942
-0.0019651894 -0.1628356 0.015444603 0.17251512 0.019893104 -0.0022556058 0.13794483 -0.11793915
0.055053174 0.015575011 0.07577669 -0.11457625 -0.104361445 -0.12839182 -0.07483989 0.07244652
-0.19385298 -0.14540438 -0.15873687 -0.15574586 0.013812252 0.18255253 -0.09651221 -0.13973697
-0.15030052 -0.020837257 0.05403923 -0.07630746 0.09351573 0.11205386 -0.14349978 0.087202616
0.14143594 0.008756931 -0.04906891 -0.01796492 -0.082422525 0.08064743 0.11004329 0.13495263
0.015913997 -0.039683715 -0.021472918 -0.04023269 0.09704543 0.026618632 -0.04697329 -0.12388603
0.026877912 -0.020212615 -0.1307683 -0.065288134 0.05362706 -0.16270566 -0.15600568 0.13806906
0.12397243 0.16552894 0.087404534 0.18247204 0.15760179 -0.1076435 -0.109857686 0.0043769153
0.15384112 -0.16548313 0.15027036 -0.13274258 0.08669587 -0.15342297 0.06081169 -0.0008597749
-0.13286872 0.044449918 0.07149089 -0.07784126 -0.053286824 -0.018827336 0.1325878 -0.12794876
0.13939679 0.030076765 -0.02643919 0.040901344 -0.004479785 0.11490223 0.06717084 0.060415845
0.15156135 0.079259 0.121035144 0.10647871 0.0037944051 0.14977075 0.06444423 -0.10015518
-0.14034474 0.1373034 -0.15790449 -0.06742984 -0.12117139 0.11334067 0.068052664 -0.016718088
-0.004879804 -0.06633035 0.17868116 -0.07388999 -0.087987356 0.13072285 -0.14302124 -0.13657767
0.04104579 -0.032047708 -0.07528483 0.033394665 0.09860287 0.036809064 0.13775061 0.006370619
0.11465345 0.09456033 -0.060296528 0.16091268 -0.14786036 -0.010831213 0.13586792 -0.17750101
-0.10261287 -0.15681152 0.008437088 0.052551813 0.07730137 -0.050356694 0.04617211 0.15459438
-0.18065847 0.15239568 0.053751864 0.032056212 0.18697079 -0.12640971 -0.01884382 -0.11716613
0.17470539 0.015873712 -0.12802011 -0.14218827 0.101463795 0.099728815 -0.097067386 -0.09118084
0.16010614 0.029805355 0.107705556 0.08833379 0.08360043 0.15691966 0.07625019 0.06916977
-0.13156267 0.1662134 -0.092917755 0.12230375 -0.1889768 -0.049294427 0.033199593 0.17724451
0.06492702 0.023636764 -0.07263922 -0.16493943 0.14938582 -0.019471195 0.15925272 0.084641255
-0.062049866 0.15645143 0.09518372 -0.0004891826 0.10307597 0.14880028 -0.12231788 0.03437731
00000000: dcee f7bd 4296 fc3d f144 3a3e 08f7 363d
00000010: 959a f03d ac20 c43d 7587 7e3d e80b 6f3d
00000020: fb18 81bd 6741 03be 488d 0b3e d1d9 c2bd
00000030: e300 063e 2d3f c8bd bdf2 04bd ed2c f53d
00000040: b035 0f3e 8788 7f3c 3960 17be 7fa3 793d
00000050: f21d 30bd 6057 dbbd d17e 3e3d a251 ca3d
00000060: b01c 7fbd 7d0d f33d 67c8 9e3d d074 d63d
00000070: f87d 093c df51 32be a6a5 2fbe 10b1 d1bb
00000080: f7af d4bd 9d38 dfbd 5b38 abbc 20e9 49bd
00000090: ccc3 6b3d c98a 493d 51bf 743d 00f8 d13d
000000a0: 702b 3b3d d537 c13d e253 1e3e dde3 fc3d
000000b0: 1bc3 44bd 5525 24be 74ad a3ba 5436 99bc
000000c0: 434b f6bd 887e ffbb 6b08 7bbd fe87 ba3d
000000d0: 6d70 16be b18a debd 8baf 953c 572c a7bd
000000e0: ef6c 69bc 3663 ae3d 1d46 e63d 366f 913d
000000f0: 2d04 cd3d 74d9 963d 468f aa3d 7052 fa3d
00000100: 2044 733d c6dd f3bd c2a7 843c a000 31be
00000110: 4d1f 55bd dcc1 17be d9c1 003e 4ca4 033b
00000120: 68ca 00bb 60be 26be 5c0b 7d3c cea7 303e
00000130: ddf6 a23c c9d2 13bb 6941 0d3e 158a f1bd
00000140: 707f 613d 552e 7f3c cf30 9b3d f4a6 eabd
00000150: 74bb d5bd 2579 03be a845 99bd d75e 943d
00000160: 6581 46be e3e4 14be eb8b 22be d87b 1fbe
00000170: c94c 623c 0def 3a3e 32a8 c5bd 3517 0fbe
00000180: 61e8 19be e5b2 aabc 3d58 5d3d 1647 9cbd
00000190: 2d85 bf3d 7f7c e53d 9bf1 12be 4997 b23d
000001a0: 95d4 103e 3b79 0f3c 7bfc 48bd 2b2b 93bc
000001b0: 24cd a8bd 7b2a a53d 605e e13d 0631 0a3e
000001c0: 125e 823c 648b 22bd f9e7 afbc 08cb 24bd
000001d0: c1bf c63d 510f da3c 1167 40bd f5b7 fdbd
000001e0: 112f dc3c ed94 a5bc 20e8 05be c9b5 85bd
000001f0: 0ca8 5b3d 509c 26be f4bf 1fbe fa61 0d3e
00000200: 42e5 fd3d 6b80 293e 2601 b33d f3d9 3a3e
00000210: 5d62 213e 3274 dcbd 11fd e0bd 3a6c 8f3b
00000220: 8788 1d3e 6974 29be 79e0 193e aced 07be
00000230: 9b8d b13d e91a 1dbe ae15 793d 8462 61ba
00000240: bd0e 08be 1e11 363d d169 923d 3d6b 9fbd
00000250: 4943 5abd c93b 9abc 19c5 073e 0005 03be
00000260: 08be 0e3e 8c63 f63c 0097 d8bc 2b88 273d
00000270: 29cb 92bb dc51 eb3d de90 893d 9b76 773d
00000280: e632 1b3e 8b52 a23d 46e1 f73d 8311 da3d
00000290: 8eab 783b 815d 193e 56fb 833d 291e cdbd
000002a0: 88b6 0fbe 4399 0c3e b7b1 21be a818 8abd
000002b0: b528 f8bd 271f e83d 325f 8b3d 5ff4 88bc
000002c0: c3e6 9fbb 35d8 87bd 32f8 363e a353 97bd
000002d0: b732 b4bd 36dc 053e 2974 12be 04db 0bbe
000002e0: a11f 283d 7544 03bd ef2e 9abd d8c8 083d
000002f0: 4df0 c93d 1ac5 163d 7f0e 0d3e a0c0 d03b
00000300: 6ecf ea3d d9a8 c13d 7ef9 76bd 4bc6 243e
00000310: b568 17be 6675 31bc f620 0b3e d3c2 35be
00000320: b226 d2bd 3393 20be b63b 0a3c 9240 573d
00000330: 2e50 9e3d d242 4ebd f71e 3d3d fd4d 1e3e
00000340: 89fe 38be 9d0d 1c3e ea2a 5c3d 604d 033d
00000350: 4575 3f3e 8c71 01be 5b5e 9abc ccf4 efbd
00000360: f8e5 323e 9609 823c b417 03be cd99 11be
00000370: 40cc cf3d 9f3e cc3d 44cb c6bd 05bd babd
00000380: ddf2 233e 5c2a f43c bb94 dc3d 59e8 b43d
00000390: b436 ab3d 8caf 203e 0f29 9c3d e1a8 8d3d
000003a0: 5db8 06be d833 2a3e aa4b bebd 637a fa3d
000003b0: 2283 41be f4e8 49bd 4cfc 073d 967f 353e
000003c0: 75f8 843d e3a1 c13c dfc3 94bd e2e5 28be
000003d0: 99f8 183e 0e82 9fbc 2513 233e 6558 ad3d
000003e0: 0028 7ebd ce34 203e afef c23d 7d3c 00ba
000003f0: 7f19 d33d 1a5f 183e cc81 fabd 39cf 0c3d

unet.cond_mlp.0.bias f4 [16]
-0.06390101 0.058220647 -0.11099785 -0.13068438 0.13925333 -0.00048464542 0.018316286 -0.08922988
0.18194374 0.15496828 0.034843054 0.06617599 0.11759331 0.14691202 -0.1783989 -0.18214864
00000000: 88de 82bd c678 6e3d d752 e3bd 20d2 05be
00000010: 6d98 0e3e 0218 feb9 090c 963c 28be b6bd
00000020: 764f 3a3e 01b0 1e3e 97b7 0e3d 4787 873d
00000030: c3d4 f03d 1b70 163e 34ae 36be 2c85 3abe
