src/logs_example/run_20250719_212300_ws10_fd1_ed16_bc8_rb1_nt50_s0.008_sw100_lr0.001_bs32_06a3dce6/model_run_20250719_212300_ws10_fd1_ed16_bc8_rb1_nt50_s0.008_sw100_lr0.001_bs32_06a3dce6.pt (torch, 35459 bytes, 32 tensors)

betas f4 [50]
0.001747489 0.003688991 0.0056337714 0.007585764 0.0095489025 0.011526883 0.013524234 0.015544534
0.01759255 0.019673109 0.021790743 0.023950815 0.026158988 0.028421521 0.030744493 0.033135474
0.035602212 0.03815353 0.040798843 0.04354924 0.046416342 0.04941398 0.05255717 0.055863857
0.05935359 0.06304985 0.06697893 0.07117188 0.07566583 0.08050352 0.085736334 0.09142703
0.09765023 0.10449803 0.11208534 0.120556235 0.13009268 0.14093208 0.15338635 0.16787475
0.18497169 0.20549464 0.23063338 0.26219916 0.30307245 0.3581307 0.43622243 0.5548348
0.7497583 0.999
00000000: 000c e53a 00c3 713b 809b b83b 0092 f83b
00000010: 0073 1c3c 40db 3c3c c094 5d3c 80ae 7e3c
00000020: 401e 903c 8029 a13c 8082 b23c 8034 c43c
00000030: 604b d63c 40d4 e83c e0db fb3c 10b9 073d
00000040: a0d3 113d e046 1c3d b01c 273d b060 323d
00000050: 101f 3e3d 5066 4a3d 3046 573d 80d1 643d
00000060: c01c 733d 4820 813d 402c 893d 90c2 913d
00000070: b0f6 9a3d 08df a43d 8896 af3d 183e bb3d
00000080: d8fc c73d 1003 d63d 008d e53d 30e6 f63d
00000090: 0437 053e 8050 103e 5011 1d3e 5ce7 2b3e
000000a0: 3869 3d3e 306d 523e 282b 6c3e f83e 863e
000000b0: 502c 9b3e e85c b73e 8c58 df3e a709 0e3f
000000c0: 29f0 3f3f 77be 7f3f

alphas f4 [50]
0.9982525 0.996311 0.9943662 0.99241424 0.9904511 0.9884731 0.98647577 0.98445547
0.98240745 0.9803269 0.97820926 0.9760492 0.973841 0.9715785 0.9692555 0.9668645
0.9643978 0.9618465 0.95920116 0.95645076 0.95358366 0.950586 0.9474428 0.94413614
0.9406464 0.93695015 0.93302107 0.9288281 0.92433417 0.9194965 0.91426367 0.908573
0.90234977 0.895502 0.88791466 0.87944376 0.8699073 0.8590679 0.84661365 0.83212525
0.8150283 0.79450536 0.7693666 0.73780084 0.69692755 0.6418693 0.56377757 0.44516522
0.2502417 0.0009999871
00000000: 7a8d 7f3f 3d0e 7f3f c98e 7e3f dc0e 7e3f
00000010: 348e 7d3f 930c 7d3f ad89 7c3f 4605 7c3f
00000020: 0e7f 7b3f b4f6 7a3f ec6b 7a3f 5cde 793f
00000030: a54d 793f 5eb9 783f 2121 783f 6f84 773f
00000040: c6e2 763f 923b 763f 358e 753f f5d9 743f
00000050: 0f1e 743f 9b59 733f 9d8b 723f e8b2 713f
00000060: 34ce 703f f7db 6f3f 78da 6e3f aec7 6d3f
00000070: 2aa1 6c3f 1f64 6b3f 2f0d 6a3f 3d98 683f
00000080: 6500 673f 9e3f 653f 604e 633f 3a23 613f
00000090: 3fb2 5e3f e0eb 5b3f acbb 583f 2906 553f
000000a0: b2a5 503f b464 4b3f 36f5 443f 84e0 3c3f
000000b0: d869 323f 8c51 243f ba53 103f b2ec e33e
000000c0: ae1f 803e 0012 833a

alpha_bars f4 [50]
0.9982525 0.99456996 0.98896676 0.98146474 0.9720928 0.9608876 0.94789237 0.9331578
0.9167412 0.898706 0.87912256 0.85806686 0.8356207 0.81187105 0.78691053 0.7608359
0.73374844 0.7057533 0.6769594 0.64747834 0.6174248 0.5869154 0.5560687 0.52500457
0.49384367 0.46270692 0.4317153 0.40098932 0.37064812 0.34080964 0.31158987 0.28310212
0.25545713 0.22876237 0.20312147 0.17863391 0.15539494 0.13349481 0.11301853 0.09404557
0.0766498 0.06089868 0.046853412 0.034568485 0.02409173 0.015463742 0.008718111 0.0038809997
0.00097118795 9.711755e-07
00000000: 7a8d 7f3f 239c 7e3f ed2c 7d3f 4641 7b3f
00000010: 13db 783f bbfc 753f 13a9 723f 6ee3 6e3f
00000020: 8daf 6a3f 9911 663f 2d0e 613f 45aa 5b3f
00000030: 3deb 553f c8d6 4f3f f872 493f 24c6 423f
00000040: f0d6 3b3f 40ac 343f 364d 2d3f 24c1 253f
00000050: 8d0f 1e3f 1640 163f 855a 0e3f b366 063f
00000060: 14d9 fc3e ece7 ec3e ca09 dd3e 794e cd3e
00000070: 97c5 bd3e 9a7e ae3e b588 9f3e c3f2 903e
00000080: 47cb 823e af40 6a3e 13ff 4f3e cfeb 363e
00000090: da1f 1f3e ddb2 083e 4276 e73d f79a c03d
000000a0: 92fa 9c3d e570 793d 5de9 3f3d af97 0d3d
000000b0: 055c c53c a35b 7d3c 68d6 0e3c 5f58 7e3b
000000c0: 5297 7e3a 5659 8235

stat_predictor.cond_mlp.0.weight f4 [16, 32]
0.10068337 0.039213985 -0.08854655 0.1319302 0.13791874 0.12220842 -0.16303903 -0.116430104
-0.12281329 0.09773891 -0.004300791 0.054158762 -0.12598862 -0.009349301 -0.10296228 0.035353355
-0.09078911 -0.16866314 0.07847618 0.11247588 -0.10558494 -0.009211154 -0.06386785 0.028712604
0.18083365 0.02079767 -0.097406365 -0.025921732 -0.10533278 0.1003791 -0.049177688 -0.08363066
-0.035024043 -0.18083595 0.10167375 -0.011714337 0.13740423 0.120428234 -0.17705551 0.02384967
-0.1399308 -0.0931515 0.11141103 0.06835322 0.14040308 -0.17197868 -0.11237662 -0.05821136
0.14877404 -0.101626344 0.13243629 -0.012117511 0.031708024 0.1459939 0.1513321 0.15721284
0.009783172 0.066684775 -0.15392722 0.010965192 -0.039275773 -0.07209006 0.15139122 -0.065372735
-0.03707662 -0.13275976 -0.13230264 -0.1049757 -0.10258858 -0.11868584 0.010917633 -0.028903224
-0.035625357 0.10406526 0.08323984 -0.050900973 -0.010169598 0.06924642 0.10619846 -0.09940195
0.1225974 -0.102258824 -0.10419208 -0.05432597 0.0462293 0.1810653 0.02168674 0.037073143
-0.030184425 -0.050665807 0.082271725 0.031961065 -0.12765737 0.14920609 -0.13835877 -0.06430597
-0.09967259 0.09564397 0.06728023 0.0213046 -0.09665864 -0.1335398 -0.1508441 -0.16310713
-0.15663587 0.014368656 -0.016751653 0.15965758 0.00596757 0.009435498 -0.05521809 -0.13766223
-0.123421796 0.032616545 0.008754291 0.1706959 -0.16028318 -0.17551664 0.01867368 -0.12854725
-0.010848904 0.13749748 0.18638536 0.030101247 -0.15356612 -0.056762423 0.05477599 0.13466808
0.030642448 0.062252633 0.14287163 -0.06465149 0.118619844 0.015072386 0.11590652 -0.1242497
-0.07798474 -0.13509096 0.10224342 -0.009056305 0.15985954 0.17194761 -0.09126785 -0.034993455
0.14359793 0.15242553 -0.025546154 -0.14209752 0.06529628 -0.09239214 0.07234594 0.018113682
0.16021273 -0.13754582 0.10392012 -0.15715766 -0.045099847 -0.0046944665 -0.057439927 0.103519425
-0.14633651 -0.10660588 0.087505184 0.14654009 0.10874636 -0.08489915 0.15099503 -0.07011775
-0.021899516 0.0013640514 -0.04775722 0.034861702 -0.11648362 0.16296245 -0.15441518 0.120994285
-0.05669587 -0.15240633 -0.047696836 -0.11038116 -0.04826479 0.037967928 0.0049271192 -0.13407955
-0.07294761 0.12931223 -0.027447153 -0.12817606 -0.13198192 0.047110237 0.12694515 0.06397118
-0.03336655 -0.17553796 -0.18303365 -0.13294525 0.066953495 0.008372198 -0.16265912 -0.08798621
0.05048876 -0.085413754 0.184027 -0.14503455 0.057902444 -0.16409355 0.06410511 -0.13145973
0.14766727 0.045727823 -0.05456882 -0.10883411 0.06232 0.07268231 0.007883384 -0.05288906
-0.10855957 -0.035417195 -0.0191274 0.04158416 -0.16861817 0.050795052 0.17863601 0.14313082
-0.07198624 0.12321478 0.070493065 0.079735234 -0.0063701086 -0.12682116 0.053152986 0.10866121
0.067537345 0.04739096 0.034966454 -0.019991511 0.07447837 -0.13669717 0.16430375 -0.17130832
0.15636845 0.05594253 0.14133264 0.052003194 0.13189717 -0.089426324 0.16133682 0.09141661
-0.09256534 -0.058036376 -0.10081456 -0.035946634 -0.08543557 -0.17687888 0.040305566 -0.09143412
00000000: 1533 ce3d d89e 203d e557 b5bd b618 073e
00000010: 923a 0d3e 6848 fa3d b4f3 26be e872 eebd
00000020: 8985 fbbd 562b c83d a6ed 8cbb 94d5 5d3d
00000030: 2903 01be d02d 19bc e3dd d2bd aece 103d
00000040: a4ef b9bd 08b6 2cbe 1fb8 a03d c159 e63d
00000050: eb3c d8bd 61ea 16bc 26cd 82bd b236 eb3c
00000060: 752c 393e e05f aa3c fd7c c7bd d059 d4bc
00000070: b6b8 d7bd 8f93 cd3d 8b6e 49bd 8d46 abbd
00000080: 5f75 0fbd 0f2d 39be 543a d03d 7eed 3fbc
00000090: b2b3 0c3e 14a3 f63d 0a4e 35be 6260 c33c
000000a0: 054a 0fbe 37c6 bebd 772b e43d c6fc 8b3d
000000b0: d3c5 0f3e 2e1b 30be b725 e6bd 096f 6ebd
000000c0: 3958 183e 7921 d0bd 619d 073e 8688 46bc
000000d0: 46e0 013d 6d7f 153e cdf6 1a3e 67fc 203e
000000e0: 9949 203c 0792 883d 199f 1dbe 59a7 333c
000000f0: a2df 20bd f4a3 93bd 4d06 1b3e 24e2 85bd
00000100: a7dd 17bd 2df2 07be 587a 07be 80fd d6bd
00000110: f619 d2bd 9011 f3bd dfdf 323c 74c6 ecbc
00000120: e5eb 11bd 2b20 d53d a679 aa3d 8a7d 50bd
00000130: 639e 26bc 11d1 8d3d 947e d93d 4093 cbbd
00000140: 5814 fb3d 136d d1bd a862 d5bd e984 5ebd
00000150: ef5a 3d3d 2f69 393e 64a8 b13c 02da 173d
00000160: 5445 f7bc f386 4fbd 147e a83d 9be9 023d
00000170: 9db8 02be 7bc9 183e ecad 0dbe d9b2 83bd
00000180: 2521 ccbd fce0 c33d 38ca 893d fc86 ae3c
00000190: f7f4 c5bd a8be 08be e076 1abe 8e05 27be
000001a0: 2765 20be 836a 6b3c c33a 89bc 477d 233e
000001b0: 9b8b c33b 5997 1a3c 5d2c 62bd 54f7 0cbe
000001c0: 91c4 fcbd ed98 053d 286e 0f3c e8ca 2e3e
000001d0: 4621 24be a2ba 33be 8cf9 983c e4a1 03be
000001e0: 9abf 31bc 24cc 0c3e cedb 3e3e e496 f63c
000001f0: 7040 1dbe b77f 68bd ca5c 603d 6ee6 093e
00000200: df05 fb3c 9efc 7e3d f14c 123e 0068 84bd
00000210: f6ee f23d 2bf2 763c 6660 ed3d a076 febd
00000220: 77b6 9fbd 4955 0abe 0065 d13d e560 14bc
00000230: 38b2 233e 0913 303e a3ea babd 4c55 0fbd
00000240: 560b 133e 7015 1c3e 2b46 d1bc 0382 11be
00000250: 0eba 853d 1738 bdbd 1c2a 943d 2563 943c
00000260: ce0e 243e d0d8 0cbe 12d4 d43d f0ed 20be
00000270: 9eba 38bd 0ad4 99bb 2146 6bbd fe01 d43d
00000280: 3dd9 15be 2f54 dabd eb35 b33d 9b0e 163e
00000290: 69b6 de3d 9bdf adbd 719e 1a3e e599 8fbd
000002a0: 9d66 b3bc f8c9 b23a 139d 43bd 25cb 0e3d
000002b0: f78e eebd a1df 263e 031f 1ebe dacb f73d
000002c0: ee39 68bd 6810 1cbe c25d 43bd 850f e2bd
000002d0: 4db1 45bd 4284 1b3d ac73 a13b 264c 09be
000002e0: 8e65 95bd 6d6a 043e dad8 e0bc 9640 03be
000002f0: 4526 07be aaf6 403d e9fd 013e 5203 833d
00000300: 5dab 08bd 39c0 33be 2c6d 3bbe cd22 08be
00000310: ea1e 893d 8b2b 093c 1d90 26be 1d32 b4bd
00000320: 4dcd 4e3d 68ed aebd 9371 3c3e f083 14be
00000330: 1d2b 6d3d 2408 28be 8a49 833d 619d 06be
00000340: 1736 173e 194d 3b3d 8e83 5fbd 6be4 debd
00000350: 4243 7f3d 77da 943d 4f29 013c 33a2 58bd
00000360: 7b54 debd 9f11 11bd 11b1 9cbc 2754 2a3d
00000370: 3eaa 2cbe 790e 503d 5cec 363e e390 123e
00000380: 866d 93bd 0858 fc3d ab5e 903d 3a4c a33d
00000390: 58bc d0bb 68dd 01be f2b6 593d c589 de3d
000003a0: 0551 8a3d 061d 423d fc38 0f3d 3dc5 a3bc
000003b0: 1e88 983d 58fa 0bbe 3e3f 283e 736b 2fbe
000003c0: 0d1f 203e ff23 653d 81b9 103e 4d01 553d
000003d0: 0d10 073e 2625 b7bd 7b35 253e a238 bb3d
000003e0: e692 bdbd 8db7 6dbd dd77 cebd c73c 13bd
000003f0: d8f8 aebd bd1f 35be 7317 253d d041 bbbd

stat_predictor.cond_mlp.0.bias f4 [16]
0.13250144 0.1699944 0.17644934 -0.16089813 0.14227086 -0.14674632 -0.048297416 0.11294289
0.09460768 -0.03827398 -0.17403167 -0.005823423 0.13816833 0.13013193 -0.13793582 -0.110333815
00000000: 75ae 073e 0313 2e3e 23af 343e 7bc2 24be
00000010: 74af 113e ab44 16be 83d3 45bd 9a4e e73d
00000020: acc1 c13d 2dc5 1cbd 5c35 32be 6ad2 bebb
00000030: 007c 0d3e 4e41 053e 0c3f 0dbe b2f6 e1bd

stat_predictor.cond_mlp.2.weight f4 [16, 16]
-0.20181763 0.060798813 -0.05469354 -0.20085534 -0.035357952 -0.13914013 0.002281732 0.0139228795
-0.15096144 0.20202625 -0.17797026 0.018396618 -0.25453204 0.1400976 -0.107649885 0.22054161
0.012712358 -0.22474109 0.1594226 0.054468747 0.08449888 0.026439076 0.06446898 0.13384372
0.13667251 0.17482072 0.11803586 -0.21745431 -0.24829887 -0.029736547 0.17918526 0.2074466
-0.16253935 0.07633415 -0.1883305 0.07186553 -0.064193554 0.22650842 0.056504507 -0.1400051
0.14823101 -0.099727884 -0.038610138 0.1203532 0.16454549 -0.23979151 0.24880932 0.14907168
0.22785759 -0.11891826 -0.21389414 -0.1575302 -0.010331413 0.021571837 -0.052899778 -0.17168413
-0.18490985 -0.027310727 -0.0026676154 -0.10387962 -0.22337307 0.059628557 -0.05891835 0.20982958
-0.073387735 -0.003741622 0.035500146 -0.0054513086 0.12534575 0.09071535 0.2410937 -0.2262297
-0.12436472 -0.1290808 -0.010382941 -0.18066868 0.110075995 0.144177 0.1542833 -0.17674266
-0.15158528 -0.08379971 0.14712258 0.23333977 0.0329179 0.19540775 -0.052244846 0.14486131
0.24400294 -0.09182804 -0.13237268 -0.10104756 0.24547727 0.1068919 0.042473625 -0.04435915
-0.18466061 -0.20610856 0.18142682 -0.1245676 0.25117767 -0.055776328 0.19148602 0.0029165458
0.22425663 -0.013535491 -0.047736783 0.07986859 0.114689514 0.20828865 -0.1457769 -0.13527332
0.06526137 -0.20886554 -0.1628066 0.21891344 -0.02461388 0.16228092 -0.03402339 0.2160548
0.15586972 -0.2076496 -0.12947045 0.01899284 -0.1808377 -0.22910091 0.06285202 0.020008812
-0.25769934 0.006563674 -0.18944678 0.21242598 -0.122128606 0.14357089 -0.21634807 0.12763411
-0.19457474 0.14740397 -0.1746059 -0.19175248 -0.04416166 -0.030492894 -0.031888284 -0.10462614
0.10370892 -0.22443683 -0.1011738 -0.07835651 0.017299477 0.1536284 0.13374336 0.011313372
-0.1486277 0.19114763 0.13171028 -0.16403766 -0.07513014 -0.066753864 0.110334694 0.021408752
-0.02404175 -0.008143292 0.24181782 -0.20783263 -0.04023374 0.008606763 -0.11426763 0.05193481
-0.05471628 -0.19511555 -0.16423169 -0.033332292 -0.20837365 0.011626795 -0.19994515 0.035866607
-0.20490284 -0.082915105 -0.14547157 0.19430918 -0.05430303 0.059048433 0.0312638 0.1450391
-0.21782047 0.03826226 -0.11442472 -0.0064348783 -0.21583581 -0.076431446 0.19332124 0.008146682
0.2311584 0.18765111 0.002370938 0.00094884867 -0.073519714 0.04143811 -0.22683752 -0.103298575
0.005999296 0.1212095 -0.18138361 0.20449542 0.153035 0.12647377 0.105737895 -0.14061478
-0.05718878 0.15804859 -0.1568418 -0.12864241 0.00613914 0.03602343 0.095098734 0.051564742
0.21113984 -0.029075598 0.037762143 -0.14975707 -0.24803708 0.06349239 -0.025445987 0.00022234675
0.14162286 0.2334449 0.13511267 -0.02454015 -0.22926803 -0.18936884 -0.21605295 -0.23684096
-0.12131475 0.05434804 -0.012137064 -0.13902241 -0.1197117 -0.10285581 0.013366144 -0.13085134
-0.18559697 0.056716587 -0.055641823 -0.2439254 0.20042425 0.20312074 0.048438273 -0.22401428
0.12050041 0.16915645 -0.120662585 0.25532252 -0.08574559 0.05216013 -0.1652364 0.086954966
00000000: 48a9 4ebe 2d08 793d 5506 60bd 06ad 4dbe
00000010: 80d3 10bd c07a 0ebe 1c89 153b ca1c 643c
00000020: a395 1abe f8df 4e3e d63d 36be 81b4 963c
00000030: 0652 82be bf75 0f3e 8b77 dcbd a9d5 613e
00000040: 7e47 503c 8722 66be ae3f 233e 9f1a 5f3d
00000050: c00d ad3d c396 d83c 5008 843d 540e 093e
00000060: e1f3 0b3e 3404 333e c9bc f13d 58ac 5ebe
00000070: 0f42 7ebe 0f9a f3bc 577c 373e e26c 543e
00000080: b770 26be 1455 9c3d b6d9 40be 3c2e 933d
00000090: e977 83bd d3f1 673e 4571 673d 7f5d 0fbe
000000a0: dfc9 173e 223e ccbd aa25 1ebd bd7b f63d
000000b0: 9d7e 283e e88b 75be dfc7 7e3e 3fa6 183e
000000c0: 8053 693e 6b8b f3bd 1107 5bbe 994f 21be
000000d0: 1645 29bc 6cb7 b03c 70ad 58bd f7cd 2fbe
000000e0: 0259 3dbe bfba dfbc 29d3 2ebb d7be d4bd
000000f0: e9bb 64be 133d 743d 5e54 71bd 91dd 563e
00000100: 4f4c 96bd 0036 75bb 9a68 113d e4a0 b2bb
00000110: a35a 003e f8c8 b93d 44e1 763e c2a8 67be
00000120: eeb2 febd c22d 04be 361d 2abc 3601 39be
00000130: 866f e13d 23a3 133e 71fc 1d3e 07fc 34be
00000140: 2c39 1bbe 2f9f abbd 4da7 163e 9ff0 6e3e
00000150: ebd4 063d f818 483e b1fe 55bd 8656 143e
00000160: e8db 793e 5710 bcbd b48c 07be 06f2 cebd
00000170: 655e 7b3e 24ea da3d d3f8 2d3d f1b1 35bd
00000180: ac17 3dbe 1f0e 53be f4c7 393e 4c1d ffbd
00000190: 5c9a 803e b875 64bd e914 443e 8523 3f3b
000001a0: 88a3 653e f7c3 5dbc a587 43bd 2592 a33d
000001b0: 56e2 ea3d 9f49 553e 8a46 15be 1785 0abe
000001c0: c1a7 853d d9e0 55be c6b6 26be d82a 603e
000001d0: 0ca3 c9bc f82c 263e 1c5c 0bbd 783d 5d3e
000001e0: 509c 1f3e 19a2 54be e793 04be df96 9b3c
000001f0: 852d 39be 6e99 6abe 8fb8 803d 85e9 a33c
00000200: 2bf1 83be 1714 d73b 56fe 41be 3286 593e
00000210: 901e fabd 3f04 133e 598a 5dbe 84b2 023e
00000220: 9a3e 47be 11f1 163e e4cb 32be c35a 44be
00000230: dbe2 34bd 3ccc f9bc 4a9d 02bd 3b46 d6bd
00000240: 5865 d43d c5d2 65be 3634 cfbd 6179 a0bd
00000250: a2b7 8d3c c350 1d3e 05f4 083e b95b 393c
00000260: dc31 18be 34bc 433e 0fdf 063e 7df9 27be
00000270: d5dd 99bd 40b6 88bd 28f7 e13d 6861 af3c
00000280: 34f3 c4bc 716b 05bc 179f 773e 14d2 54be
00000290: 22cc 24bd 6103 0d3c 2605 eabd 98b9 543d
000002a0: 2e1e 60bd 5fcc 47be 5a2c 28be 7187 08bd
000002b0: e75f 55be 507e 3e3c 6cbe 4cbe dde8 123d
000002c0: 0dd2 51be 65cf a9bd 80f6 14be fcf8 463e
000002d0: db6c 5ebd c5dc 713d 780e 003d 2185 143e
000002e0: 540c 5fbe e3b8 1c3d 8257 eabd acdb d2bb
000002f0: 1004 5dbe 1788 9cbd 01f6 453e a979 053c
00000300: cab4 6c3e 9d27 403e bd61 1b3b 28bc 783a
00000310: 8191 96bd 02bb 293d 1848 68be 348e d3bd
00000320: be95 c43b b03c f83d a0bc 39be 3f67 513e
00000330: 35b5 1c3e 5782 013e 1c8d d83d 52fd 0fbe
00000340: c83e 6abd 7dd7 213e 239b 20be d6ba 03be
00000350: d72a c93b 4e8d 133d 20c3 c23d 8d35 533d
00000360: 0b35 583e f32f eebc 7aac 1a3d eb59 19be
00000370: 6ffd 7dbe 4c08 823d 1a74 d0bc c025 6939
00000380: 9505 113e 2e0c 6f3e fa5a 0a3e 6d08 c9bc
00000390: 3dc5 6abe e8e9 41be fc3c 5dbe 7086 72be
000003a0: de73 f8bd 0d9c 5e3d 89da 46bc e45b 0ebe
000003b0: 682b f5bd 11a6 d2bd acfd 5a3c e5fd 05be
000003c0: 220d 3ebe a74f 683d aee8 63bd 94c7 79be
000003d0: 043c 4d3e e2fe 4f3e 3667 463d 0064 65be
000003e0: ebc8 f63d 5937 2d3e f21d f7bd a2b9 823e
000003f0: 629b afbd dca5 553d bb33 29be 7215 b23d

stat_predictor.cond_mlp.2.bias f4 [16]
-0.14927638 0.04172562 -0.11005428 0.18964218 0.028081538 -0.007433012 0.008319921 -0.0021183663
0.15468891 -0.015914408 -0.20750162 -0.12901057 0.104679145 0.01790371 -0.2517468 0.14561473
00000000: e8db 18be 7ce8 2a3d 2364 e1bd 8f31 423e
00000010: 410b e63c a090 f3bb 4750 083c 4ad4 0abb
00000020: c566 1e3e ef5e 82bc 4e7b 54be 591b 04be
00000030: 0562 d63d cdaa 923c f5e4 80be 071c 153e

stat_predictor.stat_mlp.0.weight f4 [16, 16]
-0.0989016 -0.0028922108 0.06867111 0.017705183 -0.2395844 0.13614106 0.03787962 0.043002166
-0.13422658 -0.08552787 0.16296604 -0.095668085 0.07534625 -0.06407996 -0.1597216 -0.066889234
0.22054064 0.023719849 -0.14585987 0.0035474198 -0.024078868 -0.25671744 0.11238836 -0.16503306
-0.19936956 0.22489841 0.14999923 -0.15467778 -0.04565764 0.23575251 0.1342505 -0.07461617
-0.12233785 -0.10571507 -0.16656683 0.21226175 -0.22440395 -0.16841893 0.032470684 0.013900199
0.044357397 -0.09201006 0.041141942 0.18169719 0.03577781 0.06911199 0.026913917 0.1485509
0.22836362 -0.03377478 -0.019222926 -0.031001972 0.14563009 0.14410211 0.043664407 0.03126232
-0.112162694 0.021356676 0.0961827 -0.20293938 0.04080432 0.06291457 -0.14172263 -0.14687438
-0.1637931 0.109003104 0.21562532 0.17654322 -0.14165911 -0.0073047723 0.1877078 0.18265186
-0.23821606 -0.0012083466 -0.016601086 0.15468313 -0.046857297 0.17680813 0.11094707 0.011666675
0.22743793 0.14451665 -0.20858537 -0.19856758 -0.16230772 0.1562082 0.109029345 -0.033254784
-0.12035536 0.03335426 0.025410807 -0.054300904 -0.04553578 -0.15675372 -0.25588074 0.17913088
0.12793072 0.2394917 -0.17698155 -0.016158307 0.13746543 -0.10424625 -0.173611 0.20116425
0.15734106 0.070189536 0.21874939 0.088081375 0.22133918 0.11353661 0.07319369 -0.028335853
-0.11287102 -0.0660113 -0.21737401 0.060262315 0.20543832 0.02243125 0.08139024 0.034546614
-0.14308856 0.07046236 0.035442233 -0.11610033 0.22258332 -0.0036119828 0.13297826 -0.094048314
0.12546027 -0.1212324 0.13084188 -0.022405552 -0.23463753 -0.18147698 0.039380502 0.09092207
-0.09748353 -0.17283298 -0.015221587 0.09946048 0.057442233 0.12730771 -0.090467915 0.22630581
-0.025921978 -0.051120628 -0.025351293 0.07054195 -0.023827994 -0.030734956 0.18832158 0.029134952
0.13448289 -0.14957343 0.13100098 -0.20255801 0.15834293 -0.2112448 0.11973932 -0.24648014
-0.09062229 0.24975404 0.14173408 -0.05386601 -0.24266002 0.22272399 0.16807422 -0.10338593
-0.23632108 -0.11537671 0.009645092 0.16096155 -0.034179524 0.21111475 -0.2037593 0.17688003
-0.13986903 -0.065072924 -0.15803766 0.06987512 -0.10523915 -0.02829202 0.08785253 -0.16514082
-0.039473616 0.08212202 -0.12229777 0.02404065 -0.07988426 -0.07518028 -0.087124206 -0.20497352
-0.04407045 -0.2247112 -0.19655615 0.14195625 -0.024465257 -0.15921782 0.24239856 -0.24871084
-0.08609068 -0.088096716 0.16976367 -0.046336703 -0.17653657 0.11856677 0.10203369 0.25041017
-0.25465035 0.08430577 -0.14977501 0.033617258 0.2181106 -0.018807527 0.1807749 -0.12589869
0.12183414 -0.16220175 0.15767704 0.11267097 0.20100012 0.24340627 -0.00485 0.14004922
-0.19016331 0.19666739 -0.113164105 -0.10742889 0.14176589 0.2211112 -0.037731994 0.14715704
-0.2141876 -0.23993443 0.13926691 0.033315238 0.123915516 -0.22006612 0.1974163 0.16906893
0.10372306 0.23261952 0.041298278 -0.11182775 0.19474368 -0.1915971 0.10866717 -0.19352274
-0.18277694 -0.067598164 0.18769611 0.058080837 0.11489982 -0.10537655 -0.027542375 0.05504964
00000000: ec8c cabd 3f8b 3dbb 70a3 8c3d 760a 913c
00000010: 9d55 75be 9068 0b3e a927 1b3d 0a23 303d
00000020: b172 09be 3c29 afbd 92e0 263e a1ed c3bd
00000030: 224f 9a3d 5b3c 83bd 0f8e 23be 39fd 88bd
00000040: 68d5 613e 2150 c23c 4a5c 15be d47b 683b
00000050: 0c41 c5bc 7870 83be de2b e63d 6dfe 28be
00000060: 8927 4cbe c54b 663e 6699 193e da63 1ebe
00000070: 8103 3bbd 1b69 713e f778 093e 5dd0 98bd
00000080: 448c fabd 2581 d8bd 7f90 2abe 255b 593e
00000090: 26ca 65be 0376 2cbe fbff 043d a9bd 633c
000000a0: 1ab0 353d c56f bcbd 7484 283d d40e 3a3e
000000b0: c18b 123d 968a 8d3d 937a dc3c ba1d 183e
000000c0: 27d8 693e 6c57 0abd 6679 9dbc d9f7 fdbc
000000d0: 0e20 153e 818f 133e 73d9 323d eb0c 003d
000000e0: 8eb5 e5bd 32f4 ae3c 6ffb c43d 57cf 4fbe
000000f0: 6e22 273d 5bd9 803d bd1f 11be 3d66 16be
00000100: 61b9 27be 053d df3d e2cc 5c3e bfc7 343e
00000110: 160f 11be df5c efbb 7936 403e 1709 3b3e
00000120: e9ee 73be 6261 9eba 00ff 87bc 4165 1e3e
00000130: 70ed 3fbd 310d 353e 3838 e33d 9525 3f3c
00000140: 7de5 683e 2cfc 133e 6797 55be 4d55 4bbe
00000150: ff33 26be 0bf5 1f3e c74a df3d 2b36 08bd
00000160: df7c f6bd 7a9e 083d 532a d03c a06a 5ebd
00000170: ba83 3abd 0c84 20be cd02 83be 166e 373e
00000180: 4500 033e 503d 753e a73a 35be 6d5e 84bc
00000190: bdc3 0c3e 0f7f d5bd 15c7 31be 00fe 4d3e
000001a0: 041e 213e 88bf 8f3d d7ff 5f3e 0264 b43d
000001b0: bda6 623e e285 e83d 93e6 953d 9720 e8bc
000001c0: ec28 e7bd ef30 87bd 4b97 5ebe 9ed5 763d
000001d0: 6c5e 523e bec1 b73c edaf a63d c080 0d3d
000001e0: cf85 12be 924e 903d e02b 113d 03c6 edbd
000001f0: e2ec 633e 04b7 6cbb 742b 083e 679c c0bd
00000200: a878 003e b148 f8bd 6afb 053e d98b b7bc
00000210: d244 70be 1ad5 39be 734d 213d 5a35 ba3d
00000220: 72a5 c7bd 21fb 30be f763 79bc f0b1 cb3d
00000230: 8c48 6b3d f45c 023e 3e47 b9bd b6bc 673e
00000240: 545a d4bc dd63 51bd 84ad cfbc 4c78 903d
00000250: ed32 c3bc e0c7 fbbc 5fd7 403e 6cac ee3c
00000260: e2b5 093e c729 19be 1f25 063e 5e6b 4fbe
00000270: a624 223e 8f50 58be e339 f53d 4a65 7cbe
00000280: 2e98 b9bd 86bf 7f3e bd22 113e 9ba2 5cbd
00000290: de7b 78be c211 643e a61b 2c3e 01bc d3bd
000002a0: 27fe 71be a04a ecbd 7306 1e3c 1bd3 243e
000002b0: d4ff 0bbd 772e 583e 47a6 50be 0a20 353e
000002c0: d439 0fbe f444 85bd a0d4 21be b01a 8f3d
000002d0: a087 d7bd abc4 e7bc 07ec b33d ad1a 29be
000002e0: 16af 21bd 972f a83d 4177 fabd e6f0 c43c
000002f0: 5c9a a3bd 1ef8 99bd 2d6e b2bd 94e4 51be
00000300: 3783 34bd b11a 66be 0446 49be fb5c 113e
00000310: 5d6b c8bc ff09 23be 5437 783e 0eae 7ebe
00000320: 4f50 b0bd 0d6c b4bd 87d6 2d3e 8ecb 3dbd
00000330: 01c6 34be 22d3 f23d 0af7 d03d c335 803e
00000340: 8861 82be 81a8 ac3d 9f5e 19be 40b2 093d
00000350: 6358 5f3e 3e12 9abc 0e1d 393e 96eb 00be
00000360: 2d84 f93d 3718 26be 1776 213e 0ac0 e63d
00000370: fad2 4d3e 7e3f 793e c0ec 9ebb 1069 0f3e
00000380: 2cba 42be 2d63 493e 95c2 e7bd ae03 dcbd
00000390: 142b 113e f96a 623e dd8c 1abd 56b0 163e
000003a0: ff53 5bbe 5fb1 75be fc9b 0e3e 8f75 083d
000003b0: 6bc7 fd3d 0359 61be 8027 4a3e 6820 2d3e
000003c0: c16c d43d d033 6e3e 6228 293d f305 e5bd
000003d0: e36a 473e 0832 44be e58c de3d d32a 46be
000003e0: e129 3bbe e870 8abd 6933 403e 2ce6 6d3d
000003f0: 9950 eb3d a9cf d7bd 8ca0 e1bc bb7b 613d

stat_predictor.stat_mlp.0.bias f4 [16]
-0.016534202 -0.17762907 -0.20868126 0.008195963 -0.025778145 -0.15963413 -0.23701976 0.03808606
-0.16269311 -0.1975079 -0.2095147 -0.16906734 0.14404152 -0.18946701 -0.03933468 0.20439519
00000000: bc72 87bc 65e4 35be 8ab0 55be 5c48 063c
00000010: b02c d3bc 2177 23be 4fb5 72be 2100 1c3d
00000020: 0699 26be 833f 4abe 068b 56be fd1f 2dbe
00000030: 9f7f 133e a403 42be 671d 21bd f94c 513e

stat_predictor.stat_mlp.2.weight f4 [2, 16]
0.0421786 -0.06408875 0.041877534 0.22616717 0.09267809 -0.066928566 0.14263135 -0.06514278
-0.16195497 -0.25337636 -0.08217324 -0.007657581 0.123400606 0.22839187 -0.13474056 0.08637027
0.093599446 0.13789727 -0.102363795 0.09345402 -0.07815395 0.21287423 -0.15893237 -0.21483438
-0.12939686 0.18054056 -0.05850683 -0.23541044 0.1877241 0.10107072 0.12209739 0.25590658
00000000: 78c3 2c3d f640 83bd c787 2b3d 5e98 673e
00000010: 03ce bd3d d811 89bd f40d 123e 9469 85bd
00000020: 86d7 25be 8cba 81be 724a a8bd 72ec fabb
00000030: 75b9 fc3d 8fdf 693e 6ef9 09be e5e2 b03d
00000040: 11b1 bf3d f134 0d3e 1ca4 d1bd d264 bf3d
00000050: 2e0f a0bd b4fb 593e 2bbf 22be 8bfd 5bbe
00000060: 9c80 04be a0df 383e dca4 6fbd 6f0f 71be
00000070: bf3a 403e 2afe ce3d 320e fa3d 3006 833e

stat_predictor.stat_mlp.2.bias f4 [2]
-0.15663342 -0.044771474
00000000: 8364 20be 4b62 37bd

unet.init_conv.weight f4 [8, 1, 3]
-0.2605498 -0.010888947 0.14502798 -0.22985682 0.13378702 -0.30338407 -0.35275736 0.029418368
0.06344969 -0.4500625 0.16750132 0.51330036 0.029032283 -0.5658849 0.18807785 -0.5374039
0.29198238 0.3306046 0.44687083 -0.07220341 0.5175036 -0.20707346 0.16374454 -0.06120421
00000000: c966 85be 8e67 32bc 3782 143e 965f 6bbe
00000010: 77ff 083e 2855 9bbe 9d9c b4be cafe f03c
00000020: e9f1 813d 986e e6be 7785 2b3e a767 033f
00000030: 1cd5 ed3c d5dd 10bf 7b97 403e 4d93 09bf
00000040: b77e 953e 0245 a93e 41cc e43e 62df 93bd
00000050: 1e7b 043f 110b 54be a6ac 273e 44b1 7abd

unet.init_conv.bias f4 [8]
0.19426788 -0.48640585 0.115330935 -0.32922167 -0.16671818 0.17339155 -0.022339681 0.25271735
00000000: 29ee 463e 300a f9be a032 ec3d be8f a8be
00000010: 2cb8 2abe 8e8d 313e b501 b7bc 2b64 813e

unet.time_mlp.0.weight f4 [64, 16]
0.11372876 0.22211197 -0.07085068 0.14263599 0.17601615 0.20447795 -0.01706492 -0.10618943
0.017426115 0.07955476 -0.09589722 0.22117239 0.18264797 0.03052062 0.23354279 -0.03616406
-0.0502377 -0.08691372 0.0810822 -0.099735565 -0.10860404 0.16701351 0.025311122 0.0016869244
0.12781592 0.1651147 -0.046616867 0.17856327 0.10268756 0.027260436 0.0791974 -0.2506596
0.11342339 -0.08883837 -0.14212771 -0.2262274 -0.2153515 -0.18620132 0.15920673 0.182923
0.22684617 -0.0018705485 0.17835505 -0.20901202 0.05297843 -0.15124136 0.04214144 -0.049070433
0.21151073 -0.09463866 0.17968082 0.09303323 -0.058871005 -0.07704934 0.21155487 -0.18429294
0.24511813 -0.053049043 -0.11444964 0.10225619 0.20691566 -0.0060144397 0.21195742 0.14414503
-0.13828367 0.2074565 0.23953503 0.11526242 0.13439827 0.12475803 -0.13946784 0.00039814884
0.23312481 0.18412083 0.21678214 -0.049432144 -0.17370501 -0.03636723 -0.10780131 -0.21168491
-0.1736279 0.076537475 -0.15955862 -0.13682263 0.04278705 -0.24916844 0.110158235 -0.106650226
-0.071414195 -0.20174542 0.20319103 -0.123401046 -0.11357986 -0.17099997 0.1886471 -0.015632018
-0.16921484 -0.17038414 -0.054135688 0.21897133 0.001634188 0.052449364 0.15223943 0.17875646
0.14794265 -0.20089123 -0.056193754 -0.17870095 -0.20401005 0.13395917 0.25056323 0.056747008
0.036283292 -0.0071292752 0.06417387 -0.20120165 -0.16089118 -0.07145536 0.1011464 0.20203732
0.05875324 -0.031362697 -0.073884785 0.11601174 -0.027025001 -0.2519727 -0.047584094 0.029195815
0.099047855 -0.18237092 0.02926595 -0.20369393 -0.12578133 -0.053418692 0.09458393 -0.01583677
0.2039799 -0.22212845 0.15418817 -0.133681 0.16088787 0.08593749 -0.06127073 0.004197982
0.103792 0.025705952 0.18790737 0.18725963 0.18461135 0.09209794 -0.087833986 -0.23869595
0.04925973 0.11572531 -0.020501755 -0.091049954 0.2271838 -0.16536008 -0.05332685 0.13476127
-0.20015173 -0.22217809 0.02753502 -0.060663156 -0.19243008 -0.06688992 0.21596785 -0.13543737
-0.23015389 0.14633071 0.059463102 0.18936862 0.19736812 0.010716125 -0.10129133 0.041615106
-0.11952893 0.2062572 -0.190039 0.09357051 0.15014905 0.17475718 0.12684105 -0.18221588
0.042355895 0.16983517 -0.018829817 -0.14997825 -0.20841423 -0.14198916 -0.086144805 -0.14832892
0.16003403 -0.22051318 -0.10197359 -0.021812867 -0.13002974 -0.07280671 0.25308037 0.050604567
0.14815274 0.17132583 0.10143831 -0.18654212 0.2591484 -0.07936285 0.24468152 0.20056568
0.091527864 0.20853469 0.13580422 -0.073086604 0.24763608 -0.22567971 0.04974069 0.09504665
0.016796337 0.14101921 -0.18609829 0.24720554 0.18119131 0.16461651 0.12243573 -0.031528674
-0.038583893 0.23335922 -0.15575454 0.18637292 0.10283742 -0.03093218 0.15392633 -0.030355465
-0.079968475 0.05417121 0.03671616 -0.17396824 -0.2027435 -0.23197559 -0.054239724 -0.015208606
-0.14087845 0.1109671 0.21343392 0.06251475 -0.23611145 -0.057412095 0.18261847 -0.11215711
-0.14484295 0.13860872 0.011572639 0.10395053 0.08037449 -0.1827336 -0.24941954 0.07204773
00000000: a0ea e83d 5271 633e 291a 91bd 2b0f 123e
00000010: 943d 343e ab62 513e bbcb 8bbc d879 d9bd
00000020: 36c1 8e3c 9bed a23d c365 c4bd 047b 623e
00000030: 1208 3b3e 6106 fa3c d725 6f3e c420 14bd
00000040: 0cc6 4dbd d2ff b1bd 6d0e a63d 2942 ccbd
00000050: cc6b debd 9705 2b3e 4559 cf3c ca1b dd3a
00000060: 2de2 023e d413 293e 54f1 3ebd 4ad9 363e
00000070: db4d d23d 4751 df3c 3f32 a23d 7556 80be
00000080: 864a e83d e4f0 b5bd ed89 11be 28a8 67be
00000090: 1b85 5cbe 8fab 3ebe 1707 233e 2b50 3b3e
000000a0: 5d4a 683e 312d f5ba b5a2 363e 3f07 56be
000000b0: e9ff 583d 04df 1abe 819c 2c3d 14fe 48bd
000000c0: 4596 583e ead1 c1bd 40fe 373e 3588 be3d
000000d0: b922 71bd 0bcc 9dbd d7a1 583e 4ab7 3cbe
000000e0: 3f00 7b3e f449 59bd 9364 eabd b16b d13d
000000f0: b3e1 533e c714 c5bb 5e0b 593e c19a 133e
00000100: 3c9a 0dbe 7a6f 543e ac48 753e b40e ec3d
00000110: b39f 093e 2381 ff3d a8d0 0ebe a2be d039
00000120: 45b8 6e3e 2c8a 3c3e 23fc 5d3e 5c79 4abd
00000130: badf 31be cef5 14bd efc6 dcbd eec3 58be
00000140: 83cb 31be aebf 9c3d 5663 23be 3b1b 0cbe
00000150: 7941 2f3d 0326 7fbe a49a e13d 6f6b dabd
00000160: 9b41 92bd 5a96 4ebe 4f11 503e b0b9 fcbd
00000170: 8f9c e8bd 9e1a 2fbe b52c 413e b80e 80bc
00000180: a846 2dbe 2e79 2ebe 62bd 5dbd 053a 603e
00000190: 4032 d63a 25d5 563d a7e4 1b3e ef0b 373e
000001a0: 477e 173e 6eb6 4dbe 6c2b 66bd 62fd 36be
000001b0: 03e8 50be 982c 093e d349 803e 8d6f 683d
000001c0: ca9d 143d b29c e9bb 976d 833d ce07 4ebe
000001d0: a8c0 24be 3057 92bd d825 cf3d dfe2 4e3e
000001e0: 3da7 703d 2c76 00bd e850 97bd 9097 ed3d
000001f0: 8963 ddbc 9102 81be 8ae7 42bd 102c ef3c
00000200: 9ad9 ca3d 71bf 3abe 25bf ef3c 2495 50be
00000210: d2cc 00be 8fcd 5abd 38b5 c13d 1dbc 81bc
00000220: 1be0 503e a475 63be 81e3 1d3e ace3 08be
00000230: cabf 243e ffff af3d 04f7 7abd 3a8f 893b
00000240: e690 d43d 4a95 d23c ca6a 403e fdc0 3f3e
00000250: c20a 3d3e d89d bc3d 4ee2 b3bd b66c 74be
00000260: 92c4 493d 6401 ed3d 4cf3 a7bc 6678 babd
00000270: dfa2 683e 2754 29be 416d 5abd dcfe 093e
00000280: 93f4 4cbe a782 63be 1f91 e13c ee79 78bd
00000290: 640c 45be 95fd 88bd ad26 5d3e 18b0 0abe
000002a0: 76ad 6bbe b8d7 153e 958f 733d d9e9 413e
000002b0: de1a 4a3e b092 2f3c d471 cfbd 9a74 2a3d
000002c0: 95cb f4bd 1635 533e 9599 42be e5a1 bf3d
000002d0: acc0 193e 8cf3 323e 9fe2 013e cd96 3abe
000002e0: 607d 2d3d 45e9 2d3e fd40 9abc e693 19be
000002f0: 8a6a 55be 9b65 11be b06c b0bd 89e3 17be
00000300: f6df 233e 35ce 61be 88d7 d0bd e6b0 b2bc
00000310: 8426 05be af1b 95bd c093 813e bc46 4f3d
00000320: 5ab5 173e 0a70 2f3e e4be cf3d e604 3fbe
00000330: 19af 843e fd88 a2bd cb8d 7a3e 1761 4d3e
00000340: f672 bb3d 1e8a 553e 4310 0b3e 6eae 95bd
00000350: 5094 7d3e 9518 67be e5bc 4b3d d1a7 c23d
00000360: 7998 893c 5767 103e 8d90 3ebe 7323 7d3e
00000370: 378a 393e 3b91 283e 96bf fa3d 3624 01bd
00000380: 250a 1ebd b8f5 6e3e 1e7e 1fbe 8bd8 3e3e
00000390: 6d9c d23d 7c65 fdbc dd9e 1d3e 06ac f8bc
000003a0: 83c6 a3bd a1e2 5d3d af63 163d bb24 32be
000003b0: fe9b 4fbe 028b 6dbe 792a 5ebd 842d 79bc
000003c0: 7142 10be b842 e33d 6c8e 5a3e bc07 803d
000003d0: 33c7 71be f228 6bbd 5600 3b3e a0b2 e5bd
000003e0: b651 14be 72ef 0d3e 2b9b 3d3c 04e4 d43d
000003f0: 619b a43d 841e 3bbe d667 7fbe c38d 933d

unet.time_mlp.0.bias f4 [64]
-0.17795965 -0.058433894 -0.23889671 0.17235927 0.12462864 0.025672836 0.20014857 -0.032249175
0.184778 0.03886944 -0.11846558 -0.15813144 -0.17347212 -0.028111529 -0.13832028 0.017566409
0.050939195 0.12707804 -0.053773433 -0.1490864 -0.22840151 0.11563033 -0.043697573 0.095919125
-0.07735785 0.23331259 -0.1971514 0.032881536 -0.1131908 0.11187437 -0.20544924 -0.21990149
-0.11798409 -0.18224148 -0.21217373 -0.16577242 0.18560167 -0.23821926 0.21419933 0.14463569
-0.16058016 0.056391 0.008787715 -0.108468786 0.10630914 0.10303583 -0.041907102 -0.13454948
0.025761606 -0.20646177 0.15978219 -0.030798046 0.18150024 0.10636524 0.113813415 0.0168077
0.11182944 -0.08405623 0.16161893 0.06549026 0.122125685 -0.08831572 0.23874764 -0.16409548
00000000: 0e3b 36be 6158 6fbd 57a1 74be f37e 303e
00000010: 4d3d ff3d d74f d23c bff3 4c3e b617 04bd
00000020: 7236 3d3e 9035 1f3d 159e f2bd 35ed 21be
00000030: ada2 31be 264a e6bc d5a3 0dbe 6ee7 8f3c
00000040: 9ea5 503d bf20 023e 8841 5cbd 1baa 18be
00000050: 16e2 69be 98cf ec3d 3afc 32bd 3f71 c43d
00000060: cb6d 9ebd 7fe9 6e3e 0ee2 49be caae 063d
00000070: 94d0 e7bd 641e e53d 4961 52be db2d 61be
00000080: a4a1 f1bd 839d 3abe 1244 59be 3fc0 29be
00000090: 5d0e 3e3e c0ef 73be 1257 5b3e 611b 143e
000000a0: 206f 24be 40fa 663d 59fa 0f3c e224 debd
000000b0: 9bb8 d93d 7304 d33d c8a6 2bbd 57c7 09be
000000c0: 010a d33c b76a 53be f19d 233e 2f4c fcbc
000000d0: 33db 393e 05d6 d93d 0217 e93d 4db0 893c
000000e0: d506 e53d ac25 acbd 6f7f 253e c21f 863d
000000f0: 081d fa3d dfde b4bd 437a 743e a508 28be

unet.time_mlp.2.weight f4 [16, 64]
0.045006838 0.08426248 -0.10887685 -0.022255577 -0.0749192 0.13271748 0.013146762 0.053361196
-0.046337683 -0.08713407 0.020461349 0.014135228 -0.10873922 -0.06817927 0.10563479 0.009852255
-0.06679456 0.040657934 -0.044059932 0.039034143 0.021543918 -0.06273987 0.019060781 0.047986597
-0.012802862 0.035022166 0.050864358 0.11313917 -0.023201711 -0.058701936 0.032357495 0.054358535
-0.098797455 0.016125927 0.11222559 0.12135435 0.016324293 -0.018652065 -0.014357596 0.13001208
-0.01332231 -0.006088966 -0.10207017 -0.024735164 -0.03869267 -0.06007711 -0.12079822 0.03355953
-0.1329583 -0.0724856 0.08849248 0.09197457 0.10555793 -0.00597248 0.03727735 0.054204375
0.015127909 0.08633715 0.0043996195 0.038103826 0.114907496 0.06756698 -0.061500505 -0.10928618
-0.09552538 -0.0070280954 0.039381605 -0.033854567 -0.10809832 0.13304299 -0.088542424 0.023243904
-0.07257519 0.00558715 -0.051608644 -0.015899826 0.018686526 0.028497573 -0.106972225 -0.08225603
0.1125659 -0.004083961 -0.008490084 -0.10120022 0.042205956 0.020696284 0.052746262 0.06020765
-0.09692461 -0.055651996 -0.020660669 0.09479305 -0.09857743 0.09253771 -0.114545874 0.042804733
-0.050908573 -0.13144767 0.09302056 -0.046373624 -0.043575514 0.040327415 -0.04253985 0.06937372
0.021691607 0.08674005 -0.04273033 -0.015545512 0.018200696 -0.075966984 0.06609513 -0.044072375
0.003209814 -0.07710367 -0.00796131 0.06294099 -0.02124444 -0.07506402 0.090523645 0.0849386
0.08060761 0.014439279 -0.035402134 -0.028888764 -0.03571358 0.09245124 0.11175823 0.0058445632
-0.06149032 0.07277752 -0.020468667 -0.033571612 0.06564174 -0.050984576 -0.10704633 -0.09091789
-0.017434487 0.034991574 -0.068637714 0.080740795 0.032389782 -0.05799202 -0.03677843 0.054949734
0.026114872 0.103695974 -0.0037411014 0.017632138 0.07124684 0.003935761 0.07012176 -0.109884724
-0.11205444 0.10439721 -0.073490135 0.055513177 0.10071964 -0.061414424 -0.06515639 -0.092376634
0.10285313 0.01797247 0.09776759 0.035733007 -0.008770826 -0.07213336 0.019232735 -0.014660429
0.016253747 0.0028317198 -0.09155927 0.037620764 0.018343233 0.06394808 -0.08982352 -0.10716249
0.05869693 -0.039658558 -0.07206362 -0.020228809 0.073476344 0.05480409 -0.0026085274 0.016416226
-0.041709922 0.055800643 -0.114227794 0.08060853 0.11112763 0.07305733 0.10374404 0.066158734
0.08123601 -0.055751693 -0.012334732 0.09348742 0.08544667 0.036506977 0.09726185 0.05531123
0.11487772 -0.009427965 0.004504433 -0.021380823 0.082144774 0.053826362 0.060322814 -0.080988325
0.027003665 -0.023772573 0.07893484 -0.018673295 0.095874034 0.06538385 -0.030119568 -0.042422734
0.009251149 -0.028219039 0.07437648 -0.115180895 0.08082215 -0.0029021106 0.030849267 0.11168642
-0.011304863 -0.019250682 -0.03418861 0.10437701 0.07872942 0.12256878 0.018055415 0.07137392
-0.11469255 0.10261495 -0.041837506 0.08615028 -0.04166737 0.03206935 -0.071973726 -0.06419374
-0.08799944 -0.07687162 0.10601804 -0.026999373 0.096114196 0.055164926 0.057235766 -0.0305635
-0.04445247 -0.02834076 -0.07290548 -0.034025624 0.102057315 0.10398886 -0.023561392 0.056259718
00000000: 1759 383d cf91 ac3d d3fa debd 5451 b6bc
00000010: 3d6f 99bd 17e7 073e 8465 573c 4591 5a3d
00000020: 95cc 3dbd 5973 b2bd 8f9e a73c 7197 673c
00000030: abb2 debd 93a1 8bbd 0e57 d83d 5a6b 213c
00000040: 96cb 88bd ef88 263d 3078 34bd 44e2 1f3d
00000050: df7c b03c c37d 80bd 5b25 9c3c 988d 443d
00000060: 18c3 51bc 6773 0f3d 2557 503d 82b5 e73d
00000070: 8411 bebc 7171 70bd 4b89 043d 0ea7 5e3d
00000080: 5256 cabd 851a 843c 88d6 e53d a188 f83d
00000090: 86ba 853c 37cc 98bc 1f3c 6bbc e321 053e
000000a0: d145 5abc f385 c7bb 2a0a d1bd 66a1 cabc
000000b0: 357c 1ebd 6a13 76bd 0f65 f7bd b875 093d
000000c0: 3826 08be 5573 94bd 8c3b b53d 2a5d bc3d
000000d0: c22e d83d cbb4 c3bb 22b0 183d 6805 5e3d
000000e0: 0ddb 773c 88d1 b03d af2a 903b c212 1c3d
000000f0: 9f54 eb3d 8f60 8a3d f4e7 7bbd 6fd1 dfbd
00000100: cfa2 c3bd f04b e6bb 9b4e 213d 16ab 0abd
00000110: a762 ddbd 6c3c 083e bb55 b5bd 006a be3c
00000120: 4da2 94bd 6914 b73b 9663 53bd 5a40 82bc
00000130: 7c14 993c be73 e93c 4114 dbbd d975 a8bd
00000140: f388 e63d bfd2 85bb fe19 0bbc 1042 cfbd
00000150: 27e0 2c3d 418b a93c 770c 583d 4c9c 763d
00000160: 6980 c6bd 59f3 63bd 9040 a9bc dc22 c23d
00000170: f7e2 c9bd 6984 bd3d 0797 eabd 0454 2f3d
00000180: 8285 50bd 389a 06be 9081 be3d 45f2 3dbd
00000190: 3d7c 32bd 5c2e 253d 443e 2ebd cf13 8e3d
000001a0: 99b2 b13c c4a4 b13d 0006 2fbd 9ab2 7ebc
000001b0: a019 953c 9494 9bbd e25c 873d 3c85 34bd
000001c0: be5b 523b 87e8 9dbd 2870 02bc 35e7 803d
000001d0: d208 aebc 2abb 99bd 7664 b93d 4af4 ad3d
000001e0: 9a15 a53d ba92 6c3c d401 11bd 21a8 ecbc
000001f0: 6748 12bd 1357 bd3d 80e1 e43d c083 bf3b
00000200: 46dd 7bbd 610c 953d e8ad a7bc 6382 09bd
00000210: 2d6f 863d 34d5 50bd 1b3b dbbd 2933 babd
00000220: c5d2 8ebc 5353 0f3d ee91 8cbd 6e5b a53d
00000230: 26ab 043d 0a89 6dbd fba4 16bd f912 613d
00000240: dbee d53c 8e5e d43d 442d 75bb 4671 903c
00000250: dde9 913d 8ef7 803b ff9b 8f3d 3e0b e1bd
00000260: cc7c e5bd 34ce d53d ff81 96bd c961 633d
00000270: 1946 ce3d b18d 7bbd b770 85bd f62f bdbd
00000280: a9a4 d23d 003b 933c 603a c83d c65c 123d
00000290: 83b3 0fbc a8ba 93bd f88d 9d3c 4c32 70bc
000002a0: 9426 853c 6094 393b 6d83 bbbd 3b18 1a3d
000002b0: 8c44 963c 36f7 823d 65f5 b7bd 0278 dbbd
000002c0: 316c 703d 0371 22bd 1796 93bd e3b6 a5bc
000002d0: c47a 963d 417a 603d d4f3 2abb 527b 863c
000002e0: 06d8 2abd 378f 643d 43f0 e9bd 1616 a53d
000002f0: e296 e33d 159f 953d c177 d43d 3b7e 873d
00000300: 115f a63d e35b 64bd 9e17 4abc 5576 bf3d
00000310: aafe ae3d 5788 153d 3931 c73d 078e 623d
00000320: 0345 eb3d c077 1abc ec99 933b d626 afbc
00000330: 853b a83d 0879 5c3d 0e15 773d 35dd a5bd
00000340: ca36 dd3c b3be c2bc 97a8 a13d bdf8 98bc
00000350: 9b59 c43d f8e7 853d 50bd f6bc 76c3 2dbd
00000360: 2292 173c 9d2b e7bc b252 983d f6e3 ebbd
00000370: 1586 a53d 5631 3ebb 9ab7 fc3c dabb e43d
00000380: 0838 39bc 9bb3 9dbc 5b09 0cbd 9dc3 d53d
00000390: e43c a13d 5705 fb3d f3e8 933c 7d2c 923d
000003a0: ede3 eabd c927 d23d ce5d 2bbd 8f6f b03d
000003b0: 67ab 2abd 275b 033d f666 93bd 0278 83bd
000003c0: 0d39 b4bd de6e 9dbd fc1f d93d ca2d ddbc
000003d0: 85d7 c43d 9ef4 613d 0d70 6a3d 4e60 fabc
000003e0: cb13 36bd e22a e8bc 784f 95bd 745e 0bbd
000003f0: 6d03 d13d 1df8 d43d d203 c1bc 9770 663d

unet.time_mlp.2.bias f4 [16]
0.081739366 0.029661357 -0.029691229 0.045745973 0.023896685 -0.057340473 0.019750172 0.009395498
-0.01216083 0.103402354 0.024017094 -0.028037911 0.09824519 -0.0017696805 -0.039037496 0.03983012
00000000: f866 a73d 60fc f23c 053b f3bc 2160 3b3d
00000010: fbc2 c33c d8dd 6abd 1dcb a13c 93ef 193c
00000020: 383e 47bc 9dc4 d33d 7fbf c43c c3af e5bc
00000030: c634 c93d a0f4 e7ba c8e5 1fbd e824 233d

unet.cond_mlp.0.weight f4 [16, 32]
-0.018407678 0.09328967 0.10515754 -0.027324412 -0.07351936 0.078856744 -0.08298717 -0.10540027
-0.156923 -0.026329953 0.08693188 0.09521428 -0.09951582 -0.00010243285 0.07805077 0.1535885
-0.04274583 -0.066838756 -0.14589337 0.026773252 0.07727982 0.087363414 -0.030881582 0.011562867
0.14245403 0.092178345 -0.12504819 0.11820935 -0.18461177 -0.11997663 0.065162264 -0.16077675
0.08322709 -0.15817527 -0.15843396 -0.04399205 -0.003985111 -0.0887351 -0.16080347 -0.1035563
0.058333904 0.07017754 -0.052972972 -0.073103674 0.051883884 0.0075630574 -0.09263986 -0.16067483
0.16412082 -0.104180664 -0.13501047 -0.11899838 -0.08185281 0.17470527 0.06804874 0.07542979
0.08256448 -0.06058162 0.0642178 -0.07177049 -0.08011593 -0.004265561 0.09625871 -0.16848086
0.15092163 0.06656796 0.020382987 -0.15583403 0.14810097 -0.16417317 -0.116466545 0.12942751
0.13353747 0.14109291 0.11774921 0.013983686 -0.11182965 0.007071968 0.13808395 -0.1299584
0.13702245 0.031002056 0.059882518 0.088512436 -0.0027893002 -0.055074397 0.1003102 0.118348524
-0.055490322 -0.044642136 0.13035737 -0.09502127 0.06677082 -0.1705309 0.16244645 0.025758263
0.012518082 -0.048265025 -0.020129219 0.05852708 -0.09924514 -0.035964638 0.13129762 0.12137379
0.027823688 -0.06968151 -0.084087536 -0.06648872 -0.15317559 -0.043034725 0.16256477 0.13294265
0.15028512 0.13108665 -0.008371705 0.14585128 -0.025007574 -0.109025076 0.15073772 -0.058592703
-0.023352586 0.12885422 -0.11062322 -0.15122023 0.04738379 0.039410543 0.03509378 -0.0012965153
0.12883118 -0.1321097 0.061563153 -0.024645977 0.09522573 -0.11500858 -0.16194081 -0.06970545
-0.027606836 0.10630054 0.06461044 0.07030639 -0.0029003697 -0.10712985 0.055809274 0.1432148
-0.13485746 0.16327858 0.09548083 0.104542516 0.057020735 -0.16971357 0.0997637 0.15986101
0.18042926 0.05837928 0.035186056 0.15503047 0.03642581 0.016777448 -0.014303754 0.1438176
-0.123589374 0.07752085 0.08907523 0.081820734 -0.1486765 0.04967218 0.15088612 -0.0072658868
-0.060809568 -0.08338626 0.1505485 -0.029946683 -0.057339564 0.019863127 -0.11293801 -0.021827571
-0.050556093 -0.074267834 -0.09904693 0.10738337 -0.12952292 -0.060841203 0.15189391 -0.13893917
0.07420691 0.07752182 -0.16983849 0.15254529 -0.1296748 -0.010113911 0.0059483317 -0.12852226
-0.071907215 -0.027358724 0.16830902 -0.13407685 -0.039441664 0.10934634 0.044823717 -0.14872113
-0.11357272 -0.10378833 -0.11580818 -0.08680781 0.07087299 0.1740133 -0.1299221 -0.09368824
-0.05601934 0.15136899 -0.10320587 -0.1078016 -0.13457288 0.1626571 -0.07137115 0.08143242
0.10964068 0.14733797 0.13609715 0.11489019 0.13076006 0.0046469844 0.18221755 0.13851579
-0.05434357 0.14459471 0.12508598 0.002820507 0.031559233 0.07256418 0.06908616 -0.17511319
0.039546277 0.15187559 -0.16531108 -0.13302912 -0.17645863 0.07007113 0.041206706 -0.064975776
-0.13432255 -0.111357115 -0.07539725 -0.13174208 -0.043847423 -0.036958374 -0.14145422 -0.18059157
-0.05176408 0.0743989 -0.16855626 -0.06408049 -0.08988751 -0.13181682 -0.08027603 0.16421804
00000000: b3cb 96bc a80e bf3d d65c d73d 72d7 dfbc
00000010: 5191 96bd a57f a13d 2df5 a9bd 19dc d7bd
00000020: 6cb0 20be eab1 d7bc 5709 b23d b4ff c23d
00000030: f3ce cbbd 38d1 d6b8 15d9 9f3d 4e46 1d3e
00000040: 4016 2fbd c2e2 88bd 1265 15be 9453 db3c
00000050: e244 9e3d 97eb b23d 5ffb fcbc 2e72 3d3c
00000060: 78df 113e 00c8 bc3d a20c 00be be17 f23d
00000070: de0a 3dbe 4fb6 f5bd cb73 853d a9a2 24be
00000080: f772 aa3d b3f8 21be 833c 22be 0231 34bd
00000090: 8995 82bb c0ba b5bd aaa9 24be 5315 d4bd
000000a0: 88ef 6e3d 3eb9 8f3d 30fa 58bd 61b7 95bd
000000b0: 3284 543d 86d3 f73b f8b9 bdbd f187 24be
000000c0: 4a0f 283e ac5c d5bd 2f40 0abe 6cb5 f3bd
000000d0: 72a2 a7bd f0e5 323e 235d 8b3d ef7a 9a3d
000000e0: 9117 a93d 6f24 78bd 9f84 833d 68fc 92bd
000000f0: d213 a4bd 1ec6 8bbb 4923 c53d 3f86 2cbe
00000100: 338b 1a3e c854 883d 39fa a63c f592 1fbe
00000110: c8a7 173e 031d 28be 0386 eebd a588 043e
00000120: 0cbe 083e a97a 103e 7f26 f13d d51b 653c
00000130: f206 e5bd f8bb e73b e165 0d3e d113 05be
00000140: 9d4f 0c3e 06f8 fd3c 5f47 753d 0246 b53d
00000150: b1cc 36bb b195 61bd 6f6f cd3d b660 f23d
00000160: d249 63bd acda 36bd 677c 053e 839a c2bd
00000170: 24bf 883d a79f 2ebe 5d58 263e fe02 d33c
00000180: a418 4d3c 8cb1 45bd 08e6 a4bc 17ba 6f3d
00000190: 0941 cbbd a84f 13bd e272 063e d292 f83d
000001a0: 81ee e33c 2eb5 8ebd 1636 acbd 3d2b 88bd
000001b0: 10da 1cbe 2e45 30bd 6177 263e 1e22 083e
000001c0: 58e4 193e 943b 063e 7a29 09bc 0a5a 153e
000001d0: afdc ccbc 8a48 dfbd fd5a 1a3e e7fe 6fbd
000001e0: ec4d bfbc 5cf2 033e 6d8e e2bd 7ad9 1abe
000001f0: 8115 423d f36c 213d 7fbe 0f3d d6ef a9ba
00000200: 52ec 033e c447 07be a529 7c3d 5ce6 c9bc
00000210: b505 c33d 9e89 ebbd d0d3 25be bbc1 8ebd
00000220: bb27 e2bc 19b4 d93d 7a52 843d ccfc 8f3d
00000230: 2114 3ebb e566 dbbd 4498 643d e7a6 123e
00000240: 1318 0abe 8032 273e 748b c33d 631a d63d
00000250: 938e 693d 65c9 2dbe e950 cc3d 9bb2 233e
00000260: 73c2 383e 1d1f 6f3d 411f 103d 4fc0 1e3e
00000270: 3b33 153d dc70 893c 4b5a 6abc ec44 133e
00000280: 6d1c fdbd 40c3 9e3d 136d b63d a191 a73d
00000290: a73e 18be 0e75 4b3d e481 1a3e ad16 eebb
000002a0: 7413 79bd 6ac6 aabd 6329 1a3e bf52 f5bc
000002b0: e4dc 6abd ffb7 a23c 0b4c e7bd bccf b2bc
000002c0: e813 4fbd bc19 98bd 1ed9 cabd d0eb db3d
000002d0: a8a1 04be a034 79bd 148a 1b3e 1246 0ebe
000002e0: cbf9 973d c3c3 9e3d 24ea 2dbe d534 1c3e
000002f0: 79c9 04be d1b4 25bc 39ea c23b 579b 03be
00000300: 1744 93bd 671f e0bc 3359 2c3e 714b 09be
00000310: 958d 21bd f9f0 df3d 1399 373d 5a4a 18be
00000320: d098 e8bd fa8e d4bd d72c edbd 4bc8 b1bd
00000330: dc25 913d 8b30 323e 4d0a 05be 9fdf bfbd
00000340: 8974 65bd 7900 1b3e 995d d3bd 16c7 dcbd
00000350: 79cd 09be 958f 263e 0a2b 92bd 0ac6 a63d
00000360: 4b8b e03d c4df 163e 0d5d 0b3e 8c4b eb3d
00000370: f7e5 053e bb45 983b 3d97 3a3e 15d7 0d3e
00000380: 5d97 5ebd a310 143e 8a16 003e 41d8 383b
00000390: 4144 013d 879c 943d 0b7d 8d3d df50 33be
000003a0: 47fb 213d 4685 1b3e 4f47 29be c938 08be
000003b0: 92b1 34be 7481 8f3d 5dc8 283d 0512 85bd
000003c0: da8b 09be 330f e4bd e069 9abd 65e7 06be
000003d0: 5b99 33bd aa61 17bd 60d9 10be ffec 38be
000003e0: 9206 54bd 735e 983d 039a 2cbe a23c 83bd
000003f0: f116 b8bd fdfa 06be c267 a4bd c628 283e

unet.cond_mlp.0.bias f4 [16]
0.07153963 -0.093869 0.15367103 -0.08812437 -0.116346024 0.032110333 0.010640848 0.15563923
0.1108331 0.045347113 -0.003391444 0.028428363 0.0574506 0.057985842 -0.01786794 0.13483788
00000000: 5f83 923d 643e c0bd f05b 1d3e 8d7a b4bd
00000010: d346 eebd 2086 033d f456 2e3c e45f 1f3e
00000020: 77fc e23d e5bd 393d fd42 5ebb 99e2 e83c
00000030: 5251 6b3d 9082 6d3d c95f 92bc f112 0a3e
