src/logs_example/run_20250718_182959_ws10_fd1_ed16_bc8_rb1_nt50_s0.008_sw0.1_lr0.001_bs32_63a10ad7/model_run_20250718_182959_ws10_fd1_ed16_bc8_rb1_nt50_s0.008_sw0.1_lr0.001_bs32_63a10ad7.pt (torch, 35459 bytes, 32 tensors)

betas f4 [50]
0.001747489 0.003688991 0.0056337714 0.007585764 0.0095489025 0.011526883 0.013524234 0.015544534
0.01759255 0.019673109 0.021790743 0.023950815 0.026158988 0.028421521 0.030744493 0.033135474
0.035602212 0.03815353 0.040798843 0.04354924 0.046416342 0.04941398 0.05255717 0.055863857
0.05935359 0.06304985 0.06697893 0.07117188 0.07566583 0.08050352 0.085736334 0.09142703
0.09765023 0.10449803 0.11208534 0.120556235 0.13009268 0.14093208 0.15338635 0.16787475
0.18497169 0.20549464 0.23063338 0.26219916 0.30307245 0.3581307 0.43622243 0.5548348
0.7497583 0.999
00000000: 000c e53a 00c3 713b 809b b83b 0092 f83b
00000010: 0073 1c3c 40db 3c3c c094 5d3c 80ae 7e3c
00000020: 401e 903c 8029 a13c 8082 b23c 8034 c43c
00000030: 604b d63c 40d4 e83c e0db fb3c 10b9 073d
00000040: a0d3 113d e046 1c3d b01c 273d b060 323d
00000050: 101f 3e3d 5066 4a3d 3046 573d 80d1 643d
00000060: c01c 733d 4820 813d 402c 893d 90c2 913d
00000070: b0f6 9a3d 08df a43d 8896 af3d 183e bb3d
00000080: d8fc c73d 1003 d63d 008d e53d 30e6 f63d
00000090: 0437 053e 8050 103e 5011 1d3e 5ce7 2b3e
000000a0: 3869 3d3e 306d 523e 282b 6c3e f83e 863e
000000b0: 502c 9b3e e85c b73e 8c58 df3e a709 0e3f
000000c0: 29f0 3f3f 77be 7f3f

alphas f4 [50]
0.9982525 0.996311 0.9943662 0.99241424 0.9904511 0.9884731 0.98647577 0.98445547
0.98240745 0.9803269 0.97820926 0.9760492 0.973841 0.9715785 0.9692555 0.9668645
0.9643978 0.9618465 0.95920116 0.95645076 0.95358366 0.950586 0.9474428 0.94413614
0.9406464 0.93695015 0.93302107 0.9288281 0.92433417 0.9194965 0.91426367 0.908573
0.90234977 0.895502 0.88791466 0.87944376 0.8699073 0.8590679 0.84661365 0.83212525
0.8150283 0.79450536 0.7693666 0.73780084 0.69692755 0.6418693 0.56377757 0.44516522
0.2502417 0.0009999871
00000000: 7a8d 7f3f 3d0e 7f3f c98e 7e3f dc0e 7e3f
00000010: 348e 7d3f 930c 7d3f ad89 7c3f 4605 7c3f
00000020: 0e7f 7b3f b4f6 7a3f ec6b 7a3f 5cde 793f
00000030: a54d 793f 5eb9 783f 2121 783f 6f84 773f
00000040: c6e2 763f 923b 763f 358e 753f f5d9 743f
00000050: 0f1e 743f 9b59 733f 9d8b 723f e8b2 713f
00000060: 34ce 703f f7db 6f3f 78da 6e3f aec7 6d3f
00000070: 2aa1 6c3f 1f64 6b3f 2f0d 6a3f 3d98 683f
00000080: 6500 673f 9e3f 653f 604e 633f 3a23 613f
00000090: 3fb2 5e3f e0eb 5b3f acbb 583f 2906 553f
000000a0: b2a5 503f b464 4b3f 36f5 443f 84e0 3c3f
000000b0: d869 323f 8c51 243f ba53 103f b2ec e33e
000000c0: ae1f 803e 0012 833a

alpha_bars f4 [50]
0.9982525 0.99456996 0.98896676 0.98146474 0.9720928 0.9608876 0.94789237 0.9331578
0.9167412 0.898706 0.87912256 0.85806686 0.8356207 0.81187105 0.78691053 0.7608359
0.73374844 0.7057533 0.6769594 0.64747834 0.6174248 0.5869154 0.5560687 0.52500457
0.49384367 0.46270692 0.4317153 0.40098932 0.37064812 0.34080964 0.31158987 0.28310212
0.25545713 0.22876237 0.20312147 0.17863391 0.15539494 0.13349481 0.11301853 0.09404557
0.0766498 0.06089868 0.046853412 0.034568485 0.02409173 0.015463742 0.008718111 0.0038809997
0.00097118795 9.711755e-07
00000000: 7a8d 7f3f 239c 7e3f ed2c 7d3f 4641 7b3f
00000010: 13db 783f bbfc 753f 13a9 723f 6ee3 6e3f
00000020: 8daf 6a3f 9911 663f 2d0e 613f 45aa 5b3f
00000030: 3deb 553f c8d6 4f3f f872 493f 24c6 423f
00000040: f0d6 3b3f 40ac 343f 364d 2d3f 24c1 253f
00000050: 8d0f 1e3f 1640 163f 855a 0e3f b366 063f
00000060: 14d9 fc3e ece7 ec3e ca09 dd3e 794e cd3e
00000070: 97c5 bd3e 9a7e ae3e b588 9f3e c3f2 903e
00000080: 47cb 823e af40 6a3e 13ff 4f3e cfeb 363e
00000090: da1f 1f3e ddb2 083e 4276 e73d f79a c03d
000000a0: 92fa 9c3d e570 793d 5de9 3f3d af97 0d3d
000000b0: 055c c53c a35b 7d3c 68d6 0e3c 5f58 7e3b
000000c0: 5297 7e3a 5659 8235

stat_predictor.cond_mlp.0.weight f4 [16, 32]
0.0986402 -0.08059176 0.09337788 0.18068022 0.03425699 -0.118326604 0.0074149887 0.09806506
-0.082996085 0.162968 0.14627053 -0.12552476 -0.07713205 0.10215027 0.09220893 -0.04237773
-0.02602652 -0.13490728 -0.18847887 0.12987958 0.07992897 0.07413147 -0.08656862 0.16758606
0.118881404 0.039874144 0.03061489 0.20634225 -0.073917106 -0.040996164 0.1600905 0.06854293
-0.1326497 0.14476503 -0.09591156 -0.07959197 0.1366836 -0.032353256 -0.043684952 -0.006134595
0.06228473 -0.0036355306 0.007597592 -0.073634714 0.100579344 -0.037947774 -0.07161296 0.194618
-0.097787954 0.085095696 -0.135515 0.09623638 0.06794734 -0.00678917 0.036895905 0.072831415
-0.06201092 -0.10788966 0.021673694 -0.09262289 0.124763794 -0.0012176336 -0.1255661 -0.117577605
-0.066222936 0.0126720425 0.105204165 0.14680932 0.107353956 0.16419788 -0.018326718 0.08620426
-0.027542874 0.021356843 -0.17147522 0.1914014 0.01684963 -0.08862264 -0.092960395 0.06542718
-0.08204676 -0.17513669 0.022414979 0.080736384 -0.01868642 -0.09852105 0.07497515 -0.0023732674
-0.030918019 0.18274383 0.07957256 0.21186389 0.14964136 0.092998035 -0.058551867 0.20433107
-0.007013544 -0.055440348 -0.17742126 -0.048457947 -0.11690949 0.12037465 -0.016513014 -0.13584392
0.0035887137 0.066318914 -0.04011479 -0.13576508 -0.13411216 -0.09519981 0.13644293 -0.08233352
0.02126948 -0.060335945 0.059880126 0.10702738 0.03471191 -0.09711984 -0.0945652 -0.06854057
0.13610083 0.073648535 -0.12291247 -0.070884876 0.0446529 -0.03569266 -0.12696745 -0.07328831
0.10125174 -0.09091167 0.0022232304 0.10583977 0.15773784 0.037856944 0.047350023 0.009952368
-0.0722991 -0.0775456 0.029770058 -0.021639435 -0.1570003 0.16041833 -0.10297772 0.09506023
0.069806516 -0.16789737 -0.11322163 -0.009281556 0.009267799 -0.00576537 -0.06206044 -0.15343058
0.15883628 -0.01462592 0.17191823 0.06934689 0.10550171 -0.16897324 -0.0527102 0.09163694
0.085703485 0.032179512 0.12726387 0.12400763 0.073635414 0.11895378 0.09141293 -0.18484505
0.16503245 0.03994023 -0.039290257 0.04315332 0.0009935304 -0.04636305 -0.16833584 0.030667122
0.02684202 -0.020986617 0.053916983 -0.1750132 -0.012716551 -0.104490705 0.031075174 0.046616513
-0.11460369 -0.17601104 -0.056171183 -0.0153055545 -0.08257367 0.062495645 -0.14474069 0.10002249
0.14641449 -0.11658582 0.12220815 -0.023474487 -0.19820242 -0.11534434 0.022168245 -0.13519952
0.18118991 -0.043603726 0.18561643 -0.025001505 -0.13717021 -0.07851263 -0.12302316 -0.16302799
-0.029926147 0.12344287 0.18622851 -0.14186327 -0.0020641016 -0.16555104 -0.17119803 -0.13315439
0.16156156 -0.12929931 -0.07641731 0.061121847 0.098279834 -0.09719266 0.014524038 -0.116470136
-0.15919164 -0.003083918 -0.104011096 -0.12859838 0.024330243 0.010244824 0.045616888 -0.06812108
-0.13661322 -0.1058372 -0.058253333 -0.110068254 0.12270913 -0.042422444 0.14614734 -0.100394435
-0.030016102 -0.026119586 -0.038579173 0.02556423 0.14466608 -0.030780314 -0.013849538 -0.14074475
-0.07217368 -0.121814534 -0.16984226 -0.13904625 0.1639737 -0.03720741 0.0033931201 -0.00057246065
00000000: e003 ca3d 4b0d a5bd e73c bf3d 3c04 393e
00000010: 0f51 0c3d 3855 f2bd 6ff9 f23b 56d6 c83d
00000020: daf9 a9bd 15e1 263e f1c7 153e 9089 00be
00000030: 69f7 9dbd 2934 d13d 09d8 bc3d 4594 2dbd
00000040: 9235 d5bc 2225 0abe 9b00 41be 27ff 043e
00000050: cdb1 a33d 3dd2 973d e34a b1bd ae9b 2b3e
00000060: 1878 f33d 1253 233d 14cc fa3c 624b 533e
00000070: da61 97bd 98eb 27bd c4ee 233e 3c60 8c3d
00000080: 53d5 07be 493d 143e 486d c4bd 1d01 a3bd
00000090: c9f6 0b3e d984 04bd feee 32bd b604 c9bb
000000a0: 461e 7f3d 1542 6ebb 39f5 f83b cccd 96bd
000000b0: 8bfc cd3d 206f 1bbd d1a9 92bd f149 473e
000000c0: 0d45 c8bd a746 ae3d 72c4 0abe 9417 c53d
000000d0: fa27 8b3d b077 debb 2920 173d a328 953d
000000e0: 2aff 7dbd 41f5 dcbd 088d b13c 12b1 bdbd
000000f0: 2984 ff3d 0199 9fba 6694 00be 87cc f0bd
00000100: e49f 87bd 669e 4f3c 4875 d73d 2f55 163e
00000110: 64dc db3d 7d23 283e ea21 96bc dc8b b03d
00000120: 98a1 e1bc 8cf4 ae3c 3397 2fbe bbfe 433e
00000130: 3c08 8a3c c97f b5bd 0562 bebd affe 853d
00000140: 2208 a8bd 0857 33be 9e9f b73c 1e59 a53d
00000150: 4314 99bc 67c5 c9bd 928c 993d d288 1bbb
00000160: c947 fdbc 3321 3b3e f0f6 a23d d9f2 583e
00000170: 963b 193e c175 be3d 15d4 6fbd 2a3c 513e
00000180: dfd1 e5bb 6b15 63bd ebad 35be d77b 46bd
00000190: 3e6e efbd fc86 f63d 4d46 87bc ab1a 0bbe
000001a0: a030 6b3b 36d2 873d 684f 24bd 0006 0bbe
000001b0: b354 09be 1ef8 c2bd b2b7 0b3e 7a9e a8bd
000001c0: 553d ae3c d322 77bd dd44 753d 2c31 db3d
000001d0: 132e 0e3d c4e6 c6bd 66ab c1bd 005f 8cbd
000001e0: 045e 0b3e 0bd5 963d 88b9 fbbd 172c 91bd
000001f0: f6e5 363d 7732 12bd c103 02be 2e18 96bd
00000200: 125d cf3d e62f babd 9eb3 113b 85c2 d83d
00000210: 0786 213e e20f 1b3d 19f2 413d 420f 233c
00000220: 8d11 94bd 3ad0 9ebd 56e0 f33c 2f45 b1bc
00000230: b0c4 20be b444 243e fce5 d2bd f0ae c23d
00000240: b8f6 8e3d 4aed 2bbe bee0 e7bd ab11 18bc
00000250: f7d7 173c 6eeb bcbb 1733 7ebd e81c 1dbe
00000260: faa5 223e 8ea1 6fbc 550b 303e be05 8e3d
00000270: 4811 d83d 5207 2dbe a7e6 57bd 26ac bb3d
00000280: 4f85 af3d aace 033d 7651 023e b6f7 fd3d
00000290: 2ace 963d 0a9e f33d b436 bb3d 0548 3dbe
000002a0: 44fe 283e 5e98 233d d2ee 20bd 89c1 303d
000002b0: 5939 823a 2ee7 3dbd 3b60 2cbe 9e39 fb3c
000002c0: cce3 db3c 20ec abbc 0ed8 5c3d a936 33be
000002d0: 1559 50bc 39ff d5bd 5d91 fe3c f5f0 3e3d
000002e0: 57b5 eabd 3d3c 34be c113 66bd 26c4 7abc
000002f0: 621c a9bd 6ffb 7f3d e736 14be 97d8 cc3d
00000300: aeed 153e 8cc4 eebd 4448 fa3d 914d c0bc
00000310: 93f5 4abe a739 ecbd 2e9a b53c be71 0abe
00000320: d989 393e d299 32bd 3c12 3e3e f5cf ccbc
00000330: 5976 0cbe 3bcb a0bd 91f3 fbbd cff0 26be
00000340: ae27 f5bc 9ecf fc3d b0b2 3e3e 9b44 11be
00000350: e145 07bb 3686 29be 894e 2fbe a059 08be
00000360: 6570 253e 0a67 04be ae80 9cbd e75a 7a3d
00000370: f046 c93d f20c c7bd 3bf6 6d3c e587 eebd
00000380: 2203 23be 8f1b 4abb c503 d5bd 4baf 03be
00000390: 3850 c73c e8d9 273c c6d8 3a3d 1183 8bbd
000003a0: 56e4 0bbe 2dc1 d8bd 0c9b 6ebd 776b e1bd
000003b0: ed4e fb3d 28c3 2dbd a6a7 153e 999b cdbd
000003c0: 54e4 f5bc bef8 d5bc 3205 1ebd 136c d13c
000003d0: 5823 143e ff26 fcbc 2ce9 62bc 641f 10be
000003e0: cbcf 93bd e679 f9bd 21eb 2dbe 2462 0ebe
000003f0: b9e8 273e cc66 18bd 1c5f 5e3b 2f11 16ba

stat_predictor.cond_mlp.0.bias f4 [16]
0.16590953 0.19087428 0.21610983 -0.17724074 0.052986313 -0.021815691 -0.17440991 0.13035414
0.049099043 -0.031749025 0.058562133 0.09299057 0.08966132 -0.021708557 0.103881516 -0.029259784
00000000: 30e4 293e 8c74 433e e54b 5d3e 997e 35be
00000010: 2d08 593d d2b6 b2bc 8398 32be 8e7b 053e
00000020: 141c 493d 440b 02bd d9de 6f3d d771 be3d
00000030: 5ba0 b73d 25d6 b1bc d5bf d43d 37b2 efbc

stat_predictor.cond_mlp.2.weight f4 [16, 16]
0.17190875 -0.19599581 -0.048128232 -0.0958584 -0.09320272 0.09189478 0.25251818 -0.0056317
0.112798415 -0.17120619 -0.037522573 0.20737316 -0.25022745 0.13764136 0.06841843 0.12890099
0.053555768 -0.071299255 0.18971439 -0.22309163 0.12423204 -0.013491849 0.017794281 -0.15700212
-0.0077844867 0.23643126 -0.009996052 -0.23308349 0.2211406 -0.09274429 -0.1807158 -0.2156257
0.12525736 -0.04173601 -0.14547035 0.031306364 0.07777631 -0.15352325 -0.17906433 -0.12087716
0.1337132 0.031475984 -0.25315621 0.12013351 0.0154381385 0.13626698 0.10960149 -0.020262856
0.1777751 0.1871428 0.1228992 -0.20103781 0.19574964 -0.16854757 0.1428651 -0.13914736
-0.01897414 -0.02535722 -0.221801 -0.035503127 -0.04163237 0.0784651 -0.24314968 -0.11193043
0.101821534 0.14141765 -0.17524894 -0.05754561 -0.1626188 0.2108853 -0.1501042 -0.05902249
0.028676638 0.2112117 -0.0867566 0.22217728 -0.21951099 0.15803964 -0.016195342 -0.16599452
0.013835906 -0.037630487 0.24308404 0.06680151 -0.17639951 -0.19355978 0.14794442 -0.20636371
-0.15721679 0.07091562 -0.19257098 -0.2052818 0.16876528 0.20925464 0.24253839 -0.10296697
0.035820458 -0.032619737 -0.14497508 -0.2133398 0.10644881 0.13367626 0.11326133 -0.2049944
0.031515785 -0.20766667 -0.12054703 -0.030610356 0.08183311 0.07642284 -0.1748864 -0.13174818
-0.23169066 0.020919057 -0.22368546 0.14407228 0.16635707 -0.16911912 -0.036396556 0.18422231
-0.021164373 0.1883556 -0.19774963 -0.23819351 0.07011716 0.052350327 0.10602243 -0.24769665
-0.16494627 -0.03788456 0.059698757 0.008299134 0.10194521 0.034646314 -0.25037646 0.15953168
0.019737406 -0.119215846 -0.19972453 0.11692179 0.003456973 0.060630385 0.19734229 0.018655863
0.13710149 0.14780076 -0.023682812 -0.20330502 -0.22586279 -0.1967706 0.086421475 0.044893995
0.22352435 0.141038 0.07953872 0.041426532 0.07054749 -0.21192524 0.066811405 0.03532961
-0.11041467 -0.03713229 0.1426425 -0.06103301 0.0910192 0.14437523 0.0067723533 0.13670579
0.23504087 0.040120546 -0.23114587 0.12784247 0.088766664 -0.0646577 0.033629775 -0.13310638
0.2661154 0.2250649 0.11499251 -0.20534395 -0.016913826 -0.09771351 -0.26670122 0.0040356126
0.062854975 -0.03255766 -0.26702732 0.2532279 0.04724824 -0.13921218 -0.060146045 -0.13338344
-0.08665348 -0.25391653 0.0004965911 0.024239637 0.22637688 0.03900118 0.058710095 -0.07359691
0.2148315 0.017955748 0.07202119 0.012407131 -0.06950498 0.1277116 -0.13722846 0.20236197
0.15819305 -0.23443833 -0.0074970666 -0.15281981 -0.09773037 -0.11175185 0.028884485 0.23168105
-0.1563332 -0.06604264 -0.13799258 -0.18845394 -0.0056381808 0.01786024 0.097564 0.21556824
-0.07820268 -0.1865779 -0.038499895 -0.053063475 -0.17019355 -0.05467102 0.0983921 0.037603926
-0.13008827 0.18852396 0.16036254 0.19551408 -0.18145801 0.033784494 0.22700992 0.033168267
0.060911223 -0.12568648 0.066665 0.112855755 0.24938306 0.20676708 0.053725623 0.13195516
-0.04775463 -0.043312162 0.011587559 -0.06952989 0.14786044 -0.19570974 0.26547703 0.16462101
00000000: d908 303e 20b3 48be 1c22 45bd 6951 c4bd
00000010: 11e1 bebd 5533 bc3d 104a 813e 208a b8bb
00000020: db02 e73d ad50 2fbe 45b1 19bd a159 543e
00000030: d01d 80be dbf1 0c3e f61e 8c3d 9ffe 033e
00000040: 4b5d 5b3d 5805 92bd 7d44 423e 2272 64be
00000050: 5e6d fe3d eb0c 5dbc 50c5 913c 2ac5 20be
00000060: 0215 ffbb 091b 723e 7bc6 23bc 70ad 6ebe
00000070: ae72 623e b8f0 bdbd 900d 39be fccc 5cbe
00000080: 7743 003e 61f3 2abd 2ef6 14be 1a3b 003d
00000090: 3049 9f3d 3335 1dbe a45c 37be 728e f7bd
000000a0: 1dec 083e f6ec 003d b19d 81be 8f08 f63d
000000b0: 3ff0 7c3c 9289 0b3e bf76 e03d 4afe a5bc
000000c0: ad0a 363e 5da2 3f3e 93b2 fb3d dbdc 4dbe
000000d0: 9872 483e bc97 2cbe 3b4b 123e a57c 0ebe
000000e0: a86f 9bbc f2b9 cfbc cd1f 63be ba6b 11bd
000000f0: b486 2abd 4fb2 a03d 3bfc 78be c83b e5bd
00000100: cf87 d03d cacf 103e 7574 33be f2b4 6bbd
00000110: 8b85 26be 51f2 573e eab4 19be 91c1 71bd
00000120: 45eb ea3c e147 583e 72ad b1bd 7182 633e
00000130: 7dc7 60be 25d5 213e 18ac 84bc 78fa 29be
00000140: ffaf 623c 6d22 1abd 06eb 783e 3bcf 883d
00000150: 13a2 34be 8934 46be be7e 173e 0251 53be
00000160: 70fd 20be 353c 913d 5431 45be 6435 52be
00000170: ced0 2c3e d946 563e fc5b 783e 59e0 d2bd
00000180: 79b8 123d 469c 05bd 5974 14be c075 5abe
00000190: d501 da3d 6ee2 083e 8ef5 e73d 0dea 51be
000001a0: b216 013d 92a6 54be 5ce1 f6bd 92c2 fabc
000001b0: 1e98 a73d 9483 9c3d 6c15 33be ffe8 06be
000001c0: 5140 6dbe 715e ab3c cd0d 65be af87 133e
000001d0: 8259 2a3e 902d 2dbe 8e14 15bd c6a4 3c3e
000001e0: e860 adbc 4ae0 403e e17e 4abe 00e9 73be
000001f0: 9699 8f3d 4c6d 563d 4a22 d93d 31a4 7dbe
00000200: ade7 28be d72c 1bbd af86 743d 17f9 073c
00000210: a6c8 d03d 4be9 0d3d 5831 80be 465c 233e
00000220: 57b0 a13c 7027 f4bd 9684 4cbe b174 ef3d
00000230: 628e 623b 9157 783d 1914 4a3e 2ed4 983c
00000240: 5564 0c3e 1559 173e 7502 c2bc 312f 50be
00000250: 9348 67be 3b7e 49be befd b03d c4e2 373d
00000260: 91e3 643e 446c 103e 32e5 a23d deae 293d
00000270: 347b 903d ee02 59be 6bd4 883d c8b5 103d
00000280: 1621 e2bd 0718 18bd e010 123e c0fd 79bd
00000290: 4668 ba3d 1ad7 133e 9eea dd3b 9afc 0b3e
000002a0: 8eae 703e 7155 243d 81b1 6cbe 23e9 023e
000002b0: 4ccb b53d 426b 84bd 60bf 093d 0a4d 08be
000002c0: 4740 883e 6a77 663e 3181 eb3d af45 52be
000002d0: dd8e 8abc 051e c8bd 108d 88be 2c3d 843b
000002e0: 1cba 803d 2e5b 05bd ceb7 88be 16a7 813e
000002f0: 5f87 413d a38d 0ebe b35b 76bd ab95 08be
00000300: 6177 b1bd 5901 82be aa2d 023a 3492 c63c
00000310: 57cf 673e b4bf 1f3d ff79 703d fab9 96bd
00000320: cafc 5b3e ef17 933c d87f 933d 4747 4b3c
00000330: a158 8ebd d4c6 023e 9e85 0cbe fa37 4f3e
00000340: 5cfd 213e 9a10 70be f4a9 f5bb cc7c 1cbe
00000350: dc26 c8bd 27de e4bd 289f ec3c cc3d 6d3e
00000360: cf15 20be 5d41 87bd ed4d 0dbe 12fa 40be
00000370: 7dc0 b8bb a34f 923c a2cf c73d ecbd 5c3e
00000380: ba28 a0bd 470e 3fbe 11b2 1dbd 1659 59bd
00000390: 3847 2ebe b8ee 5fbd cc81 c93d 9306 1a3d
000003a0: dc35 05be 6d0c 413e 1436 243e d834 483e
000003b0: 21d0 39be 9c61 0a3d 4a75 683e 73db 073d
000003c0: 0c7e 793d f5b3 00be a987 883d eb20 e73d
000003d0: 465e 7f3e c0ba 533e 660f 5c3d 411f 073e
000003e0: 5c9a 43bd 1868 31bd bfd9 3d3c b065 8ebd
000003f0: ba68 173e 2268 48be 9bec 873e 6992 283e

stat_predictor.cond_mlp.2.bias f4 [16]
0.102543004 -0.17364648 0.07453582 -0.11471425 0.043200586 -0.003925891 -0.10451508 -0.100068696
0.0045068595 0.21485914 0.07338596 -0.14826128 0.020707197 0.07752453 0.03132008 -0.12923352
00000000: 1102 d23d 62d0 31be 3ca6 983d 4eef eabd
00000010: 19f3 303d c3a4 80bb 010c d6bd d1f0 ccbd
00000020: 47ae 933b 0904 5c3e 614b 963d ced1 17be
00000030: 24a2 a93c 2ec5 9e3d 7c49 003d cb55 04be

stat_predictor.stat_mlp.0.weight f4 [16, 16]
0.15417464 0.010081781 0.26375815 0.1557361 0.101801075 -0.14396733 -0.058960155 -0.05951903
-0.0932443 0.2034763 0.2022564 0.0292267 -0.07438432 0.22951894 -0.15405546 0.17292254
-0.020422122 0.21958706 0.05030747 0.03227754 0.008794365 0.047813807 -0.095451094 0.16882466
-0.034538392 0.25283402 -0.04735079 -0.10381717 0.08796997 -0.0733137 -0.023181653 0.16054292
0.038159233 -0.0320696 -0.087627836 -0.13262276 -0.22999315 -0.13597094 -0.095161796 0.18958287
-0.010845541 0.15403461 -0.23757793 -0.23640497 -0.22891808 -0.16209906 -0.024309456 0.027517846
0.041174438 0.15740447 -0.09341071 -0.12448204 -0.066754304 -0.18338503 0.024576964 0.16673611
0.06852404 -0.06340699 0.048631698 -0.18211004 0.07030041 0.19315599 -0.042212047 -0.14711577
-0.039147764 0.10605379 -0.22673059 0.05474692 0.20509942 0.108173124 -0.07509248 0.044275843
0.02853937 -0.18137887 -0.18243794 -0.23191002 0.06516222 -0.059470702 0.063697375 0.14312215
0.23263596 -0.087933436 -0.120096855 -0.035857975 -0.11080177 0.2577708 0.0043314695 -0.06915736
-0.10296765 -0.17943718 -0.12756981 0.2069149 -0.20973071 0.033547893 0.035167422 0.16417144
-0.07383316 0.2192912 -0.1996836 -0.04141204 -0.15334815 0.041407388 -0.064401254 0.1987904
-0.24065694 -0.021935295 -0.19560735 -0.13423279 -0.1807614 -0.12773879 -0.019381966 0.08461104
0.1329807 0.15836461 -0.25461397 -0.1854465 -0.11609389 0.21698081 -0.18105239 0.20698468
0.10353754 -0.15321502 -0.024717893 0.13748288 -0.25351137 0.20234373 0.009605739 -0.059100423
-0.2211705 -0.08310584 -0.1781472 -0.11681815 -0.25247034 0.10327954 0.04783165 0.04566281
-0.05793411 0.1546292 0.19046272 0.23928142 0.13534865 -0.09660246 0.24208693 -0.0040872786
0.050731197 0.013854829 0.19046524 0.20920537 -0.055511355 -0.16527493 0.03877024 0.22746187
-0.1544793 -0.18854395 0.1557067 -0.12773976 -0.12432545 0.03959188 0.16657087 0.12003076
-0.027481139 -0.0133496085 0.24878854 0.17473863 0.16656323 0.107590854 0.08342574 -0.24770848
0.23957539 0.19935375 0.10542539 0.07044915 -0.085727096 0.28101045 0.12604386 0.19853838
0.021825884 -0.15776017 -0.038418163 -0.2442153 0.01271405 -0.007500806 0.05579658 0.05537323
-0.22557262 0.13660863 0.14046726 0.11312188 -0.0010074156 -0.22531629 0.21251614 0.039148517
-0.20836712 -0.1514001 -0.026229864 -0.15068793 0.017335488 0.055352863 -0.06526613 -0.08766109
-0.19569263 -0.15046397 -0.016164329 0.062419113 -0.19571035 0.08468754 -0.025344737 0.2499197
0.123416126 0.06317399 0.23353606 -0.10242079 0.14767689 -0.0063130474 0.1745331 -0.010443979
-0.18577124 -0.08097557 -0.19110228 -0.18921407 -0.08007936 -0.23808001 0.09510546 -0.0115022445
0.061247334 -0.123353265 0.15792592 0.14915763 0.14688396 0.0092101265 -0.11920869 -0.20238866
0.064907834 -0.03470668 0.10501357 0.09215273 0.033971667 -0.17670482 0.07251268 -0.072884
0.036642563 0.10225733 -0.1692325 0.18746446 -0.10329262 -0.2462571 0.04223079 -0.085211314
-0.21749097 -0.22348166 -0.11702171 0.13773304 -0.18694583 -0.17955415 -0.19797544 0.079253465
00000000: f5df 1d3e 0e2e 253c 4f0b 873e 4979 1f3e
00000010: 157d d03d 2c6c 13be 3480 71bd 3aca 73bd
00000020: def6 bebd 175c 503e 4d1c 4f3e d56c ef3c
00000030: ce56 98bd 0307 6b3e b7c0 1dbe 9b12 313e
00000040: 4b4c a7bc 6edb 603e 350f 4e3d 7435 043d
00000050: 3e16 103c 69d8 433d dd7b c3bd 5fe0 2c3e
00000060: 2178 0dbd 7673 813e e7f2 41bd 199e d4bd
00000070: 9a29 b43d 7e25 96bd 73e7 bdbc 5d65 243e
00000080: db4c 1c3d 6a5b 03bd 3976 b3bd 43ce 07be
00000090: 5383 6bbe f73b 0bbe 30e4 c2bd 0322 423e
000000a0: 7fb1 31bc 40bb 1d3e a147 73be 2514 72be
000000b0: 8069 6abe 4cfd 25be a024 c7bc 1b6d e13c
000000c0: 87a6 283d a32e 213e 1d4e bfbd 71f0 febd
000000d0: 7bb6 88bd 49c9 3bbe a155 c93c dfbc 2a3e
000000e0: 5556 8c3d 86db 81bd 0832 473d 0e7b 3abe
000000f0: a9f9 8f3d afca 453e 8ae6 2cbd 84a5 16be
00000100: 6859 20bd bb32 d93d 102c 68be 4e3e 603d
00000110: 9505 523e df89 dd3d 16ca 99bd 965a 353d
00000120: 66cb e93c 62bb 39be 03d1 3abe d279 6dbe
00000130: c573 853d 8d97 73bd c573 823d 9d8e 123e
00000140: 1f38 6e3e 7216 b4bd 57f5 f5bd d0df 12bd
00000150: 0aec e2bd 89fa 833e 00ef 8d3b 60a2 8dbd
00000160: b4e0 d2bd 61be 37be a9a1 02be 80e1 533e
00000170: a6c3 56be 8469 093d b70b 103d 8f1c 283e
00000180: d735 97bd df8d 603e dc79 4cbe ac9f 29bd
00000190: 4c07 1dbe cb9a 293d cee4 83bd b68f 4b3e
000001a0: c66e 76be a6b1 b3bc 4b4d 48be 5274 09be
000001b0: 8419 39be f5cd 02be eec6 9ebc 8e48 ad3d
000001c0: 182c 083e 552a 223e c35c 82be b0e5 3dbe
000001d0: a2c2 edbd 3830 5e3e cc65 39be cbf3 533e
000001e0: 7d0b d43d 66e4 1cbe 2e7d cabc 50c8 0c3e
000001f0: 3ecc 81be 3233 4f3e 6461 1d3c 4913 72bd
00000200: 857a 62be 6533 aabd 386c 36be 5b3e efbd
00000210: cb43 81be 3984 d33d 1feb 433d ed08 3b3d
00000220: 514c 6dbd 1e57 1e3e a908 433e 3006 753e
00000230: d698 0a3e 83d7 c5bd a3e5 773e 94ee 85bb
00000240: 84cb 4f3d 5dff 623c 5209 433e ef39 563e
00000250: e05f 63bd d53d 29be 8bcd 1e3d c4eb 683e
00000260: d22f 1ebe aa11 41be 9471 1f3e 36ce 02be
00000270: 579e febd 182b 223d 8e91 2a3e b0d2 f53d
00000280: 2020 e1bc 51b8 5abc 6cc2 7e3e afee 323e
00000290: 8d8f 2a3e 9858 dc3d 1ddb aa3d 4ba7 7dbe
000002a0: 4053 753e 6423 4c3e 44e9 d73d a547 903d
000002b0: b091 afbd 9ae0 8f3e a411 013e a54d 4b3e
000002c0: 32cc b23c e28b 21be 5d5c 1dbd 9313 7abe
000002d0: 974e 503c 52c9 f5bb f48a 643d 0acf 623d
000002e0: 82fc 66be 22e3 0b3e a6d6 0f3e 72ac e73d
000002f0: 420b 84ba 50b9 66be d59d 593e 325a 203d
00000300: 315e 55be a108 1bbe 03e0 d6bc f04d 1abe
00000310: 2703 8e3c afb9 623d 40aa 85bd a887 b3bd
00000320: a663 48be 3a13 1abe 0e6b 84bc 2fab 7f3d
00000330: 4b68 48be a970 ad3d c49f cfbc f3ea 7f3e
00000340: 98c1 fc3d 5d61 813d 1424 6f3e fec1 d1bd
00000350: 9c38 173e aedd cebb ceb8 323e 391d 2bbc
00000360: d13a 3ebe 85d6 a5bd 51b0 43be 55c1 41be
00000370: a600 a4bd 3fcb 73be a7c6 c23d e973 3cbc
00000380: 7cde 7a3d a3a0 fcbd 55b7 213e c7bc 183e
00000390: c068 163e 12e6 163c b023 f4bd f93e 4fbe
000003a0: 66ee 843d 9728 0ebd 5b11 d73d 92ba bc3d
000003b0: e025 0b3d 1cf2 34be 8781 943d 3544 95bd
000003c0: 8316 163d 4b6c d13d 494b 2dbe aff6 3f3e
000003d0: 158b d3bd d22a 7cbe 31fa 2c3d 4583 aebd
000003e0: f4b5 5ebe 60d8 64be 14a9 efbd e409 0d3e
000003f0: ba6e 3fbe 0bdd 37be 13ba 4abe a44f a23d

stat_predictor.stat_mlp.0.bias f4 [16]
-0.07372933 -0.18208958 0.18327671 0.0027787515 0.13661505 -0.0076233954 0.10722846 -0.017805975
0.043258026 -0.22423854 0.269876 0.19348809 -0.19984704 0.01410766 -0.11453727 0.098504506
00000000: 67ff 96bd b175 3abe e4ac 3b3e b71b 363b
00000010: d1e4 0b3e adcd f9bb 989a db3d d6dd 91bc
00000020: 542f 313d ca9e 65be 302d 8a3e be21 463e
00000030: b4a4 4cbe d123 673c 8492 eabd bbbc c93d

stat_predictor.stat_mlp.2.weight f4 [2, 16]
0.14786714 0.05674263 -0.07407472 0.069961585 -0.02409532 0.039696664 0.12774767 -0.10810638
-0.039547693 -0.04987663 -0.023651266 0.21727468 -0.12771088 -0.21509753 -0.02916612 -0.057440255
0.29380268 0.0780318 -0.13929532 -0.030994102 -0.118312225 0.031858243 -0.12645131 0.1478836
0.28614762 -0.23663063 0.12088847 -0.17486385 0.21605395 -0.0011911488 -0.076865785 0.026160054
00000000: 7c6a 173e f66a 683d 7db4 97bd 0548 8f3d
00000010: 8c63 c5bc f898 223d 49d0 023e e166 ddbd
00000020: c3fc 21bd 704b 4cbd 4dc0 c1bc 417d 5e3e
00000030: a4c6 02be 8742 5cbe c9ed eebc 7946 6bbd
00000040: 4e6d 963e 23cf 9f3d 6fa3 0ebe 58e7 fdbc
00000050: ae4d f2bd ca7d 023d 747c 01be cc6e 173e
00000060: f181 923e 4d4f 72be 6094 f73d 820f 33be
00000070: 3f3d 5d3e 5220 9cba cf6b 9dbd 9c4d d63c

stat_predictor.stat_mlp.2.bias f4 [2]
-0.06750173 -0.18850951
00000000: 593e 8abd a308 41be

unet.init_conv.weight f4 [8, 1, 3]
-0.5530803 -0.35406673 -0.17333668 -0.049970444 -0.48606062 -0.18321311 -0.4592173 -0.5109814
-0.40535885 -0.26785153 0.5139704 -0.12636243 -0.43927884 0.4851851 -0.42336628 -0.15273474
0.45967644 -0.044326242 0.5054244 -0.20095894 -0.52627665 -0.315081 0.2558949 -0.15851922
00000000: ac96 0dbf 3c48 b5be 2c7f 31be cfad 4cbd
00000010: f0dc f8be 389c 3bbe 881e ebbe adcf 02bf
00000020: 328b cfbe d623 89be 9093 033f 2765 01be
00000030: 28e9 e0be 2e6a f83e 77c3 d8be 7f66 1cbe
00000040: b65a eb3e 6f8f 35bd 7e63 013f 2ec8 4dbe
00000050: 11ba 06bf 4c52 a1be a804 833e dd52 22be

unet.init_conv.bias f4 [8]
-0.1189657 -0.33815348 0.49386156 -0.17988297 0.47852746 -0.44095144 -0.5518358 -0.35187256
00000000: 4aa4 f3bd 7422 adbe 6cdb fc3e 3e33 38be
00000010: 8d01 f53e 63c4 e1be 1c45 0dbf a428 b4be

unet.time_mlp.0.weight f4 [64, 16]
-0.06491859 0.003934516 -0.13658676 0.06480115 -0.2072151 0.12018126 -0.23706377 -0.11486002
0.14000317 0.0528815 -0.055376135 -0.008611731 -0.2057437 -0.07036683 0.063479595 0.21776442
0.16156574 0.03761149 0.122968376 0.16718358 -0.08684579 0.009751236 -0.11625546 0.032501154
0.06769756 0.18012403 0.05933172 0.18590108 0.118801676 0.21900144 0.09268181 0.20589703
-0.14369664 -0.046634752 -0.20048599 0.038745154 0.21234256 0.1290999 0.07876047 0.15679818
-0.1673229 -0.24047136 0.094735585 0.025451783 -0.17334953 0.007724604 -0.077671826 0.0037302242
-0.07600525 -0.14583066 -0.25326878 -0.24005768 0.1788939 0.17445895 0.1934279 0.09513692
0.18883698 0.22724627 0.17359348 0.22534773 0.24599461 -0.1141392 -0.08443432 0.19177513
0.14969702 -0.024340123 -0.14504512 0.03884514 -0.13258065 0.09438641 0.16549405 0.046649538
-0.18227051 0.19648588 0.06123735 0.11164963 -0.13451773 -0.25694653 -0.06480039 -0.048882887
0.13325366 -0.123181395 0.17145792 -0.15797605 0.09342898 -0.123097956 -0.10875331 -0.20794739
-0.012135262 0.23873425 -0.2036786 0.06901275 0.13892221 0.052424334 0.23097141 0.17547363
-0.17340662 0.11824429 0.20969306 0.21907873 0.2632695 -0.079767205 -0.052387003 0.07221225
-0.036938753 -0.14142323 0.17303409 -0.19400878 0.2873248 0.19932412 0.056971956 0.13213268
0.2126911 0.24686708 0.072209455 -0.12115773 0.014985058 -0.13966149 0.15643655 0.2009162
0.25328526 0.22743501 0.11514403 -0.2036067 0.14266913 0.04675221 0.09763164 0.012302327
0.008029749 0.13189055 0.1570541 -0.08547749 0.11662937 0.24522159 0.18541148 0.03742989
-0.13815923 -0.2175082 -0.060348075 0.06770072 0.07628257 0.159988 -0.13101599 0.078536466
0.13816266 0.11196513 -0.08474078 -0.086868174 0.16333915 0.09137705 -0.1610693 -0.24786182
0.19361718 -0.18233171 0.14232452 -0.23426509 0.03297539 -0.2860367 -0.05514889 -0.11208044
0.095581375 0.09758155 -0.22378337 0.15442583 -0.1581723 0.13921338 0.11996617 0.23053728
0.15848647 0.2117603 -0.19782667 -0.017589426 0.15984449 0.003195039 -0.15754691 -0.25885692
0.17259918 0.11435929 0.19105726 -0.15080209 0.146338 0.15514782 -0.05735878 -0.1300659
-0.18110773 -0.11501413 -0.09564333 0.21604882 0.21672381 0.09539936 -0.005732809 0.035843402
-0.0537429 -0.039205164 0.09254395 0.21805058 -0.18717502 -0.11123197 -0.053338118 -0.22459735
0.06010703 -0.21711874 0.18070796 -0.24986479 0.013910415 0.0800339 -0.2826275 -0.2420423
0.06648332 0.20717062 -0.10190789 0.10373514 0.15973744 0.091785386 -0.05278695 0.12820376
-0.22994079 0.06762555 -0.22933115 -0.142105 0.018087702 -0.20479065 0.17402434 -0.15000768
-0.18858604 0.0032585997 -0.23739916 0.055344086 -0.13823405 0.19774093 0.1326611 -0.15174937
-0.19218887 -0.2199838 0.22888403 -0.20545083 -0.2233184 0.074464105 -0.20276482 0.164536
-0.16918343 0.20206168 0.14421667 -0.26475403 -0.21130782 -0.02234262 -0.1402271 -0.19607316
0.21648075 0.20010051 0.124728836 -0.10976607 -0.25529948 -0.19822174 -0.00911242 0.030467307
00000000: 0af4 84bd 1ded 803b 66dd 0bbe 77b6 843d
00000010: 3230 54be 9821 f63d d8c0 72be bb3b ebbd
00000020: fe5c 0f3e 469a 583d 16d2 62bd 3818 0dbc
00000030: 7aae 52be 7c1c 90bd 9701 823d a3fd 5e3e
00000040: 7d71 253e 810e 1a3d d8d6 fb3d 2c32 2b3e
00000050: 35dc b1bd a6c3 1f3c 5817 eebd ee1f 053d
00000060: 05a5 8a3d 6f72 383e d105 733d da5c 3e3e
00000070: 4b4e f33d ea41 603e f6cf bd3d acd6 523e
00000080: 3625 13be 1504 3fbd 334c 4dbe 3db3 1e3d
00000090: 5470 593e c432 043e 2b4d a13d b48f 203e
000000a0: b256 2bbe 203e 76be bb04 c23d 4280 d03c
000000b0: 8a82 31be ad1e fd3b 6812 9fbd c776 743b
000000c0: a4a8 9bbd a254 15be 72ac 81be aed1 75be
000000d0: f62f 373e 5ea5 323e f711 463e 25d7 c23d
000000e0: 7b5e 413e 3fb3 683e 7dc2 313e 8ec1 663e
000000f0: 03e6 7b3e d0c1 e9bd e7eb acbd b360 443e
00000100: 2d4a 193e f064 c7bc b586 14be 151c 1f3d
00000110: 39c3 07be aa4d c13d 4677 293e 9613 3f3d
00000120: 1fa5 3abe 9833 493e 04d4 7a3d 90a8 e43d
00000130: 04bf 09be 7f8e 83be 11b6 84bd 6c39 48bd
00000140: a673 083e 8746 fcbd aa92 2f3e 79c4 21be
00000150: b157 bf3d c81a fcbd 0eba debd 29f0 54be
00000160: fad2 46bc c076 743e 1f91 50be 8f56 8d3d
00000170: a041 0e3e e6ba 563d c583 6c3e 5caf 333e
00000180: 8191 31be 102a f23d c7b9 563e 2d56 603e
00000190: 43cb 863e fd5c a3bd c193 56bd 04e4 933d
000001a0: 174d 17bd 40d1 10be d92f 313e 3daa 46be
000001b0: 3c1c 933e 9f1b 4c3e 6d5b 693d ca4d 073e
000001c0: b2cb 593e b9ca 7c3e 8de2 933d 8b21 f8bd
000001d0: e483 753c 6c03 0fbe e730 203e fabc 4d3e
000001e0: 9bae 813e b9e4 683e a2d0 eb3d 467e 50be
000001f0: db17 123e 3f7f 3f3d 19f3 c73d b38f 493c
00000200: 358f 033c 510e 073e cad2 203e d30e afbd
00000210: 61db ee3d 5e1b 7b3e 82dc 3d3e 1650 193d
00000220: 9d79 0dbe 78ba 5ebe 8b2f 77bd ada6 8a3d
00000230: 093a 9c3d e5d3 233e 0e29 06be bad7 a03d
00000240: 837a 0d3e f94d e53d 938c adbd f1e7 b1bd
00000250: 6142 273e e423 bb3d 5aef 24be 7dcf 7dbe
00000260: 9543 463e 2ab5 3abe 85bd 113e 30e3 6fbe
00000270: 3411 073d 6773 92be cde3 61bd 6e8a e5bd
00000280: 2bc0 c33d d6d8 c73d 7827 65be ce21 1e3e
00000290: ebf7 21be f48d 0e3e d3b0 f53d f711 6c3e
000002a0: 474a 223e b1d7 583e 1393 4abe b317 90bc
000002b0: 46ae 233e dc63 513b fa53 21be e588 84be
000002c0: d7bd 303e 3435 ea3d 84a4 433e dd6b 1abe
000002d0: a1d9 153e 12df 1e3e 0af1 6abd ff2f 05be
000002e0: 4e74 39be 878c ebbd a6e0 c3bd e73b 5d3e
000002f0: d9ec 5d3e bd60 c33d 4ada bbbb 88d0 123d
00000300: 8421 5cbd 9895 20bd af87 bd3d a748 5f3e
00000310: cfaa 3fbe 96cd e3bd 1279 5abd d9fc 65be
00000320: ca32 763d 6054 5ebe 820b 393e 8edc 7fbe
00000330: 82e8 633c d0e8 a33d 8db4 90be f0d9 77be
00000340: 6828 883d 8924 543e 15b5 d0bd 1773 d43d
00000350: 3692 233e faf9 bb3d 2137 58bd d947 033e
00000360: 9975 6bbe 447f 8a3d c9d5 6abe f983 11be
00000370: a92c 943c a4b4 51be 7033 323e 9d9b 19be
00000380: b31c 41be 3b8e 553b c418 73be 7bb0 623d
00000390: 3a8d 0dbe 997c 4a3e 50d8 073e 3064 1bbe
000003a0: 29cd 44be 6f43 61be 9360 6a3e b461 52be
000003b0: 94ad 64be a380 983d 95a1 4fbe 207c 283e
000003c0: 6c3e 2dbe 42e9 4e3e 89ad 133e d78d 87be
000003d0: 1461 58be df07 b7bc b197 0fbe 67c7 48be
000003e0: 21ad 5d3e 26e7 4c3e d571 ff3d 09cd e0bd
000003f0: 9db6 82be a4fa 4abe 424c 15bc 9396 f93c

unet.time_mlp.0.bias f4 [64]
-0.19965059 -0.18199578 0.03844442 -0.15671435 -0.09388178 -0.1198943 0.20544927 -0.151724
0.09008218 -0.1913006 0.022004722 -0.061979014 -0.12668213 -0.19388965 -0.07531662 -0.2180062
-0.029250022 -0.10325058 -0.014348221 0.05283665 -0.0697235 -0.1837698 0.17614217 -0.08064669
-0.22430597 0.12322454 -0.06835653 0.07269172 -0.046605818 0.21540622 -0.0516668 -0.15729812
0.2135141 -0.117446475 0.03142 0.26295772 -0.029021183 0.046414908 0.17445445 0.084139034
0.16704649 0.1757979 0.16082424 0.11096741 0.13517594 0.20664094 -0.07304167 -0.003399378
0.11624979 -0.071076065 0.07813889 0.01249959 0.023707943 0.2357592 0.15694322 -0.082713425
-0.096656114 -0.13284756 -0.16920216 -0.13881288 0.10811747 -0.10858867 -0.08161867 0.010617942
00000000: 3471 4cbe 1a5d 3abe e577 1d3d ba79 20be
00000010: 1745 c0bd 258b f5bd 4b61 523e 895d 1bbe
00000020: 027d b83d 4ee4 43be 3f43 b43c b5dd 7dbd
00000030: f6b8 01be 028b 46be 9a3f 9abd 043d 5fbe
00000040: be9d efbc 0a75 d3bd cd14 6bbc 3e6b 583d
00000050: 32cb 8ebd 272e 3cbe 9d5e 343e 182a a5bd
00000060: 77b0 65be 265d fc3d 82fe 8bbd 66df 943d
00000070: bee5 3ebd 7393 5c3e 91a0 53bd c212 21be
00000080: 71a3 5a3e c787 f0bd 42b2 003d 65a2 863e
00000090: d5bd edbc 8f1d 3e3d 30a4 323e 1651 ac3d
000000a0: 3c0e 2b3e 5d04 343e 1caf 243e e242 e33d
000000b0: 906b 0a3e af99 533e df96 95bd 19c8 5ebb
000000c0: 5f14 ee3d 5490 91bd 4807 a03d 15cb 4c3c
000000d0: 2937 c23c dc6a 713e b9b5 203e a865 a9bd
000000e0: a4f3 c5bd 3109 08be 5543 2dbe f724 0ebe
000000f0: b16c dd3d bd63 debd b027 a7bd e0f6 2d3c

unet.time_mlp.2.weight f4 [16, 64]
0.094533294 -0.1338575 -0.08235559 0.0030062136 -0.054279204 -0.079216324 -0.10883527 0.007607765
-0.08443003 0.07973209 -0.06556541 -0.117180035 0.14860767 0.12363523 -0.038863715 0.11075486
0.03308282 0.002359393 0.09081759 -0.14881071 -0.076746374 0.11370971 0.0872726 -0.04781367
0.08696019 0.0833208 0.01722905 0.0044630226 0.025825148 0.09395627 0.08241199 0.10181994
0.025644809 0.05071576 -0.015225628 0.033931166 -0.122116275 0.00973562 0.09181301 0.100928985
0.116448 0.0031541395 -0.03731739 0.06007795 0.050559323 0.06718885 0.04449691 -0.088232
0.054636378 0.07765676 0.010852483 0.0852728 -0.08607678 -0.009352006 0.03088518 0.094692275
0.13606493 0.007551996 0.020154448 -0.043652818 0.13217022 0.1222516 0.08954566 -0.05679523
0.100045815 0.014185764 -0.063113056 -0.14525326 0.056620985 -0.14934725 -0.15822186 0.015090707
-0.07289852 0.13308534 -0.016330061 -0.09701462 0.15949872 0.026322607 -0.064507365 0.056431986
-0.016904209 -0.16301022 0.12380439 -0.048876405 -0.044562805 -0.0675358 0.13261329 0.13617308
0.04526859 -0.043305952 0.028818948 -0.032741945 0.060971107 -0.14387956 0.043651026 0.049598146
-0.015541083 0.10250811 -0.061369654 -0.086251 -0.14699118 0.16115436 -0.0042781862 0.16308822
0.06519935 0.11931407 0.09288385 -0.1615633 -0.06110919 0.13383056 0.038512655 0.0637439
-0.035521705 -0.03984763 0.085523225 0.15890211 -0.04386449 0.06499689 -0.0077417204 0.1217554
0.13350213 -0.07327162 0.114358574 0.03761412 -0.088805445 -0.08485522 -0.14276455 0.032356948
0.025783379 -0.09700377 0.008748913 0.086204164 -0.011695562 -0.081561364 -0.11131915 0.059093945
-0.04989378 -0.077232905 0.13555644 -0.09862895 0.1019767 0.06790834 0.0065656845 -0.03369036
-0.050809607 -0.02549481 0.17003083 -0.08876712 -0.010688087 0.09698564 -0.097972214 -0.105387
0.04458274 -0.12089836 0.12115845 -0.01141733 -0.010745462 0.06147551 -0.036775045 -0.016568242
0.072482646 -0.05778556 -0.013467995 0.0055453735 -0.06660552 0.014037908 -0.0046123397 0.024745177
-0.07259562 0.047949746 0.11486034 0.05788492 -0.010855593 -0.05487937 0.028324999 -0.08971303
0.008645398 0.046379957 -0.06498882 0.030820668 -0.026158074 -0.026677387 -0.08334162 -0.039946713
0.13969699 0.10893966 0.117208764 0.044917412 0.042740546 0.08999361 -0.0066501843 0.095044926
0.09105297 -0.0355737 0.029557686 0.0049482225 0.08367052 -0.055570044 0.02394051 0.08109404
-0.092087075 0.021000154 -0.016415576 -0.03908751 -0.00089295313 0.063148655 -0.10864196 0.08824895
0.116707504 0.07687475 -0.005609371 -0.06909451 -0.17372337 -0.034710202 -0.06076415 0.042171407
0.1131264 -0.0022980594 0.014243669 0.0023709058 -0.09464513 0.025132379 -0.04026935 -0.04143923
0.046088517 -0.11749405 0.050194763 -0.13955168 0.06682457 0.06906716 0.028623948 0.106044464
-0.093773775 0.09811194 0.043877322 -0.06633816 -0.08650542 0.0582116 0.16167322 0.14095263
0.08454153 0.0080322465 0.15186515 -0.04520487 -0.047561 0.03088398 0.033181462 -0.013134489
-0.01270107 0.13128632 0.08687802 0.036405623 -0.1099553 -0.068899974 -0.12262892 -0.081143744
00000000: ac9a c13d f111 09be 0caa a8bd e503 453b
00000010: df53 5ebd 2b3c a2bd 07e5 debd 8f4a f93b
00000020: a7e9 acbd 944a a33d 2847 86bd 16fc efbd
00000030: 9c2c 183e 7834 fd3d 8f2f 1fbd 72d3 e23d
00000040: da81 073d 0ca0 1a3b 93fe b93d d661 18be
00000050: 342d 9dbd a3e0 e83d fabb b23d 44d8 43bd
00000060: 2f18 b23d 18a4 aa3d f023 8d3c 8c3e 923b
00000070: 438f d33c 256c c03d 9ec7 a83d f986 d03d
00000080: 1015 d23c 54bb 4f3d ea74 79bc 68fb 0a3d
00000090: 1918 fabd 2682 1f3c 7608 bc3d dbb3 ce3d
000000a0: 4a7c ee3d aeb5 4e3b 1fda 18bd 4c14 763d
000000b0: 4b17 4f3d 4f9a 893d 6442 363d fbb2 b4bd
000000c0: 65ca 5f3d 820a 9f3d 9dce 313c 81a3 ae3d
000000d0: 0649 b0bd 2839 19bc eb02 fd3c 06ee c13d
000000e0: 9b54 0b3e bc76 f73b f11a a53c 4ccd 32bd
000000f0: a157 073e 0c5f fa3d b763 b73d 1da2 68bd
00000100: d2e4 cc3d 686b 683c 6b41 81bd 45bd 14be
00000110: 68eb 673d 7cee 18be e904 22be 033f 773c
00000120: d24b 95bd 8647 083e 9fc6 85bc 9aaf c6bd
00000130: a253 233e 82a2 d73c 701c 84bd 3a25 673d
00000140: b27a 8abc 27ec 26be 288d fd3d a032 48bd
00000150: 7d87 36bd 3650 8abd c7cb 073e f570 0b3e
00000160: 8f6b 393d 9561 31bd b715 ec3c 6b1c 06bd
00000170: d7bc 793d 2a55 13be 6bcb 323d 6d27 4b3d
00000180: 07a0 7ebc c6ef d13d bf5e 7bbd 5da4 b0bd
00000190: db84 16be a605 253e 0730 8cbb 9900 273e
000001a0: 3d87 853d ef5a f43d e339 be3d da70 25be
000001b0: a14d 7abd e10a 093e 72bf 1d3d 298c 823d
000001c0: 357f 11bd 4537 23bd cd26 af3d 3cb7 223e
000001d0: 40ab 33bd 171d 853d 42ae fdbb e55a f93d
000001e0: c8b4 083e 6e0f 96bd d434 ea3d 4311 1a3d
000001f0: a1df b5bd 93c8 adbd df30 12be b888 043d
00000200: aa37 d33c eaa9 c6bd 9a57 0f3c cf8b b03d
00000210: be9e 3fbc a509 a7bd 4bfb e3bd 7e0c 723d
00000220: 6c5d 4cbd 492c 9ebd 4fcf 0a3e fafd c9bd
00000230: 29d9 d03d 8713 8b3d f424 d73b e7fe 09bd
00000240: bc1d 50bd 7eda d0bc 901c 2e3e 89cb b5bd
00000250: 161d 2fbc 68a0 c63d a8a5 c8bd 24d5 d7bd
00000260: 649c 363d 8f99 f7bd ec21 f83d c10f 3bbc
00000270: bc0d 30bc bfcd 7b3d 6ea1 16bd 1fba 87bc
00000280: c871 943d 8db0 6cbd dea8 5cbc f7b5 b53b
00000290: 7a68 88bd 41ff 653c 1c23 97bb 66b6 ca3c
000002a0: 03ad 94bd f466 443d e63b eb3d bd18 6d3d
000002b0: a8db 31bc 31c9 60bd d409 e83c 77bb b7bd
000002c0: 6da5 0d3c e9f8 3d3d dc18 85bd a07b fc3c
000002d0: 7549 d6bc 898a dabc 03af aabd 2a9f 23bd
000002e0: ba0c 0f3e c21b df3d 260b f03d 52fb 373d
000002f0: b610 2f3d 924e b83d cae9 d9bb eaa6 c23d
00000300: fb79 ba3d bab5 11bd f622 f23c b324 a23b
00000310: 735b ab3d 6a9d 63bd e31e c43c a214 a63d
00000320: 2698 bcbd 8408 ac3c f579 86bc 3a1a 20bd
00000330: 1215 6aba 1554 813d ad7f debd debb b43d
00000340: 5804 ef3d 8270 9d3d d0ce b7bb 6c81 8dbd
00000350: 8ae4 31be 492c 0ebd d4e3 78bd edbb 2c3d
00000360: d0ae e73d 0a9b 16bb 475e 693c 3361 1b3b
00000370: 4ed5 c1bd 6be2 cd3c 79f1 24bd 2fbc 29bd
00000380: 50c7 3c3d b8a0 f0bd 0699 4d3d a3e6 0ebe
00000390: 52db 883d 1573 8d3d c57c ea3c d72d d93d
000003a0: 770c c0bd eaee c83d b5b8 333d 4ddc 87bd
000003b0: c129 b1bd 496f 6e3d aa8d 253e e355 103e
000003c0: 1c24 ad3d af99 033c 8a82 1b3e be28 39bd
000003d0: 53cf 42bd 6700 fd3c 49e9 073d 0a32 57bc
000003e0: 2618 50bc ec6f 063e 1aed b13d 101e 153d
000003f0: 3f30 e1bd 6e1b 8dbd df24 fbbd b12e a6bd

unet.time_mlp.2.bias f4 [16]
0.037743162 -0.13308999 -0.06773346 -0.0913496 0.1460676 -0.07394267 0.15387544 0.09545707
-0.11554041 -0.009618997 0.014326862 0.12449238 0.11301668 -0.012951639 0.09208693 0.06023026
00000000: 9398 1a3d be48 08be d7b7 8abd 8015 bbbd
00000010: bf92 153e 416f 97bd 8691 1d3e ff7e c33d
00000020: 73a0 ecbd ff98 1dbc 37bb 6a3c dcf5 fe3d
00000030: 4a75 e73d 1c33 54bc 1398 bc3d 01b4 763d

unet.cond_mlp.0.weight f4 [16, 32]
-0.1379101 -0.10009422 0.13333037 0.120181 0.015612104 -0.1648799 0.07881231 -0.11508898
0.13453059 -0.14540395 0.106616266 0.0019404002 -0.0422293 0.11926379 0.12298978 -0.020799711
0.040020175 0.12376556 -0.11188933 0.13243167 -0.111549675 -0.061503112 -0.027943375 0.039666977
0.07933329 0.09912283 0.19185558 -0.03754783 -0.07489257 0.105815284 0.09927135 -0.16378513
-0.029746259 0.14497386 -0.009884811 -0.046372782 -0.032986652 0.10925023 -0.09296238 -0.16887315
-0.0632466 0.041994754 -0.016545918 -0.06312426 0.16785915 -0.10218855 0.10784415 0.06485817
0.055465683 0.015161237 0.041179687 -0.09326208 -0.031029135 0.17065232 0.002700141 -0.04848794
-0.063692436 0.12201948 0.07775607 -0.16950694 -0.06643095 -0.17284538 0.058747213 -0.022033447
-0.044316515 -0.03263164 -0.16342081 0.14296944 0.047293384 -0.01627151 -0.016602116 -0.06594571
-0.12232656 -0.1521596 0.046794448 -0.09732492 -0.10225022 -0.1785618 -0.043616515 0.023397824
0.14777502 0.16361757 -0.03738768 0.07489896 0.11121473 -0.118044585 -0.17463952 0.016368968
0.06994569 -0.18814588 0.18376209 0.0729766 -0.13610694 -0.016520657 -0.034295544 -0.13594453
-0.10886768 -0.0023232542 -0.072780475 0.05858086 0.11610276 0.105957106 -0.13214989 -0.11672111
0.14412741 -0.16781905 -0.010789326 -0.13205238 -0.07187619 -0.071801856 -0.13089067 0.10847578
0.06915324 -0.08332188 0.17747408 -0.15546463 -0.035068102 0.07517316 -0.20740905 -0.19950823
0.0070683616 0.03163072 -0.12950931 -0.008150096 -0.13421348 0.022571957 -0.010172846 0.117965296
0.033756338 -0.111163236 0.0037477217 -0.10132357 -0.19825652 0.066947125 -0.059562188 0.13522395
0.0013706088 0.03472451 0.04923405 -0.054847237 0.022830348 -0.123154044 0.14366747 -0.1552926
-0.026900804 -0.026317999 -0.05196697 -0.013656943 -0.094464466 -0.0536346 0.08609357 -0.059869677
0.076200776 0.039953507 0.09210187 -0.015607206 -0.05782971 0.13968094 0.07032912 0.12512714
-0.1443712 -0.049501017 -0.13492568 0.13177551 -0.069947064 0.11887402 0.018711094 0.07750363
0.13205872 -0.16019893 0.12558927 0.0016108273 -0.016324265 0.010237295 -0.15903315 -0.088956505
0.034657784 -0.11758076 -0.021736618 -0.06885357 0.1310528 -0.056861904 0.010012827 -0.16779962
0.0966888 0.11156346 0.0071479077 0.11943793 -0.040459022 0.13471735 0.08675962 -0.11861695
0.17294632 -0.039694045 -0.059352335 -0.02047175 -0.15474778 0.08664195 0.04131082 -0.13476385
0.1521891 -0.06764208 0.031851888 -0.042333886 0.023103036 0.13482106 0.15913133 0.019984571
-0.016418524 0.026683131 -0.1622643 0.08826364 -0.006650072 0.036753774 -0.17109305 0.034592714
0.11073486 -0.09590585 -0.12306063 0.16177157 -0.16832982 -0.14402473 0.01302259 0.114156775
-0.10711547 0.010902208 0.020546122 -0.16383347 -0.15201372 -0.09273312 -0.03196537 -0.071836635
0.054686956 -0.10413302 -0.097632535 -0.07215743 -0.13532804 0.07322292 -0.04549612 0.013158975
-0.02369916 -0.12809224 0.059578158 -0.022959115 0.15755162 -0.056786824 -0.09372215 -0.12594695
0.039858412 0.13160539 0.07758331 -0.119038865 -0.13104303 -0.0677603 -0.10983838 0.088638365
00000000: 4e38 0dbe 33fe ccbd c287 083e 7521 f63d
00000010: e9c9 7f3c 47d6 28be 5968 a13d c5b3 ebbd
00000020: 63c2 093e c6e4 14be a159 da3d 0755 fe3a
00000030: a1f8 2cbd 9340 f43d 11e2 fb3d 2864 aabc
00000040: 32ec 233d cc78 fd3d 3c26 e5bd 2b9c 073e
00000050: 2874 e4bd b0ea 7bbd 81e9 e4bc d779 223d
00000060: 7e79 a23d e900 cb3d ca75 443e c1cb 19bd
00000070: 4761 99bd afb5 d83d c74e cb3d 4ab7 27be
00000080: 6dae f3bc 0774 143e e7f3 21bc 63f1 3dbd
00000090: 031d 07bd 96be df3d 0f63 bebd 15ed 2cbe
000000a0: 6f87 81bd b102 2c3d 4e8b 87bc 4b47 81bd
000000b0: 45e3 2b3e 3b48 d1bd 65dd dc3d 5cd4 843d
000000c0: fc2f 633d d666 783c 08ac 283d 3000 bfbd
000000d0: d030 febc 7bbf 2e3e d9f4 303b 4a9b 46bd
000000e0: 2e71 82bd 59e5 f93d 933e 9f3d 3a93 2dbe
000000f0: f30c 88bd 61fe 30be eba0 703d 7d7f b4bc
00000100: 3c85 35bd c1a8 05bd c957 27be 9566 123e
00000110: b5b6 413d d44b 85bc 2901 88bc 8b0e 87bd
00000120: 5986 fabd bacf 1bbe 89ab 3f3d 4a52 c7bd
00000130: 9068 d1bd e8d8 36be 3ba7 32bd cbac bf3c
00000140: 5652 173e 5d8b 273e d323 19bd a064 993d
00000150: 8cc4 e33d 5cc1 f1bd b4d4 32be 3718 863c
00000160: b03f 8f3d 50a9 40be 212c 3c3e c174 953d
00000170: 9e5f 0bbe 5456 87bc 7c79 0cbd 0b35 0bbe
00000180: 05f6 debd bd41 18bb ee0d 95bd 7cf2 6f3d
00000190: 49c7 ed3d 0a00 d93d 4d52 07be 7a0b efbd
000001a0: 2396 133e c2d8 2bbe b7c5 30bc bd38 07be
000001b0: d333 93bd da0c 93bd 3408 06be 8d28 de3d
000001c0: 37a0 8d3d a9a4 aabd c4bb 353e 1f32 1fbe
000001d0: 92a3 0fbd 63f4 993d 0a63 54be e34b 4cbe
000001e0: b79d e73b 378f 013d 179e 04be fb87 05bc
000001f0: 426f 09be d3e8 b83c 02ac 26bc ca97 f13d
00000200: 1644 0a3d 8da9 e3bd 569c 753b bb82 cfbd
00000210: c203 4bbe 931b 893d 7bf7 73bd 2678 0a3e
00000220: 00a6 b33a 4a3b 0e3d a5a9 493d 7fa7 60bd
00000230: b606 bb3c 3038 fcbd 911d 133e 0605 1fbe
00000240: 135f dcbc d898 d7bc 51db 54bd 5fc1 5fbc
00000250: 9676 c1bd f4af 5bbd d351 b03d e839 75bd
00000260: 270f 9c3d 4aa6 233d e89f bc3d 5eb5 7fbc
00000270: d9de 6cbd 8508 0f3e b708 903d 5421 003e
00000280: 0bd6 13be 94c1 4abd f529 0abe 29f0 063e
00000290: 6840 8fbd 3974 f33d 0248 993c 39ba 9e3d
000002a0: 673a 073e 300b 24be 799a 003e 6522 d33a
000002b0: 77ba 85bc 54ba 273c 96d9 22be d42e b6bd
000002c0: 52f5 0d3d 2ece f0bd fe10 b2bc 1a03 8dbd
000002d0: b532 063e 07e8 68bd d70c 243c aad3 2bbe
000002e0: c704 c63d 627b e43d ff38 ea3b e09b f43d
000002f0: 5cb8 25bd 58f3 093e 07af b13d 72ed f2bd
00000300: d718 313e 3996 22bd 6f1b 73bd 5fb4 a7bc
00000310: 3476 1ebe 5671 b13d 8935 293d 89ff 09be
00000320: 76d7 1b3e ee87 8abd 2077 023d 4c66 2dbd
00000330: 9442 bd3c 880e 0a3e 53f3 223e afb6 a33c
00000340: 2480 86bc 9596 da3c 9d28 26be 91c3 b43d
00000350: d9e8 d9bb 208b 163d 0433 2fbe 17b1 0d3d
00000360: f5c8 e23d 496a c4bd 3607 fcbd 72a7 253e
00000370: a75e 2cbe 387b 13be b45c 553c 07cb e93d
00000380: 5b5f dbbd 2d9f 323c 5750 a83c f6c3 27be
00000390: 7ca9 1bbe ddea bdbd 1fee 02bd 161f 93bd
000003a0: 6eff 5f3d b143 d5bd 91f3 c7bd 46c7 93bd
000003b0: 6f93 0abe e6f5 953d 245a 3abd be98 573c
000003c0: be24 c2bc 9d2a 03be 3a08 743d c114 bcbc
000003d0: 3655 213e 4d99 68bd 66f1 bfbd 3df8 00be
000003e0: 9342 233d 90c3 063e 00e4 9e3d a6ca f3bd
000003f0: 2530 06be eac5 8abd f2f2 e0bd 0888 b53d

unet.cond_mlp.0.bias f4 [16]
-0.053635545 0.1372511 -0.13214692 -0.08571443 0.051934876 0.067011766 -0.020987 -0.02226928
-0.19167615 -0.011126507 0.14281043 0.018106064 -0.06275164 0.033812776 0.02969387 0.016939921
00000000: f2b0 5bbd 8d8b 0c3e 8651 07be 0c8b afbd
00000010: aab9 543d 773d 893d eeec abbc 116e b6bc
00000020: c146 44be f44b 36bc e63c 123e 2b53 943c
00000030: ef83 80bd 447f 0a3d 8f40 f33c 97c5 8a3c
